checkpoint_actor_Double_DDPG.pth (torch_old, 554688 bytes, 18 tensors)

bn0.weight f4 [33]
0	0x3f13012d	0.5742367
1	0x3eedd789	0.46453503
2	0x3f1cbfbb	0.6123006
3	0x3e899f04	0.26879132
4	0x3e7b21a5	0.24524553
5	0x3e720689	0.23635305
6	0x3e34afb5	0.17645152
7	0x3e18ef56	0.1493505
8	0x3e334d6d	0.17510004
9	0x3e27e7e3	0.16397052
10	0x3ec23565	0.37931362
11	0x3ebbf69b	0.36711583
12	0x3eae9d61	0.34104446
13	0x3f6b2ed1	0.9186831
14	0x3f205d26	0.62642133
15	0x3f43692b	0.7633235
16	0x3ebb2d0b	0.36557803
17	0x3e838097	0.25684044
18	0x3e8cc4c9	0.27493885
19	0x3ed88f5f	0.42296883
20	0x3e4321e4	0.19055897
21	0x3e50252e	0.20326683
22	0x3e6c11eb	0.2305371
23	0x3f3c0e43	0.7345926
24	0x3f181ca6	0.59418714
25	0x3f2312bd	0.6370047
26	0x3f465b06	0.7748264
27	0x3e614ea8	0.22002661
28	0x3f113730	0.56724834
29	0x3e83a066	0.25708312
30	0x3d3b9670	0.045797765
31	0x3e33b898	0.17550886
32	0x3f41bd41	0.75679404

bn0.bias f4 [33]
0	0xb9a55e4e	-0.00031541515
1	0xba55903c	-0.0008146798
2	0x3b27c7bb	0.0025601226
3	0x385b6b27	5.2313462e-05
4	0xb99c7003	-0.00029838094
5	0x3abe3be4	0.0014513698
6	0xba5c372c	-0.0008400555
7	0xb911c809	-0.00013902796
8	0xba8b676d	-0.0010635682
9	0x39e856a4	0.0004431504
10	0xbac70c9a	-0.0015186251
11	0x3aac9dde	0.0013169607
12	0x3882d8cf	6.239267e-05
13	0xb9fbe39c	-0.00048044033
14	0x38ae15ed	8.3010505e-05
15	0xba6959fe	-0.00089016545
16	0xba098bb9	-0.00052469556
17	0xb9b63dc0	-0.00034759752
18	0x3a5ff9c2	0.0008543992
19	0x39168182	0.0001435336
20	0x3a484027	0.0007638954
21	0x380093a3	3.0655076e-05
22	0x3a3105fb	0.00067529053
23	0x3acd0b5c	0.0015643644
24	0xb8fc6c77	-0.000120364995
25	0x39e8393b	0.00044293128
26	0x37285d64	1.00353245e-05
27	0xb9c3660c	-0.0003726933
28	0x3acd0230	0.0015640911
29	0xb99c7021	-0.0002983818
30	0x39d59385	0.00040736436
31	0x39b52c19	0.00034555866
32	0xba4d9104	-0.00078417384

bn0.running_mean f4 [33]
0	0x3f63c186	0.8896717
1	0xc00d8b54	-2.211629
2	0xbf7267b4	-0.9468949
3	0x3f0e199a	0.55507815
4	0x3d7ff3b2	0.062488265
5	0xbc284856	-0.0102711525
6	0xbddd2621	-0.10798288
7	0x3de635b8	0.11240715
8	0xbb99dea3	-0.00469573
9	0x3ce22a22	0.027607981
10	0xbd1c3532	-0.03813667
11	0xbd591405	-0.052997608
12	0xbde34fc7	-0.11099201
13	0x3f9b88c3	1.2151111
14	0xc03e387a	-2.972197
15	0xbfa40def	-1.2816752
16	0x3cab1db3	0.020888185
17	0x3dbb8c31	0.09157599
18	0x3cd8b6ef	0.026454417
19	0x3e46adb4	0.194022
20	0x3e343fcb	0.1760246
21	0x3c26ac29	0.010172882
22	0x3e103c84	0.14085585
23	0xbe5fb36e	-0.2184579
24	0x3d64995b	0.055810314
25	0xbe860c9e	-0.261815
26	0x3dbb3273	0.09140482
27	0xbf7ffffc	-0.99999976
28	0xbe52ead3	-0.20597391
29	0x00000000	0.0
30	0x3f7ffffc	0.99999976
31	0x00000000	0.0
32	0xbcf4a321	-0.029862942

bn0.running_var f4 [33]
0	0x40777248	3.8663502
1	0x3fe3da27	1.780095
2	0x40767066	3.8506103
3	0x3ea6e467	0.32596132
4	0x3da0b9b5	0.07847921
5	0x3e11ade0	0.14226484
6	0x3e03d191	0.12872912
7	0x3f9be8e2	1.2180445
8	0x3df12340	0.117743015
9	0x3e6f6083	0.2337666
10	0x407f9bb5	3.9938786
11	0x40907431	4.5141835
12	0x40c70ce5	6.220324
13	0x418e8897	17.816694
14	0x40c98284	6.297182
15	0x418e0452	17.75211
16	0x3e3d020e	0.18457815
17	0x3e980801	0.29693606
18	0x3e2724c2	0.16322616
19	0x3e9e10e6	0.30872267
20	0x40a15f28	5.0428658
21	0x3f99cca8	1.2015581
22	0x3fc2ec0a	1.5228283
23	0x41a11cf2	20.139133
24	0x41c5a756	24.706707
25	0x41fedc14	31.85746
26	0x4201f0f8	32.48532
27	0x00000004	6e-45
28	0x41faf72e	31.370693
29	0x00000004	6e-45
30	0x00000004	6e-45
31	0x00000004	6e-45
32	0x3ea9c9ea	0.3316186

fc1.weight f4 [400, 33]
0	0x3b6a4781	0.0035748186
1	0x3e1793c8	0.14802468
2	0xbdb92938	-0.09041065
3	0xbd9ef433	-0.07761421
4	0xbb91ceb8	-0.0044496916
5	0xbde9a883	-0.11409094
6	0x3c1a8d57	0.009433112
7	0xbccd3f8a	-0.025054712
8	0x3c476a77	0.012171379
9	0xbd2dbd15	-0.04241665
10	0x3db3b78b	0.087752424
11	0x3cef61ec	0.029221497
12	0xbd0a2066	-0.033722304
13	0x3cde839c	0.027162366
14	0x3dcf66ec	0.10127053
15	0x3a99bd5a	0.0011729405
16	0x3cfffaaf	0.031247465
17	0xbd02dccc	-0.03194885
18	0x3c6431b0	0.013927862
19	0xbc5d016d	-0.013489109
20	0x3d77728c	0.060411975
21	0xbc8539ef	-0.016262976
22	0x3b81898f	0.003953166
23	0x3cb4603f	0.02201855
24	0xbd3faa05	-0.046793003
25	0x3ce9f3dc	0.028558664
26	0x3d2ed125	0.042679925
27	0xba5ceeeb	-0.00084279355
28	0x3dca7840	0.09886217
29	0xbc384ca0	-0.011248738
30	0x3c875d6a	0.016524035
31	0x3d1e4fc1	0.038650278
32	0xbd045e8e	-0.032316737
33	0x3ce258be	0.027630206
34	0x3d1cda27	0.038293984
35	0xbc1db622	-0.009625943
36	0xbd2dad86	-0.042401813
37	0x3d9c265d	0.07624505
38	0x3d6bb527	0.057545807
39	0xbb98512b	-0.004648348
40	0xbd878890	-0.06617844
41	0xbc2281f0	-0.009918675
42	0x3d1e952a	0.038716473
43	0x3d7b5128	0.061356694
44	0x3d1be90b	0.038064044
45	0xbcd0d832	-0.025493715
46	0xbdbfd080	-0.0936594
47	0xbd8d6fb0	-0.06906068
48	0x3dd6f90c	0.10496721
49	0x3d05d3e6	0.032672785
50	0x3ce21831	0.027599426
51	0x3da6a1f5	0.081363596
52	0x39176350	0.00014437479
53	0x3db01a12	0.085987225
54	0xbd8fadf3	-0.070156
55	0xba7f9116	-0.00097490975
56	0xbdbb7e6f	-0.09154975
57	0xbcec1b2c	-0.02882155
58	0xbc8e0815	-0.017337838
59	0xbbafe552	-0.0053679133
60	0x3d405e0f	0.0469647
61	0x3dd5768b	0.10423001
62	0x3ce8d610	0.028422385
63	0x3d312bff	0.04325485
64	0x3c98a3a9	0.018632727
65	0x3d077404	0.033069625
66	0x3c0c41f9	0.008560651
67	0xbdb8ea11	-0.090290196
68	0x3d91677d	0.07099817
69	0x3cb582c3	0.022157079
70	0x3d386671	0.04501957
71	0x3d8957b9	0.06706185
72	0x3cf8fac5	0.030393014
73	0xbcc713b2	-0.024301384
74	0xbc7c0052	-0.015380936
75	0xbdea1f56	-0.11431758
76	0xbd2514d7	-0.040303078
77	0xbd829361	-0.063757665
78	0xbc03136e	-0.008000238
79	0xbda1a5e4	-0.07892969
80	0x3cc6f0c3	0.024284726
81	0x3e12004c	0.14257926
82	0xbd2901ef	-0.04126161
83	0x3c26f769	0.010190823
84	0xbd223f4e	-0.039611153
85	0x3d46d8d2	0.04854662
86	0xbd012197	-0.031526174
87	0x3d273f70	0.040831983
88	0xbd827f51	-0.0637194
89	0xbd00eb41	-0.031474356
90	0x3db50692	0.08839144
91	0x3c80afc7	0.015708817
92	0xbd1888cd	-0.03723984
93	0xbd10a5c8	-0.03531435
94	0x3a5b6421	0.00083691074
95	0x3ba05681	0.0048931246
96	0x3c79abb6	0.015238693
97	0x3cfd786d	0.030941213
98	0xbcf134c3	-0.029444104
99	0x3cc57519	0.024103688
100	0x3d160933	0.036629867
101	0xbc502782	-0.012704732
102	0xbc5406ef	-0.012941106
103	0x3c8b7bb8	0.017026767
104	0xbdc2f1c9	-0.09518773
105	0xbd08c45e	-0.033390395
106	0x3bd4c372	0.0064930255
107	0xbc607153	-0.013698894
108	0x3dd7b516	0.10532586
109	0x3c005d45	0.007834737
110	0x3bfc43a3	0.0076984926
111	0xbd43c388	-0.047793895
112	0x3c3c8054	0.011505205
113	0xbdeaeb86	-0.11470704
114	0xbdf49003	-0.119415306
115	0xbce7c2ab	-0.028291067
116	0xbc1efae1	-0.009703369
117	0xbd501919	-0.050805185
118	0x3c888e20	0.016669333
119	0xbd1cfe0b	-0.03832821
120	0xbdc30455	-0.09522311
121	0xbd5caafc	-0.053874
122	0x3c0b08f2	0.008486019
123	0xbd1ac31b	-0.037783723
124	0xbd61dff1	-0.055145208
125	0x3db1229f	0.086491816
126	0xbc583e66	-0.013198471
127	0xbdc588f4	-0.09645262
128	0xbd325393	-0.043536734
129	0x3cf6ecaf	0.030142156
130	0xbc324084	-0.01087964
131	0x3d8c6ff2	0.068572894
132	0x3d6366ec	0.055518076
133	0x3d25f299	0.040514562
134	0x3bb4b26d	0.005514434
135	0xbd51eab4	-0.05124922
136	0x3d762106	0.060090087
137	0x3c97f0a3	0.018547362
138	0x3c2669fb	0.010157104
139	0x3d6d206d	0.05789225
140	0xbc88502c	-0.016639791
141	0xbd84ed54	-0.06490579
142	0x3d0003cf	0.031253632
143	0x3d2b2236	0.041780673
144	0x3daeb2ca	0.08530195
145	0xbd8a847c	-0.06763551
146	0xbc215cd1	-0.009848789
147	0xbc850928	-0.016239718
148	0x3cb41b2b	0.021985611
149	0x3cf89257	0.030343218
150	0xbe3e249e	-0.18568656
151	0xbd46548c	-0.048420474
152	0x3d5fba9d	0.054621328
153	0xbd1b13d5	-0.03786071
154	0x3ca393d5	0.019967953
155	0xbdc0df5f	-0.09417605
156	0xbcb01df0	-0.02149865
157	0xbbec3c31	-0.007209324
158	0x3dd3eb5e	0.10347627
159	0xbc3c3d1a	-0.011489177
160	0xbd68bcbb	-0.056820612
161	0xbcf5a79f	-0.029987155
162	0xbafb5184	-0.0019174074
163	0x3d25ad06	0.04044821
164	0xbd01cdda	-0.031690456
165	0xbd33453a	-0.04376719
166	0x3cb329d0	0.021870524
167	0x3d468a98	0.048472017
168	0x3d324f0b	0.043532412
169	0x3d63405c	0.0554813
170	0xbc1e2e69	-0.00965462
171	0xbca93021	-0.020652832
172	0x3dc65d29	0.09685738
173	0x3d8caf46	0.06869368
174	0x3cd6c4d5	0.026216904
175	0xbcaa8932	-0.020817373
176	0xbc30a438	-0.01078134
177	0x3d7f006d	0.062256265
178	0x3d6dda8c	0.05806975
179	0xbdb69ec9	-0.089170046
180	0x3e442cc1	0.19157697
181	0x3d44a44f	0.04800826
182	0x3cb6d113	0.022316491
183	0xbcae6977	-0.021290524
184	0xbaa5b652	-0.0012642837
185	0xbce6be5e	-0.028166946
186	0x3be28d7e	0.00691384
187	0x3cde1afe	0.02711248
188	0x3cd2d9c0	0.025738597
189	0xbdbcb168	-0.09213525
190	0x3c27a56b	0.01023231
191	0x3dcea775	0.10090534
192	0x3d15f4b3	0.036610316
193	0x3cd31693	0.0257676
194	0xbd039d2a	-0.032132305
195	0xbc79e2c7	-0.015251822
196	0xbc8cf58e	-0.017206933
197	0x3cdd3d4a	0.027006764
198	0xbd069630	-0.032858074
199	0xbc377eae	-0.011199636
200	0x3d051396	0.03248938
201	0x3d35e99b	0.044412237
202	0xbd348eea	-0.044081606
203	0xbdbcae86	-0.09212975
204	0xbe13b783	-0.14425473
205	0xbcf4db19	-0.02988963
206	0xb92ce8c8	-0.00016489916
207	0xbcc1185a	-0.023571182
208	0x3da8f978	0.082507074
209	0x3c1aa0b8	0.009437732
210	0x3d9dccab	0.07705053
211	0x3ce92dae	0.028464165
212	0x3d3dabe6	0.046306513
213	0xbd7fc156	-0.06244024
214	0xbda53fe4	-0.08068827
215	0x3d04d5a1	0.032430295
216	0xbe08161b	-0.13289683
217	0x3c123bb0	0.008925363
218	0x3db3a6b5	0.08772031
219	0xba619468	-0.0008605183
220	0xbd13711a	-0.035996534
221	0x3d9b6f3d	0.075895764
222	0x3d3f8268	0.046755224
223	0x3d68bc4a	0.05682019
224	0xbd5a2c88	-0.053265125
225	0xbd261cae	-0.040554695
226	0x3d60c821	0.054878358
227	0xbc2ef698	-0.01067891
228	0x3b5b14b9	0.00334291
229	0x3c134995	0.008989711
230	0xbdb9ecdd	-0.09078381
231	0x3d1b1b98	0.037868112
232	0x3dc96168	0.09833032
233	0xbcff8503	-0.031191355
234	0xbcf92f00	-0.03041792
235	0xbd96d824	-0.07365444
236	0x3ba83d30	0.0051342472
237	0x3d167bd3	0.03673918
238	0xbcf661e9	-0.030075984
239	0xbd1107a4	-0.035407677
240	0xbc7402fa	-0.014893288
241	0x3c1c7933	0.0095503805
242	0x3c86afc4	0.016441233
243	0x3c4729e4	0.012155984
244	0x3caeee23	0.021353787
245	0xbd0a2794	-0.03372915
246	0x3c0e3438	0.008679442
247	0x3d2889d7	0.04114708
248	0x3d6e313b	0.05815242
249	0x3cd18e1f	0.025580464
250	0xbd144653	-0.03619988
251	0x3b0fff28	0.0021972153
252	0x3df51a68	0.11967927
253	0x3da6eec6	0.08151011
254	0x3c9ed0d8	0.019386694
255	0x3d70be6b	0.058775347

fc1.bias f4 [400]
0	0x3acdaddb	0.0015692072
1	0x3e080b05	0.13285454
2	0xbd6f9a0d	-0.058496524
3	0xbd2003f6	-0.039066277
4	0xbe0d0c0c	-0.13774127
5	0x3df5673b	0.1198258
6	0xbd950d2f	-0.07277905
7	0xbd76fa59	-0.060297344
8	0xbe12fc6e	-0.14354107
9	0x3e13813b	0.14404766
10	0xbe1175c6	-0.14205083
11	0x3bacb6b7	0.0052708047
12	0xbdf6c69b	-0.120496
13	0xbd02c2ef	-0.031924184
14	0x3d95116f	0.07278716
15	0x3ddb8899	0.10719413
16	0xbe119d98	-0.14220273
17	0xbe0b0852	-0.13577393
18	0x3d27f54b	0.041005414
19	0xbc59a0ed	-0.013282997
20	0xbdd410ca	-0.10354765
21	0xbe138744	-0.14407068
22	0x3dc4ba85	0.09605888
23	0x3d11a4f7	0.035557713
24	0x3ddcd8c2	0.10783531
25	0x3b9bb598	0.0047518723
26	0x3d46a37d	0.04849576
27	0x3cc7bce6	0.024382066
28	0xbd71e603	-0.059057247
29	0x3c979f99	0.01850872
30	0xbc7a2b33	-0.015269089
31	0xbe133fa4	-0.14379746
32	0x3e03e724	0.12881142
33	0xbe1b06a8	-0.15139258
34	0xbdeb2824	-0.114822656
35	0xbc5cfc8e	-0.013487948
36	0x3e140b3f	0.14457415
37	0xbe168d36	-0.14702305
38	0x3c9d688e	0.019214895
39	0xbbb3a213	-0.0054819672
40	0xbd91e72b	-0.0712417
41	0x3d829b1c	0.06377241
42	0xbe121b24	-0.14268166
43	0x3b1666d4	0.0022949474
44	0xbe241ab9	-0.16025819
45	0xbe0eaebe	-0.13933846
46	0xbdde5e27	-0.10857802
47	0xbe2a0a65	-0.16605528
48	0x3da953e2	0.082679525
49	0xbe0c660b	-0.13710801
50	0x3c71d3f8	0.01476001
51	0xbdbe543c	-0.0929341
52	0xbe27c5db	-0.1638407
53	0x3e07a1ca	0.13245311
54	0x3e1c9e0f	0.1529467
55	0xbdd1f29f	-0.102513544
56	0xbe0ce0f3	-0.13757686
57	0x3de9a678	0.114087045
58	0x3e1c94ba	0.1529111
59	0x3ddb596f	0.107104175
60	0xbda7691e	-0.081743464
61	0xbe012a68	-0.12613833
62	0x3c9693cc	0.018381022
63	0x3e0a47e6	0.1350399
64	0xbe2e2005	-0.17004402
65	0x3d1ec6cc	0.038763806
66	0xbe075fdf	-0.13220166
67	0xbdce817b	-0.1008329
68	0x3db61999	0.08891601
69	0x3c228191	0.009918586
70	0x3e248d23	0.16069464
71	0x3d318327	0.043337967
72	0xbd01e471	-0.031712
73	0x3e0cc57d	0.13747211
74	0x3de72228	0.11285812
75	0xbe10c861	-0.14138938
76	0xbe067e22	-0.13134053
77	0x3e0be7cf	0.13662647
78	0x3d2a4ffc	0.041580185
79	0x3df29d84	0.1184645
80	0xbe101441	-0.14070226
81	0x3d6b11e8	0.057390124
82	0xbdafa704	-0.085767776
83	0xbe1f14c9	-0.15535273
84	0x3d8f317d	0.06991861
85	0x3de01b30	0.109426856
86	0x3e29206c	0.16516274
87	0x3e25e0e4	0.1619907
88	0xbe17e706	-0.14834222
89	0x3de053c7	0.10953479
90	0x3e13e7bb	0.14443867
91	0xbe1baacc	-0.15201873
92	0x3e1e2ec5	0.15447529
93	0x3e1f86cf	0.15578769
94	0x3e279516	0.16365466
95	0xbe205ba8	-0.15659964
96	0x3de35a5e	0.111012205
97	0x3d1b5e71	0.037931863
98	0x3c4e0ebd	0.012576756
99	0x3dc4b2ad	0.09604392
100	0xbd901cdb	-0.07036754
101	0xbd1973e2	-0.03746403
102	0xbb57d342	-0.0032932316
103	0xbe33cb58	-0.17558038
104	0xbe135d93	-0.14391164
105	0xbe1df177	-0.15424143
106	0xbe0ae7fe	-0.1356506
107	0xbd8f8354	-0.07007471
108	0x3de4cfa3	0.11172416
109	0xbe312d62	-0.17302468
110	0x3e194f0e	0.14971563
111	0xbafa7d13	-0.0019110761
112	0xbe0d07a9	-0.13772453
113	0x3ddb8fc0	0.107207775
114	0x3dfc39c2	0.12315704
115	0xbe13d086	-0.14435014
116	0x3e1a996b	0.15097587
117	0xbdb0a1d3	-0.086246155
118	0x3d4ce414	0.0500222
119	0x3d3fbd57	0.046811428
120	0xbc2ec58e	-0.010667218
121	0xbe173e06	-0.14769754
122	0x3de40e88	0.11135584
123	0xbe1ab962	-0.1510978
124	0xbdc563df	-0.096381895
125	0xbc23095d	-0.009950963
126	0x3d41eead	0.04734676
127	0x3e1d7ba5	0.15379198
128	0xbbcf64cd	-0.006329155
129	0xbd0522d3	-0.032503914
130	0xbdedc409	-0.11609656
131	0x3e23dc05	0.160019
132	0xbe2b00d9	-0.16699542
133	0xbd8dc384	-0.06922057
134	0xbda99b97	-0.082816295
135	0xbe1ce457	-0.1532148
136	0x3d89639a	0.067084506
137	0x3dcab19e	0.09897159
138	0x3e0986ef	0.1343038
139	0xbc7afb54	-0.01531871
140	0xbe30e138	-0.17273414
141	0x3dc7e29c	0.09760019
142	0xbe2a6251	-0.16639067
143	0xbdce7c4b	-0.10082301
144	0x3d7a6464	0.061130896
145	0x3d9edb2f	0.0775665
146	0x3d377692	0.04479081
147	0xbdd85e99	-0.10564918
148	0xbdb95ee4	-0.09051302
149	0x3c8d6402	0.017259602
150	0x3da34e55	0.07973925
151	0xbc0c7814	-0.008573551
152	0xbdc13d14	-0.09435478
153	0x3d843f43	0.06457379
154	0x3d680b8d	0.05665164
155	0xbd76e725	-0.06027903
156	0xbb857912	-0.0040732706
157	0x3cc74c8f	0.024328498
158	0xbdadef47	-0.08492904
159	0xbd2db328	-0.042407185
160	0xbd81740d	-0.06320963
161	0xbc2892d9	-0.010288917
162	0xbdd667d5	-0.10469023
163	0xbdea4e5f	-0.11440729
164	0xbde2a4f7	-0.11066621
165	0x3d075a57	0.03304514
166	0x3b836e95	0.004010985
167	0xbd618c28	-0.055065304
168	0xb9959a44	-0.00028534431
169	0x3d31325a	0.04326091
170	0x3d5043a3	0.050845753
171	0x3c524901	0.012834788
172	0xbd3719e0	-0.04470241
173	0xbdcde8a1	-0.10054136
174	0xbda03f3a	-0.078245595
175	0xbcbf4c85	-0.023351917
176	0xbe04043c	-0.1289224
177	0xbcc02218	-0.023453757
178	0xbdebcfb3	-0.11514225
179	0xbe26ae7d	-0.162775
180	0x3d9583b1	0.07300509
181	0xbce4cfbd	-0.027931089
182	0xbd37a6a4	-0.044836655
183	0x3da08b44	0.07839063
184	0xbce2cc28	-0.02768524
185	0xbd20ddc2	-0.039273985
186	0x3e2f8812	0.1714175
187	0x3d9a4437	0.07532542
188	0xbe0f4480	-0.13990974
189	0x3e030183	0.12793545
190	0xbdb75b8f	-0.0895301
191	0xbd1d0145	-0.03833129
192	0x3da5c804	0.080947906
193	0x3e29435f	0.16529606
194	0xbe0faaf7	-0.14030062
195	0xbdd8ade6	-0.105800435
196	0xbe1edb46	-0.15513334
197	0xbe261270	-0.16217971
198	0xbe239564	-0.15974957
199	0xbe08ff99	-0.13378753
200	0x3d1d4881	0.038399223
201	0x3d8a5db5	0.067561544
202	0x3e0c85b1	0.13722874
203	0x3de8e576	0.11371891
204	0xbe1323b7	-0.14369093
205	0x3b84860c	0.0040443
206	0xbe23aafe	-0.15983197
207	0x3e1ef7cc	0.15524215
208	0xbd03160f	-0.03200346
209	0x3d80e5da	0.06293841
210	0xbde627e6	-0.11238079
211	0x3e14f56a	0.14546743
212	0xbe04e104	-0.12976462
213	0x3d6d25a6	0.057897232
214	0xbd07512f	-0.033036407
215	0xbcb62c01	-0.02223778
216	0xbd1c6593	-0.038182806
217	0x3dd2d81a	0.10295124
218	0x3d2cdf0e	0.04220491
219	0x3dbb738d	0.09152899
220	0xbd70dcc5	-0.058804292
221	0xbdc71b33	-0.09721985
222	0x3de87745	0.11350874
223	0xbe0557f7	-0.13021837
224	0xbdc179f3	-0.09447088
225	0xbd1fe3bf	-0.039035555
226	0xbe06c2ce	-0.1316025
227	0x3df3d7ce	0.11906396
228	0x3e1a94b8	0.15095794
229	0xbdaa7d72	-0.08324708
230	0xbdf60e6b	-0.12014469
231	0x3cb0532a	0.02152403
232	0x3dc9078f	0.09815895
233	0x3dfecb2b	0.12441095
234	0xbd8c680a	-0.068557814
235	0xbbafb477	-0.0053620893
236	0xbda4265b	-0.08015128
237	0xbe2d63a6	-0.16932544
238	0xbce1cc7d	-0.027563328
239	0xbd5792e7	-0.05263033
240	0x3ddce84f	0.10786497
241	0x3dec60c4	0.11541894
242	0xbe042e5e	-0.12908313
243	0x3d6d3439	0.05791113
244	0xbdfc050f	-0.12305652
245	0xbdc04eb3	-0.09390011
246	0x3e151c9b	0.14561693
247	0xbd47c2bf	-0.04876971
248	0x3dcd8906	0.10035901
249	0xbe2f7ac4	-0.17136675
250	0xbe1fa7dc	-0.15591377
251	0x3cb139ca	0.021634001
252	0xbe224558	-0.15846765
253	0x3df48a1d	0.119404055
254	0x3e09189d	0.13388295
255	0xbde973a4	-0.1139901

bn1.weight f4 [400]
0	0x3dfa7efa	0.1223125
1	0x3eee95ce	0.46598667
2	0x3e9c5d86	0.30540103
3	0x3e59f479	0.21284665
4	0x3f02b901	0.51063544
5	0x3f459931	0.77186877
6	0x3eaeb84c	0.34124982
7	0x3e2d56d6	0.16927657
8	0x3e6f8b4c	0.23392981
9	0x3f3956a6	0.7239784
10	0x3f2c415c	0.6728723
11	0x3f067a62	0.5253049
12	0x3e2dc42a	0.16969362
13	0x3ebb5513	0.36588344
14	0x3e7a4050	0.24438596
15	0x3f08d2ec	0.5344684
16	0x3e8fc55d	0.28080264
17	0x3eb008a8	0.34381604
18	0x3f0f7318	0.56034994
19	0x3f2b252b	0.6685359
20	0x3f4bb261	0.7956906
21	0x3ef1e2ab	0.47243246
22	0x3ea86c01	0.328949
23	0x3f5e2930	0.867816
24	0x3f5fb96d	0.8739231
25	0x3edbc2e1	0.42922118
26	0x3e88e0fb	0.26734146
27	0x3ea0c546	0.31400508
28	0x3f11b4a1	0.5691624
29	0x3f36453b	0.7119939
30	0x3e53bcb2	0.2067745
31	0x3f371f01	0.71531683
32	0x3efa7b2c	0.48922098
33	0x3e7cc19d	0.24683233
34	0x3ecdb580	0.40177536
35	0x3e1f2e38	0.15544975
36	0x3f4c6552	0.798421
37	0x3e98a784	0.29815304
38	0x3f5fb3cc	0.87383723
39	0x3eceb0ed	0.4036936
40	0x3ed6b1b9	0.41932467
41	0x3f0d9802	0.5531007
42	0x3ea8d46b	0.32974562
43	0x3f1d2acc	0.6139343
44	0x3f2e6d6e	0.68135726
45	0x3f119286	0.568642
46	0x3f49f368	0.78887033
47	0x3f4ff603	0.8123476
48	0x3f2c48fb	0.6729886
49	0x3e44371f	0.19161652
50	0x3f0369bc	0.5133321
51	0x3f637a28	0.8885827
52	0x3eb4a283	0.35280237
53	0x3f089df1	0.53366
54	0x3ebbbf08	0.36669183
55	0x3f0c05b7	0.5469622
56	0x3f24691a	0.6422287
57	0x3ef2566e	0.47331566
58	0x3f54adcc	0.83077693
59	0x3ecfb0be	0.4056453
60	0x3f0cafea	0.54955924
61	0x3f177ffe	0.59179676
62	0x3e9bb1c5	0.30409065
63	0x3edbf6b1	0.42961648
64	0x3f451684	0.7698748
65	0x3ef293e0	0.47378445
66	0x3f019689	0.50620323
67	0x3e7a7b81	0.24461176
68	0x3e0c9db1	0.1373203
69	0x3f2a1d64	0.66451097
70	0x3f533ccf	0.8251466
71	0x3ef04183	0.4692498
72	0x3f487d5f	0.783163
73	0x3e99fc21	0.30075172
74	0x3f5209fa	0.82046473
75	0x3f3757ab	0.71618146
76	0x3f632838	0.88733244
77	0x3eb654fc	0.35611713
78	0x3ea0242e	0.31277603
79	0x3e4ff0f5	0.20306762
80	0x3e996205	0.29957595
81	0x3f2f8ad6	0.6857122
82	0x3f43ca4a	0.76480544
83	0x3f149612	0.5804149
84	0x3eb08b32	0.34481198
85	0x3f2dd4b4	0.67902684
86	0x3ebd0407	0.36917135
87	0x3f2dac1f	0.6784076
88	0x3f5d8b1d	0.86540395
89	0x3f251b15	0.6449445
90	0x3f31b83d	0.6942175
91	0x3f0e0d9d	0.5548952
92	0x3f2cce01	0.67501837
93	0x3e896004	0.26831067
94	0x3f38ecc0	0.7223625
95	0x3f2004e1	0.62507445
96	0x3f4c5330	0.79814434
97	0x3e490049	0.19629015
98	0x3f2af40e	0.6677865
99	0x3ea19507	0.3155901
100	0x3f168815	0.58801395
101	0x3f146ce4	0.57978654
102	0x3eb988b5	0.36237112
103	0x3ee0f301	0.43935397
104	0x3f4052df	0.7512645
105	0x3f3cd698	0.73764944
106	0x3f1e50c7	0.61842006
107	0x3f067fc1	0.52538687
108	0x3f56427a	0.83695185
109	0x3f1a820c	0.60354686
110	0x3e9ad144	0.30237782
111	0x3e944080	0.2895546
112	0x3f691734	0.9105103
113	0x3e423b51	0.1896794
114	0x3e572b8f	0.2101271
115	0x3efaeb85	0.49007812
116	0x3ef21918	0.4728477
117	0x3f536aa6	0.8258461
118	0x3ee2aa25	0.44270435
119	0x3f20cc35	0.62811595
120	0x3f0bfc11	0.546815
121	0x3eaf3092	0.34216744
122	0x3f0c6711	0.54844767
123	0x3f33b3e3	0.7019636
124	0x3f2c7d67	0.6737885
125	0x3f52df0e	0.82371604
126	0x3f4abcd5	0.79194385
127	0x3f1fe3c0	0.62456894
128	0x3ec0fb45	0.37691703
129	0x3eea5134	0.45765078
130	0x3f122094	0.5708096
131	0x3e545928	0.20737135
132	0x3f6486cd	0.8926819
133	0x3f1676f3	0.5877525
134	0x3f3ac30f	0.72953886
135	0x3f4c6dd5	0.7985509
136	0x3ee0e107	0.43921682
137	0x3e8a4532	0.27005917
138	0x3e59e083	0.2127705
139	0x3e9ef551	0.31046537
140	0x3f403f81	0.750969
141	0x3e079685	0.13241012
142	0x3eea63bd	0.4577922
143	0x3f5ccc5c	0.8624933
144	0x3f2cb6c4	0.6746638
145	0x3e8ff8a7	0.28119394
146	0x3de68f7f	0.112578385
147	0x3f2921ef	0.66067404
148	0x3f31f78a	0.6951834
149	0x3f41bbd6	0.7567724
150	0x3f5dd4d6	0.86652887
151	0x3f2a799d	0.6659182
152	0x3e1c360c	0.15254992
153	0x3f51e080	0.81983185
154	0x3ed860d0	0.42261362
155	0x3ee84f5e	0.45373052
156	0x3f4cc36f	0.7998571
157	0x3eee7b5b	0.46578488
158	0x3e4e4090	0.20141816
159	0x3f4e464e	0.80576026
160	0x3e8b87d1	0.27252057
161	0x3eea8783	0.45806512
162	0x3eaf1598	0.34196162
163	0x3f4214e8	0.7581315
164	0x3eb4ef43	0.35338792
165	0x3f6c9e46	0.92429006
166	0x3f46793c	0.7752874
167	0x3ecec86a	0.4038728
168	0x3e8c1476	0.2735936
169	0x3e3a1bfc	0.18174738
170	0x3f5529af	0.8326673
171	0x3f05f6e5	0.52329856
172	0x3f12023b	0.57034653
173	0x3f4c354a	0.7976881
174	0x3e8bfead	0.2734274
175	0x3e87ba71	0.2650943
176	0x3f03d13f	0.5149116
177	0x3f295c82	0.6615678
178	0x3ec68403	0.38772592
179	0x3f10dc7d	0.5658644
180	0x3e6549d9	0.22391452
181	0x3f09be60	0.53806114
182	0x3f5bff6d	0.85936624
183	0x3e90d098	0.28284144
184	0x3eec54af	0.46158358
185	0x3f078eaf	0.5295209
186	0x3f142f59	0.57884747
187	0x3f393971	0.72353274
188	0x3e8a7209	0.27040127
189	0x3f4e535a	0.80595934
190	0x3edf2425	0.43582264
191	0x3f01bcd2	0.5067874
192	0x3ef773f0	0.4833064
193	0x3f277044	0.6540568
194	0x3f201b71	0.6254187
195	0x3f258ac6	0.64664876
196	0x3f2738f7	0.65321296
197	0x3e6d8cc3	0.23198228
198	0x3e81cb74	0.25350535
199	0x3f4de32c	0.8042476
200	0x3f3131d2	0.69216645
201	0x3ed101c5	0.40821663
202	0x3ed9cf09	0.42540768
203	0x3f050c27	0.5197167
204	0x3e4ed41b	0.201981
205	0x3e22e13d	0.15906234
206	0x3ef10b34	0.4707886
207	0x3ee77b77	0.45211384
208	0x3edb7e99	0.42870024
209	0x3ee02ac3	0.43782625
210	0x3f02b9b3	0.51064605
211	0x3e737c8d	0.23777981
212	0x3f24e99a	0.6441895
213	0x3f733270	0.94998837
214	0x3e501f61	0.2032447
215	0x3f598813	0.8497326
216	0x3f17be78	0.5927501
217	0x3f166fd8	0.5876441
218	0x3f03cc15	0.5148328
219	0x3f3d8a26	0.7403892
220	0x3f0ef67e	0.5584487
221	0x3ee947ae	0.455625
222	0x3f564ab3	0.8370773
223	0x3e885dfd	0.26634207
224	0x3e31bb18	0.17356527
225	0x3f1ddf20	0.61668587
226	0x3efaa0df	0.4895086
227	0x3ebec04c	0.37256086
228	0x37da2647	2.600545e-05
229	0x3f45411f	0.7705249
230	0x3e2f8704	0.17141348
231	0x3e93a249	0.2883475
232	0x3eed44a1	0.46341422
233	0x3f61f3da	0.8826271
234	0x3f53770f	0.82603544
235	0x3f070da1	0.5275517
236	0x3ed2ca1c	0.41169822
237	0x3eeb4746	0.45952815
238	0x3e64382b	0.22287051
239	0x3f3dead4	0.74186444
240	0x3f50e019	0.81591946
241	0x3f126e6c	0.5719974
242	0x3ee71086	0.45129794
243	0x3e8f9e81	0.28050616
244	0x3e75e22a	0.24012056
245	0x3f138a6b	0.57633084
246	0x3f474868	0.7784486
247	0x3f36e06b	0.71436185
248	0x3e6f5a87	0.23374377
249	0x3f1cfaf2	0.6132041
250	0x3f033518	0.5125289
251	0x3eafc185	0.3432733
252	0x3f1c4fba	0.61059153
253	0x3f42d4e8	0.7610612
254	0x3edc24a9	0.4299672
255	0x3e835478	0.25650382

bn1.bias f4 [400]
0	0xbe0492e8	-0.12946665
1	0xbe1c7c9f	-0.15281914
2	0xbd82ceb1	-0.063870795
3	0xbd944f36	-0.07241671
4	0xbe579981	-0.21054651
5	0xbe8e73b1	-0.2782264
6	0xbe03ff50	-0.12890363
7	0xbca1db67	-0.01975794
8	0xbdf7b9bb	-0.12095972
9	0xbd964cdb	-0.07338878
10	0xbe1de032	-0.15417555
11	0xbe3b3cd4	-0.18284923
12	0xbda8c747	-0.08241134
13	0xbe3a9c71	-0.1822374
14	0xbca444a4	-0.020052262
15	0xbe00fe37	-0.12596975
16	0xbe0fcbf0	-0.1404264
17	0xbdc4f678	-0.09617323
18	0xbe6eafca	-0.23309246
19	0xbde6f384	-0.11276916
20	0xbe5721d1	-0.21008994
21	0xbe8d364e	-0.27580494
22	0xbd6c7f55	-0.05773862
23	0xbe3fecf5	-0.18742736
24	0xbe110863	-0.14163356
25	0xbe31e6eb	-0.17373244
26	0xbe210948	-0.15726197
27	0xbc840657	-0.016116304
28	0xbd9b92ea	-0.07596381
29	0xbe089024	-0.13336235
30	0xbdda6a39	-0.106647916
31	0xbdef56e8	-0.11686498
32	0xbe488cd0	-0.19584966
33	0xbe4b6d3b	-0.19865887
34	0xbdf070e2	-0.11740281
35	0xbe16f061	-0.14740135
36	0xbe659340	-0.22419453
37	0x3b20d61e	0.0024541686
38	0xbe8fb96b	-0.2807115
39	0xbe9c6461	-0.30545333
40	0x3de092f0	0.10965526
41	0xbd310506	-0.04321768
42	0xbe280169	-0.16406788
43	0xbdb99914	-0.090624005
44	0xbea7405b	-0.32666287
45	0xbe71435c	-0.23560852
46	0xbe38f597	-0.18062435
47	0xbe05acac	-0.1305415
48	0xbe288495	-0.16456826
49	0x3dd833ab	0.1055673
50	0xbc1d10ed	-0.009586555
51	0xbe161c96	-0.14659342
52	0x3cd5ee54	0.02611462
53	0xbdf44b6f	-0.1192845
54	0x3b025715	0.001988833
55	0xbe123111	-0.1427653
56	0xbe5577dd	-0.20846505
57	0xbd3c6dbd	-0.046003092
58	0xbe1f6f93	-0.15569906
59	0x3d38ad02	0.045086868
60	0xbe2ca370	-0.16859221
61	0xbe08394c	-0.13303107
62	0xbe053bd8	-0.1301111
63	0xbe2f148a	-0.17097679
64	0xbdb1a045	-0.08673147
65	0xbe8627d4	-0.2620226
66	0xbcf7c3a9	-0.030244665
67	0xbe65b60a	-0.22432724
68	0xbe0c0b70	-0.13676238
69	0xbe076bcc	-0.13224715
70	0xbd6b36eb	-0.05742542
71	0xbdc14188	-0.09436327
72	0xbe55effd	-0.2089233
73	0xbda07af9	-0.07835955
74	0xbdc9776c	-0.09837231
75	0xbe5be731	-0.21474911
76	0xbe0b830f	-0.13624214
77	0xbe66a04d	-0.22522087
78	0xbe05124e	-0.12995264
79	0x3c280638	0.010255389
80	0xbe26eb8b	-0.1630079
81	0x3e15c961	0.14627601
82	0xbe346646	-0.17617139
83	0xbea40893	-0.32037792
84	0xbc837209	-0.016045587
85	0x3d4eb6b6	0.050467215
86	0xbdb6b719	-0.08921642
87	0xbe5077a1	-0.20358135
88	0xbe10d025	-0.14141901
89	0xbe20c589	-0.15700354
90	0xbec04fa7	-0.3756077
91	0xbdeaa890	-0.11457932
92	0xbdbebe4c	-0.0931364
93	0xbd171ab1	-0.03689069
94	0xbd345ccb	-0.044033807
95	0xbe620db9	-0.22075547
96	0xbc9a80bf	-0.018860219
97	0xbe30e0d2	-0.17273262
98	0xbe19c5db	-0.15016882
99	0xbcf47e0f	-0.029845266
100	0x3d2370d7	0.039902534
101	0xbdabc5f5	-0.08387367
102	0xbe500c19	-0.20317115
103	0xbc79ca39	-0.015245968
104	0xbd3e819c	-0.046510324
105	0xbdcf567c	-0.101239175
106	0xbdf8187d	-0.12114046
107	0xbe6204d4	-0.22072154
108	0xbde65c60	-0.11248088
109	0xbe4bab56	-0.19889578
110	0xbe1cc0b4	-0.15307885
111	0x3db05b7f	0.086112015
112	0xbe469307	-0.19392024
113	0xbdae295f	-0.08503985
114	0xbd02022a	-0.031740345
115	0xbe157cff	-0.14598463
116	0xbe6bd39c	-0.23029941
117	0xbe20376c	-0.15646142
118	0xbd0b40b7	-0.033997264
119	0xbe9293cf	-0.28628394
120	0xbe357f00	-0.17724228
121	0x3d68486c	0.056709692
122	0xbe594e8d	-0.21221371
123	0xbed5b449	-0.4173911
124	0xbe8f00b0	-0.27930212
125	0xbe42d318	-0.19025838
126	0xbe2eaf46	-0.17059049
127	0xbe44e978	-0.19229686
128	0x3b7034a3	0.0036652468
129	0xbea45add	-0.32100573
130	0xbe1a9f50	-0.15099835
131	0xbd047f32	-0.032347865
132	0xbe76ef7e	-0.24114797
133	0xbe5688ce	-0.20950624
134	0xbe38c77e	-0.1804485
135	0xbea790a7	-0.32727548
136	0xbe026a2f	-0.12735818
137	0xbe34e181	-0.17664148
138	0x3d6f8eb4	0.0584857
139	0xbd874ba3	-0.066062234
140	0xbe8d6a0b	-0.27619967
141	0x3d97127e	0.07376574
142	0xbe135ed2	-0.1439164
143	0xbe064870	-0.1311357
144	0xbe129f80	-0.14318657
145	0xbda73349	-0.08164079
146	0x3e108309	0.14112486
147	0xbc8223d6	-0.015886229
148	0xbe07f800	-0.13278198
149	0xbe2659c0	-0.16245174
150	0xbe203f94	-0.15649253
151	0xbe03978e	-0.12850782
152	0xbd9b46c2	-0.07581855
153	0xbebd0765	-0.36919704
154	0xbe156fe7	-0.14593469
155	0xbdf5fd92	-0.12011255
156	0xbe62b077	-0.22137628
157	0xbdfcbd60	-0.12340808
158	0xbc0c67f2	-0.008569704
159	0x3d019534	0.03163643
160	0xbe20699a	-0.15665284
161	0xbdf89d4c	-0.12139377
162	0xbdca8c39	-0.098900266
163	0xbe480044	-0.19531351
164	0xbd5b16a8	-0.053488404
165	0xbea718f6	-0.3263623
166	0xbe9313c2	-0.28726012
167	0xbe0f81c7	-0.1401435
168	0xbde7bf9a	-0.11315842
169	0xbdb30b5f	-0.08742403
170	0xbe973c6e	-0.29538292
171	0xbdd40282	-0.10352041
172	0xbe90fb4e	-0.2831673
173	0xbe5a83d6	-0.21339354
174	0xbd86053b	-0.065439664
175	0xbe26fbbe	-0.1630697
176	0xbdd961c8	-0.106143534
177	0xbb576321	-0.0032865482
178	0xbd911fd8	-0.07086152
179	0xbe281d7b	-0.16417496
180	0xbe3954ba	-0.18098727
181	0xbe600c90	-0.21879792
182	0x3ba0ad71	0.0049034883
183	0x3c15b0b1	0.009136365
184	0xbe3bf255	-0.18354161
185	0xbe22dcc3	-0.15904526
186	0xbe076b66	-0.13224563
187	0xbdbd32e5	-0.09238223
188	0x3ab92da8	0.0014127987
189	0xbea0ecef	-0.31430766
190	0xbd8712fa	-0.06595416
191	0xbdbfc088	-0.09362894
192	0xbd2401fb	-0.04004095
193	0xbe291933	-0.16513519
194	0xbd891123	-0.06692722
195	0xbdb6a0a1	-0.08917356
196	0x3999cd9c	0.00029335625
197	0x3cf30089	0.029663341
198	0x3cfb9eb0	0.030715317
199	0xbe5b4002	-0.21411136
200	0xbceda9bc	-0.0290116
201	0xbe068212	-0.13135555
202	0x3c976c77	0.018484337
203	0xbe11be92	-0.14232853
204	0xbd603f39	-0.054747794
205	0xbdc72463	-0.09723737
206	0xbe05ccaa	-0.13066354
207	0xbe022ba6	-0.12711963
208	0xbda80d10	-0.082056165
209	0xbe22e3a6	-0.15907153
210	0xbe4822ca	-0.19544521
211	0xbe0d325b	-0.1378874
212	0xbe642364	-0.22279125
213	0xbc5b78c4	-0.013395492
214	0xbe1fda85	-0.15610702
215	0xbdcf414c	-0.10119876
216	0xbe233918	-0.15939748
217	0xbd855527	-0.06510382
218	0xbdbd14b0	-0.092324615
219	0xbe6dcb23	-0.23222022
220	0xbda8606d	-0.08221517
221	0xbe02f21b	-0.12787668
222	0x3e0a7747	0.13522063
223	0xbda6846f	-0.081307285
224	0xbd02f1eb	-0.031968992
225	0xbebfb712	-0.3744436
226	0xbe11a221	-0.14222004
227	0xbda9c3b4	-0.082892805
228	0xbb976a33	-0.004620814
229	0xbe7c41c6	-0.24634466
230	0x3bd5d49c	0.006525589
231	0xbe220418	-0.15821874
232	0xbe268b78	-0.1626414
233	0xbe363607	-0.17794047
234	0xbd68859d	-0.05676805
235	0xbe1a6d6c	-0.15080804
236	0xbda94cdd	-0.08266614
237	0xbd037a2b	-0.03209893
238	0xbd773c4b	-0.060360234
239	0xbe504738	-0.20339668
240	0xbea6e8a1	-0.32599357
241	0xbdee4d5d	-0.116358496
242	0xbdcb0dd1	-0.09914745
243	0xbda5cdc6	-0.08095889
244	0xbd67d117	-0.056595888
245	0xbeb9ab58	-0.36263537
246	0xbe572966	-0.21011886
247	0x3e4a7326	0.19770488
248	0x3d0c0da3	0.034192692
249	0x3ad5b0a4	0.0016303253
250	0xbe4ab33b	-0.19794933
251	0xbdc59ac6	-0.09648661
252	0xbe4b1af1	-0.19834496
253	0xbe859423	-0.26089582
254	0xbe24de5b	-0.16100447
255	0xbced59f8	-0.028973565

bn1.running_mean f4 [400]
0	0x3a9f95ae	0.0012175345
1	0x3e081208	0.13288128
2	0xbd6f3579	-0.058400605
3	0xbd214d09	-0.039380107
4	0xbe0d5e6e	-0.13805553
5	0x3df51c3a	0.119682744
6	0xbd946768	-0.07246286
7	0xbd766bbe	-0.060161345
8	0xbe12db0e	-0.14341375
9	0x3e135848	0.14389145
10	0xbe110931	-0.14163662
11	0x3ba8fcf1	0.005157106
12	0xbdf70a29	-0.12062485
13	0xbd0203ed	-0.031742025
14	0x3d9564aa	0.07294591
15	0x3ddbc9e8	0.1073187
16	0xbe114c11	-0.14189173
17	0xbe0ad01f	-0.13555954
18	0x3d29ff81	0.041503433
19	0xbc620f16	-0.013797542
20	0xbdd4e267	-0.10394745
21	0xbe135b88	-0.14390385
22	0x3dc51434	0.09622994
23	0x3d0fc98e	0.035104327
24	0x3ddc99f7	0.10771554
25	0x3baabab9	0.0052102474
26	0x3d45a4dc	0.048252925
27	0x3cc46306	0.023973
28	0xbd71a516	-0.05899533
29	0x3c9739cc	0.018460177
30	0xbc72e812	-0.014825838
31	0xbe136e37	-0.14397512
32	0x3e03dde7	0.12877618
33	0xbe1a5211	-0.15070368
34	0xbdea6f4c	-0.114470094
35	0xbc5c277a	-0.013437146
36	0x3e13f139	0.14447488
37	0xbe167343	-0.14692406
38	0x3c9bce34	0.019019224
39	0xbbafa601	-0.0053603654
40	0xbd91ba34	-0.071155936
41	0x3d8311e0	0.06399894
42	0xbe11f41b	-0.14253275
43	0x3b0fe1bb	0.0021954614
44	0xbe2425dd	-0.16030069
45	0xbe0e6198	-0.13904417
46	0xbddef613	-0.10886779
47	0xbe2aa7d6	-0.16665587
48	0x3da959e9	0.08269102
49	0xbe0c1fff	-0.1368408
50	0x3c6c80d0	0.014435008
51	0xbdbecfcc	-0.09316978
52	0xbe27789c	-0.16354603
53	0x3e07ff99	0.13281097
54	0x3e1c777c	0.15279955
55	0xbdd12dd5	-0.1021382
56	0xbe0d85ef	-0.13820623
57	0x3dea8813	0.11451735
58	0x3e1ca6b0	0.15297961
59	0x3ddab4df	0.1067903
60	0xbda6e604	-0.08149341
61	0xbe00e9cc	-0.12589186
62	0x3c98c923	0.018650597
63	0x3e0a9746	0.13534269
64	0xbe2dc1cc	-0.16968459
65	0x3d1fa886	0.038979076
66	0xbe072251	-0.13196684
67	0xbdcd7c94	-0.10033527
68	0x3db5f700	0.08885002
69	0x3c1fe52f	0.0097592315
70	0x3e24b996	0.1608642
71	0x3d31dce6	0.043423556
72	0xbd013273	-0.031542253
73	0x3e0d20cb	0.13782041
74	0x3de73539	0.11289448
75	0xbe10e268	-0.14148867
76	0xbe068da0	-0.13139963
77	0x3e0b86b5	0.13625605
78	0x3d2a9ead	0.04165523
79	0x3df2cdcf	0.11855661
80	0xbe10262d	-0.14077063
81	0x3d6d1e7a	0.057890393
82	0xbdafd1f1	-0.08584965
83	0xbe1f22e4	-0.15540653
84	0x3d8e6932	0.06953658
85	0x3de00576	0.109385416
86	0x3e290a4c	0.16507834
87	0x3e25a20d	0.16175099
88	0xbe17bf4f	-0.14819072
89	0x3ddfe429	0.1093219
90	0x3e135f92	0.14391926
91	0xbe1bbd92	-0.15209034
92	0x3e1e0c19	0.15434302
93	0x3e1f5c71	0.15562607
94	0x3e277f17	0.16357075
95	0xbe1ffca2	-0.15623716
96	0x3de488cb	0.11158904
97	0x3d1b7d35	0.037961204
98	0x3c515cf0	0.012778506
99	0x3dc470aa	0.095918015
100	0xbd9026d9	-0.070386596
101	0xbd19fe8f	-0.03759628
102	0xbb5dbdbf	-0.0033835021
103	0xbe3380b9	-0.17529573
104	0xbe1342d6	-0.14380965
105	0xbe1da42f	-0.15394662
106	0xbe0a78de	-0.1352267
107	0xbd8e12f2	-0.06937207
108	0x3de5e71a	0.1122572
109	0xbe311e07	-0.17296611
110	0x3e193988	0.14963353
111	0xbb2a4ae9	-0.0025984591
112	0xbe0ca655	-0.13735326
113	0x3ddb7570	0.10715759
114	0x3dfc60c2	0.123231426
115	0xbe13c515	-0.1443065
116	0x3e1b306b	0.15155189
117	0xbdb06587	-0.08613115
118	0x3d4efd28	0.050534397
119	0x3d4116f8	0.047141045
120	0xbc342c1c	-0.010996845
121	0xbe1722dd	-0.14759393
122	0x3de426a6	0.11140184
123	0xbe1a96b7	-0.15096556
124	0xbdc5fdae	-0.09667526
125	0xbc2821ad	-0.010261935
126	0x3d408602	0.0470028
127	0x3e1d4eac	0.15362042
128	0xbbd853dd	-0.006601794
129	0xbd0661f6	-0.032808267
130	0xbded5723	-0.11588886
131	0x3e239bbb	0.15977375
132	0xbe2acd1f	-0.1667981
133	0xbd8db467	-0.06919175
134	0xbdaaeda3	-0.08346107
135	0xbe1d24cf	-0.15346073
136	0x3d880eb5	0.0664343
137	0x3dcb7573	0.09934511
138	0x3e09b354	0.13447315
139	0xbc7df694	-0.015500683
140	0xbe30fdba	-0.17284289
141	0x3dc7d069	0.09756548
142	0xbe2aa101	-0.1666298
143	0xbdce1e3e	-0.10064362
144	0x3d79e97e	0.06101369
145	0x3d9eee19	0.07760257
146	0x3d36f21d	0.04466449
147	0xbdd7cd86	-0.10537247
148	0xbdba06d7	-0.09083336
149	0x3c8ce4c3	0.017198926
150	0x3da3f1eb	0.080051266
151	0xbc095f96	-0.008384606
152	0xbdc086c9	-0.09400708
153	0x3d83daab	0.06438192
154	0x3d687f8b	0.05676226
155	0xbd76ff39	-0.060301993
156	0xbb7a46e1	-0.003818922
157	0x3cc533e1	0.02407259
158	0xbdadfba3	-0.084952615
159	0xbd2ef8b4	-0.04271765
160	0xbd80782a	-0.062729195
161	0xbc1dcab9	-0.009630852
162	0xbdd666ce	-0.10468827
163	0xbde9d662	-0.114178434
164	0xbde2e1b1	-0.110782035
165	0x3d08a8ff	0.033364292
166	0x3b8ca3ec	0.004292002
167	0xbd60bc16	-0.054866873
168	0x3972e398	0.00023163704
169	0x3d304c51	0.04304153
170	0x3d500c43	0.050792944
171	0x3c4dcb15	0.012560626
172	0xbd36716e	-0.04454177
173	0xbdcd9487	-0.10038095
174	0xbda021b1	-0.07818926
175	0xbcbd7712	-0.023128066
176	0xbe03f933	-0.1288803
177	0xbcbf8764	-0.023379989
178	0xbdec2bee	-0.115318164
179	0xbe26504d	-0.1624157
180	0x3d960158	0.07324475
181	0xbce8ad58	-0.02840297
182	0xbd366a63	-0.044535052
183	0x3da091f1	0.07840336
184	0xbce077fe	-0.027400967
185	0xbd1f9cd9	-0.03896794
186	0x3e2f47bf	0.17117213
187	0x3d9b4aa5	0.07582597
188	0xbe0f5de2	-0.14000657
189	0x3e0349d3	0.1282113
190	0xbdb65f30	-0.08904874
191	0xbd1bedc3	-0.038068544
192	0x3da58b19	0.080831714
193	0x3e29b450	0.1657269
194	0xbe106590	-0.14101243
195	0xbdd8c69d	-0.105847575
196	0xbe1f94c1	-0.15584089
197	0xbe263d08	-0.16234219
198	0xbe23bbc3	-0.15989594
199	0xbe08fce6	-0.13377723
200	0x3d1b8e09	0.037977252
201	0x3d8ae3ca	0.067817286
202	0x3e0c7aa6	0.13718662
203	0x3de94504	0.11390117
204	0xbe137818	-0.14401281
205	0x3b82e3ce	0.0039944416
206	0xbe23a318	-0.15980184
207	0x3e1e5616	0.15462527
208	0xbd04b7ef	-0.032401975
209	0x3d818bdd	0.06325505
210	0xbde56a48	-0.11201912
211	0x3e142904	0.14468771
212	0xbe050418	-0.12989843
213	0x3d6b64d6	0.05746921
214	0xbd05bd66	-0.032651328
215	0xbcb2ac53	-0.021810686
216	0xbd1a3aa2	-0.037653573
217	0x3dd12091	0.1021129
218	0x3d2e24ae	0.04251545
219	0x3dbb3e11	0.091426976
220	0xbd712d8f	-0.05888134
221	0xbdc70079	-0.09716887
222	0x3de7a442	0.113106266
223	0xbe04f58d	-0.12984295
224	0xbdc1c19c	-0.09460756
225	0xbd1f1952	-0.038842507
226	0xbe06d4a7	-0.13167058
227	0x3df2a317	0.11847513
228	0x3e1a7eaa	0.15087381
229	0xbdaa7d62	-0.08324696
230	0xbdf5ab8e	-0.11995612
231	0x3cb1103d	0.021614188
232	0x3dc94fee	0.098296985
233	0x3dfec09e	0.124390826
234	0xbd8d5a8a	-0.069020346
235	0xbbb0d8bc	-0.0053969305
236	0xbda405e7	-0.08008938
237	0xbe2d5037	-0.16925131
238	0xbcdeee0b	-0.027213117
239	0xbd591fa8	-0.053008705
240	0x3ddd42d8	0.10803765
241	0x3deb12fc	0.1147823
242	0xbe0415be	-0.12898919
243	0x3d6c6c51	0.057720486
244	0xbdfa8d76	-0.12234013
245	0xbdbf7bb3	-0.09349766
246	0x3e15d521	0.14632083
247	0xbd48bd45	-0.049008626
248	0x3dcd9325	0.10037831
249	0xbe2fd52b	-0.17171161
250	0xbe1facec	-0.15593308
251	0x3cb02c72	0.021505568
252	0xbe2222ee	-0.15833637
253	0x3df53d41	0.11974574
254	0x3e0981e1	0.13428451
255	0xbde81345	-0.113318

bn1.running_var f4 [400]
0	0x3cd74ac9	0.026280778
1	0x3ce10084	0.027466066
2	0x3d00675d	0.031348575
3	0x3d0abdc3	0.033872377
4	0x3c89cd0b	0.016821405
5	0x3d84b93f	0.064806454
6	0x3c9e6240	0.019333959
7	0x3ceda644	0.029009946
8	0x3cd6acb4	0.026205398
9	0x3cbea0fc	0.023270123
10	0x3c2148b5	0.009843995
11	0x3cd972b9	0.026543962
12	0x3c43473e	0.011918841
13	0x3c8dde18	0.017317817
14	0x3cc0108a	0.023445386
15	0x3c6bfb4a	0.014403174
16	0x3caa12ee	0.02076098
17	0x3c9b8055	0.018982092
18	0x3c4c1be9	0.012457826
19	0x3d05f5b8	0.03270504
20	0x3cb2b10a	0.021812934
21	0x3d0a2da1	0.03373492
22	0x3c79cfad	0.015247268
23	0x3d34b078	0.044113606
24	0x3d08d65e	0.03340756
25	0x3c35c4e3	0.011094305
26	0x3cb7db1f	0.022443352
27	0x3cc263df	0.023729263
28	0x3caecaf5	0.021337012
29	0x3c928e7b	0.017890206
30	0x3ca8da2e	0.020611849
31	0x3c4b0563	0.012391421
32	0x3cb33366	0.021875095
33	0x3cc04734	0.023471452
34	0x3c8f4776	0.01749013
35	0x3c88598c	0.016644262
36	0x3c8588e0	0.016300619
37	0x3d0bdff1	0.034149114
38	0x3ccb3bb3	0.02480874
39	0x3c8d0d41	0.017218234
40	0x3cef08d7	0.02917902
41	0x3cd8c7fb	0.026462546
42	0x3d44a72a	0.048010983
43	0x3c80c2d1	0.015717896
44	0x3c9cbc7b	0.019132843
45	0x3cb0a735	0.021564106
46	0x3d0ce342	0.034396417
47	0x3c317f9f	0.01083365
48	0x3c9e611a	0.019333411
49	0x3c23c9fe	0.009996889
50	0x3ccfd691	0.025370868
51	0x3c228e4d	0.009921622
52	0x3c5874ab	0.01321141
53	0x3c7d563d	0.015462455
54	0x3ce943c8	0.028474703
55	0x3d2a2fc2	0.04154945
56	0x3cd20dcb	0.025641343
57	0x3c9f87a9	0.019473867
58	0x3be310ae	0.0069294786
59	0x3c873239	0.01650344
60	0x3c9620ce	0.01832619
61	0x3c67a07e	0.014137385
62	0x3c4ae0f5	0.0123827355
63	0x3c8bbec1	0.017058732
64	0x3ca210b7	0.01978336
65	0x3cf75b48	0.030194893
66	0x3c9506a9	0.018191652
67	0x3cc4a99e	0.024006661
68	0x3c6c21c1	0.014412344
69	0x3cc88398	0.024476811
70	0x3cd26350	0.025682122
71	0x3c464dc9	0.012103506
72	0x3c472328	0.012154378
73	0x3cb21141	0.021736743
74	0x3c67d9ef	0.0141510805
75	0x3cc8b94c	0.024502419
76	0x3c8bbdd9	0.0170583
77	0x3d092a13	0.03348739
78	0x3c3aa3b8	0.011391573
79	0x3c966e81	0.01836324
80	0x3d33a7fe	0.04386138
81	0x3bbec00c	0.0058212336
82	0x3c41871d	0.011811999
83	0x3cb5b683	0.022181755
84	0x3c3690a0	0.01114288
85	0x3c3f0cc2	0.011660757
86	0x3cab2b9f	0.020894824
87	0x3c7a9cc9	0.01529617
88	0x3cc9cc94	0.024633683
89	0x3c4de6a2	0.012567194
90	0x3c9c929d	0.01911288
91	0x3cb9016c	0.022583686
92	0x3ca9f3b8	0.020746097
93	0x3c562fb7	0.0130729
94	0x3c4b74c8	0.01241798
95	0x3c1290c5	0.008945649
96	0x3c0bc535	0.008530905
97	0x3ccc4802	0.02493668
98	0x3ce0c59d	0.02743798
99	0x3c90810c	0.01763966
100	0x3c96c9a4	0.018406697
101	0x3c6ae616	0.014337083
102	0x3d3538d8	0.044243664
103	0x3c181b9b	0.009283925
104	0x3cb1fc75	0.021726826
105	0x3cefa507	0.029253496
106	0x3c76bcfa	0.015059704
107	0x3c5ee9da	0.013605559
108	0x3bab70cb	0.005231952
109	0x3c302a54	0.010752279
110	0x3d7b63c9	0.06137446
111	0x3c614522	0.013749393
112	0x3c690d33	0.014224338
113	0x3cb3c274	0.021943308
114	0x3c73e606	0.014886385
115	0x3c6bd9bf	0.014395176
116	0x3cccf55f	0.025019346
117	0x3ca4d519	0.020121144
118	0x3c717e53	0.014739591
119	0x3c885352	0.016641293
120	0x3ce1e72e	0.027576055
121	0x3cf7ad0d	0.030233884
122	0x3d243a74	0.040094808
123	0x3d392499	0.045200918
124	0x3c7a7769	0.015287259
125	0x3cac80c4	0.021057494
126	0x3ca9f7d8	0.020748064
127	0x3d0d64ab	0.034519833
128	0x3cc93a88	0.024564043
129	0x3ca68150	0.020325333
130	0x3c9802a2	0.018555943
131	0x3c577782	0.0131510515
132	0x3ca23c04	0.019804008
133	0x3cb4fbd7	0.022092743
134	0x3ca9823a	0.02069198
135	0x3cd739d0	0.026272684
136	0x3c9b920c	0.018990539
137	0x3cb934d9	0.022608208
138	0x3bf1e90d	0.007382518
139	0x3c3e73fa	0.011624331
140	0x3d1003a7	0.035159733
141	0x3d04ba7c	0.032404408
142	0x3c82ba68	0.015958026
143	0x3c9634b4	0.018335678
144	0x3c93792b	0.018002113
145	0x3c65af45	0.014018838
146	0x3ce59020	0.028022826
147	0x3c6b9ff2	0.014381396
148	0x3be25fe2	0.006908403
149	0x3ce5924b	0.02802386
150	0x3c3ce550	0.011529282
151	0x3ca76a2d	0.02043637
152	0x3cd4a1a8	0.02595599
153	0x3cd40d6f	0.025885312
154	0x3d1d9f8a	0.038482226
155	0x3bfb3e1a	0.007667315
156	0x3c95b62a	0.01827534
157	0x3c58ba7c	0.013228055
158	0x3c1ad316	0.009449741
159	0x3cafdbfc	0.021467201
160	0x3ca3e6d0	0.02000752
161	0x3c85163e	0.016245957
162	0x3d17b834	0.037040904
163	0x3cb11313	0.02161554
164	0x3ca87476	0.020563345
165	0x3c05e4eb	0.008172254
166	0x3c52d660	0.012868494
167	0x3c5c177e	0.013433335
168	0x3c4ce5a0	0.012505919
169	0x3cc19a94	0.023633279
170	0x3c80ce6d	0.015723431
171	0x3cecac63	0.028890794
172	0x3d237395	0.03990515
173	0x3c020806	0.007936483
174	0x3c85d0bc	0.016334884
175	0x3d1cfa26	0.038324498
176	0x3c765ea6	0.015037214
177	0x3ca3f88f	0.020015983
178	0x3c1c5dad	0.009543818
179	0x3c986b6d	0.018605912
180	0x3d2336fc	0.03984736
181	0x3d222c6d	0.03959315
182	0x3c087cc2	0.008330526
183	0x3c3032ed	0.010754329
184	0x3c179e4d	0.00925405
185	0x3c58b431	0.013226555
186	0x3d43325f	0.04765546
187	0x3c9ca3b9	0.019121038
188	0x3c0a4428	0.008439101
189	0x3cb57ad2	0.022153292
190	0x3ce63770	0.028102607
191	0x3c671434	0.014103938
192	0x3d185d49	0.03719834
193	0x3cc2daef	0.023786036
194	0x3cf2b974	0.029629447
195	0x3cf6e975	0.030140618
196	0x3cb68b8d	0.02228334
197	0x3ce02e43	0.02736581
198	0x3c611001	0.013736726
199	0x3ceba676	0.028765898
200	0x3cba329a	0.022729207
201	0x3cda6045	0.026657233
202	0x3ca9685c	0.020679645
203	0x3c8b7be0	0.017026842
204	0x3c9c9251	0.019112738
205	0x3cd090d8	0.025459692
206	0x3cbc9cfd	0.023024077
207	0x3c6d89c7	0.014498181
208	0x3ce97d23	0.028502053
209	0x3c259112	0.010105388
210	0x3c6afb62	0.014342161
211	0x3c78cbad	0.015185279
212	0x3ca85066	0.02054615
213	0x3c08bbd4	0.008345563
214	0x3c8f918d	0.017525459
215	0x3c8bcf81	0.017066719
216	0x3c0683a3	0.008210096
217	0x3c399265	0.011326407
218	0x3d1ae20d	0.037813235
219	0x3c3702f5	0.011170139
220	0x3c3cdc4b	0.011527131
221	0x3c133638	0.008985095
222	0x3c69793b	0.014250095
223	0x3c7811cd	0.015140963
224	0x3d046848	0.032326013
225	0x3cd0402f	0.02542123
226	0x3d01617d	0.031587113
227	0x3c5838cf	0.013197138
228	0x3bac46c8	0.005257461
229	0x3c956138	0.018234834
230	0x3c7bcdf9	0.015368932
231	0x3cb9ed47	0.02269615
232	0x3cbb9aea	0.022901017
233	0x3d041907	0.03225043
234	0x3ca8b640	0.020594716
235	0x3c752aac	0.014963787
236	0x3ca94343	0.020661956
237	0x3cdfece7	0.027334644
238	0x3c869215	0.01642708
239	0x3c5c95c4	0.013463441
240	0x3d3f8d80	0.046765804
241	0x3c7c8d7e	0.015414594
242	0x3c80265d	0.015643293
243	0x3d124b80	0.035716534
244	0x3cce6e3b	0.025199046
245	0x3c71227e	0.014717696
246	0x3cb7fd81	0.022459747
247	0x3cb5e0a1	0.022201838
248	0x3ca5f607	0.020258917
249	0x3cc9e32c	0.024644457
250	0x3ce5b6f9	0.02804135
251	0x3d324106	0.043519042
252	0x3cd74f70	0.026282996
253	0x3cd303f0	0.025758713
254	0x3c3815fe	0.011235712
255	0x3cfe08d7	0.031010075
