checkpoint_actor_DDPG.pth (torch_old, 554688 bytes, 18 tensors)

bn0.weight f4 [33]
0	0x3f114aa6	0.5675453
1	0x3ef6bcd9	0.48190954
2	0x3f1487c5	0.5801967
3	0x3e8834b4	0.2660271
4	0x3e3ad039	0.18243493
5	0x3e49eaf4	0.19718534
6	0x3e55c399	0.20875396
7	0x3e1c73c9	0.15278544
8	0x3e2e3081	0.1701069
9	0x3e0e1792	0.13876179
10	0x3eb2b5b2	0.34904248
11	0x3eac2f1e	0.33629698
12	0x3e98c9d1	0.29841474
13	0x3f650498	0.89460135
14	0x3f1c8bce	0.61150825
15	0x3f467ab5	0.77530986
16	0x3eaf53cc	0.3424362
17	0x3e9a0177	0.30079243
18	0x3e96a50e	0.29422802
19	0x3ee0466b	0.43803725
20	0x3e30a90e	0.17251989
21	0x3e20c3b9	0.15699662
22	0x3e59f5d8	0.21285188
23	0x3f391176	0.7229227
24	0x3f0e26d4	0.55527997
25	0x3f19b74c	0.60045314
26	0x3f414f26	0.75511396
27	0x3e614ea8	0.22002661
28	0x3f1c0469	0.6094423
29	0x3e83a066	0.25708312
30	0x3d3b9670	0.045797765
31	0x3e33b898	0.17550886
32	0x3f4f560d	0.8099068

bn0.bias f4 [33]
0	0x39dfc88c	0.00042683294
1	0x3b1634fb	0.0022919762
2	0xbae21cda	-0.001725103
3	0x39eec29e	0.000455399
4	0xbb47b83c	-0.0030474802
5	0x39722af7	0.00023094924
6	0x3b1d82c1	0.0024034234
7	0xbb2e6ce6	-0.0026615201
8	0xba328d9e	-0.0006811264
9	0x3af8b25e	0.0018974056
10	0xb9bc2978	-0.0003588905
11	0xbb7e86eb	-0.0038837742
12	0x39bb8679	0.0003576761
13	0x3ac39252	0.0014920926
14	0xba7c7dc0	-0.00096317753
15	0xb9af5cfc	-0.0003344788
16	0x39b94a81	0.0003534146
17	0xbaaece77	-0.0013336678
18	0xba10e979	-0.0005527954
19	0x3ad57d9d	0.0016288046
20	0xb98ff9e9	-0.00027461283
21	0xb9e02c46	-0.00042757596
22	0xba07c801	-0.0005179644
23	0x398749d4	0.00025804213
24	0x3b29702f	0.002585422
25	0xba8646a8	-0.0010244446
26	0xb9e9c8e0	-0.00044590887
27	0xb9ad8d2d	-0.00033102316
28	0xbab74b35	-0.0013984205
29	0xba2ad8a0	-0.0006517265
30	0x388bd93e	6.668501e-05
31	0xb929d1e9	-0.00016195294
32	0x39797abb	0.00023792211

bn0.running_mean f4 [33]
0	0x3f6ca561	0.9243985
1	0xc013cf25	-2.309518
2	0xbf6175fa	-0.8807064
3	0x3f2e8b76	0.6818155
4	0x3dbaaea8	0.09115344
5	0x3a1afaef	0.0005912026
6	0xbde237d3	-0.11045804
7	0x3d829d09	0.06377608
8	0xbbb49319	-0.0055106995
9	0x3d30c095	0.04315241
10	0x3d498062	0.0491947
11	0x3daf6c36	0.085655615
12	0xbcfc2204	-0.030777939
13	0x3f6ea1d1	0.9321566
14	0xc0479af6	-3.118833
15	0xbf9b6913	-1.2141441
16	0xbd9bc7bd	-0.076064564
17	0x3e7d1cf0	0.2471807
18	0x3db35b94	0.087577015
19	0x3d2cb8af	0.042168316
20	0x3e3fee68	0.18743289
21	0xbb10e385	-0.0022108268
22	0x3e83e31e	0.25759214
23	0xbcf4ebfd	-0.029897684
24	0x3e5567ac	0.20840329
25	0xbc0c3b45	-0.008559053
26	0xbe18568f	-0.1487677
27	0xbf7ffffc	-0.99999976
28	0xbcf435a6	-0.029810738
29	0x00000000	0.0
30	0x3f7ffffc	0.99999976
31	0x00000000	0.0
32	0xbcb7f87e	-0.022457357

bn0.running_var f4 [33]
0	0x40568378	3.3517742
1	0x3fca50aa	1.5805867
2	0x408531c0	4.162323
3	0x3e7c354b	0.24629705
4	0x3d8d126d	0.0688828
5	0x3da01b1f	0.07817673
6	0x3df79fd5	0.120910324
7	0x3f40ec87	0.7536091
8	0x3dcf0d79	0.101099916
9	0x3e35a246	0.17737684
10	0x405b0292	3.4220319
11	0x40698849	3.6489432
12	0x40819aa3	4.0501266
13	0x41806830	16.050873
14	0x40b0e8e5	5.5284295
15	0x419b6e4f	19.428862
16	0x3e318093	0.17334203
17	0x3e8f0793	0.27935466
18	0x3e21c80f	0.15798973
19	0x3ea0afc4	0.313841
20	0x40835adb	4.1048408
21	0x3f6a00d5	0.9140752
22	0x3fb027b2	1.3762114
23	0x4168b4cb	14.544139
24	0x4198561a	19.042042
25	0x4186e647	16.86244
26	0x41f825de	31.01849
27	0x00000004	6e-45
28	0x42035779	32.835423
29	0x00000004	6e-45
30	0x00000004	6e-45
31	0x00000004	6e-45
32	0x3eb076b5	0.34465566

fc1.weight f4 [400, 33]
0	0xbcb66312	-0.022264037
1	0x3d7c0855	0.061531384
2	0x3d715f66	0.05892887
3	0xbd668306	-0.056277297
4	0x3c512e2b	0.012767355
5	0xbdad40ce	-0.08459626
6	0x3dab3d98	0.083613575
7	0x3d161e63	0.036650073
8	0x3d8542c7	0.065068774
9	0x3d2edd90	0.042691767
10	0x3d7cd1e7	0.061723616
11	0x3e079548	0.1324054
12	0xbd9fd9a2	-0.07805182
13	0xbd21c12d	-0.039490867
14	0x3cc81d60	0.02442807
15	0x3dd6f619	0.10496158
16	0x3bfb584c	0.007670438
17	0xbe54170b	-0.20711915
18	0x3d342e22	0.04398931
19	0xbc4b2a9a	-0.012400294
20	0xbd66fc82	-0.056393154
21	0xbd0cda0c	-0.034387633
22	0x3d277d57	0.040891018
23	0x3d93dc1f	0.07219719
24	0xbd0d3c03	-0.03448106
25	0x3c95a1e2	0.018265668
26	0xbd5e403a	-0.05426047
27	0xba5ce1de	-0.0008425991
28	0x3c8bc7de	0.017063078
29	0xbc384c99	-0.011248731
30	0x3c875d6a	0.016524035
31	0x3d1e4fc1	0.038650278
32	0xbd13ae0f	-0.036054667
33	0x3d2b738c	0.04185824
34	0x3cbb2ed3	0.022849476
35	0x3d236b3a	0.03989718
36	0xbcb0c459	-0.021578
37	0xbdec36b9	-0.11533875
38	0x3c2e2e18	0.010631107
39	0x3d8fed29	0.070276566
40	0xbd46c5b0	-0.048528373
41	0xbe053799	-0.1300949
42	0x3c7968b6	0.015222719
43	0x3db8492c	0.089983314
44	0x3d0aebb8	0.033916205
45	0xbd3fd982	-0.04683829
46	0x3d31a0c6	0.043366216
47	0xbd7b477f	-0.06134748
48	0xbd78308e	-0.06059318
49	0xbde95668	-0.11393434
50	0xbdbe90ae	-0.09304939
51	0x3bcb74e1	0.0062090014
52	0x3c56b092	0.013103621
53	0x3d2316f4	0.03981681
54	0xbb78f487	-0.0037987547
55	0x3de4a665	0.1116455
56	0x3d89ecc9	0.06734616
57	0x3bbd1554	0.005770365
58	0xbe1a6315	-0.1507686
59	0xbdaf5388	-0.08560854
60	0x3d405e12	0.046964712
61	0x3d629926	0.055321835
62	0x3ce8d615	0.028422395
63	0x3d312bff	0.04325485
64	0x3c98a30a	0.01863243
65	0xbd120ab7	-0.03565475
66	0xbc3c9ca7	-0.011511958
67	0x3dead7b2	0.11466922
68	0x3cd67963	0.026180929
69	0xbcc5db1f	-0.024152337
70	0xbcf641d7	-0.030060692
71	0xbc459cf9	-0.012061351
72	0x3d3df4d5	0.04637607
73	0x3d73b692	0.059500284
74	0xbd4cea7e	-0.050028317
75	0x3dbf33bf	0.09336042
76	0x3e2bbfcc	0.16772383
77	0x3d2d8c4d	0.04237013
78	0xbce034e0	-0.027368963
79	0x3ca19649	0.019724982
80	0x3c28f0fa	0.01031136
81	0x3c230a98	0.009951256
82	0x3c6b5f0e	0.0143659245
83	0xbdcdb622	-0.10044505
84	0xbda79f99	-0.08184738
85	0xbd8b8724	-0.068128854
86	0xbd8027a5	-0.062575616
87	0xbdc31246	-0.0952497
88	0x3dd6c031	0.10485876
89	0xbe082ba3	-0.13297896
90	0xbd399350	-0.045306504
91	0x3d568400	0.05237198
92	0x3cabc43a	0.020967592
93	0xbd10a5c8	-0.03531435
94	0x3dc0c682	0.09412862
95	0x3ba0572e	0.004893205
96	0x3c79abd0	0.015238717
97	0x3cfd786e	0.030941214
98	0xbd0bcb2f	-0.034129318
99	0x3d9f0d3f	0.07766198
100	0xbcb039ef	-0.021512
101	0xbc46c5d0	-0.012132123
102	0xbb29ed07	-0.0025928633
103	0xbcf7b195	-0.030236045
104	0x3cbb4781	0.022861244
105	0xbd795811	-0.060875002
106	0x3db0073b	0.08595129
107	0xbb81edcd	-0.0039651156
108	0xbbc2a671	-0.0059402515
109	0x3dc21f7b	0.09478661
110	0x3c41477e	0.01179683
111	0xbd890ed8	-0.06692284
112	0xbe1ea119	-0.15491141
113	0x3b8e02c8	0.0043338276
114	0xbd663689	-0.056204353
115	0xbda25128	-0.079256356
116	0x3caf3020	0.021385252
117	0xbc14fd49	-0.009093591
118	0x3d5177a2	0.05113948
119	0xbc8c1a6e	-0.017102446
120	0xbd31892d	-0.04334371
121	0xbd26d562	-0.04073084
122	0xbd78f15e	-0.06077706
123	0x3b5f0341	0.003402904
124	0xbc22c9f2	-0.009935843
125	0x3de63173	0.112399004
126	0xbc583ed2	-0.013198571
127	0x3dcf8b75	0.10134021
128	0xbd325393	-0.043536734
129	0x3cf6ecb2	0.030142162
130	0xbc3240d5	-0.010879715
131	0x3ab749cb	0.0013983784
132	0x3dab85db	0.0837514
133	0x3d89f356	0.06735866
134	0x3d4c26f9	0.049841855
135	0xbdb7c413	-0.08972945
136	0xbd2fb17a	-0.042893864
137	0x3c0fc6e9	0.008775451
138	0x3d17c5c7	0.03705385
139	0xbcb9ffd6	-0.022705
140	0x3db96b90	0.09053719
141	0x3da8ac35	0.08235971
142	0x3e0e71c2	0.13910583
143	0x3e18e4db	0.14931051
144	0xbcaa0149	-0.020752566
145	0x3ca56a5b	0.020192316
146	0xbd162c3a	-0.03666327
147	0x3d36cbb5	0.044627864
148	0x3d883b85	0.066519774
149	0xb9a18f5a	-0.00030815118
150	0x3e0399bd	0.12851615
151	0x3d40e4b3	0.047093105
152	0x3db76de2	0.08956505
153	0xbccf0f00	-0.025275707
154	0x3cc14613	0.023592984
155	0xbd8e2e6f	-0.0694245
156	0xbd79adf8	-0.060956925
157	0xbda76f08	-0.081754744
158	0xbc828774	-0.01593373
159	0xbc3c3cde	-0.011489121
160	0x3cdeff91	0.027221473
161	0xbcf5a790	-0.029987127
162	0xbafb4ff6	-0.001917361
163	0x3d25ad07	0.040448215
164	0xbd786a2e	-0.060648136
165	0x3c8f6405	0.017503748
166	0x3d4819ea	0.04885284
167	0xbacf81cd	-0.001583153
168	0x3e61be16	0.22045168
169	0x3d60ebd8	0.054912418
170	0x3d2b3b10	0.041804373
171	0xbceb272c	-0.028705202
172	0x3cbcf505	0.023066053
173	0x3d9a38dd	0.07530377
174	0xbd8fa561	-0.070139654
175	0x3bf50744	0.007477673
176	0x3ce7d1dd	0.028298313
177	0xbca51c85	-0.0201552
178	0x3daab00c	0.083343595
179	0xbd8d3dfa	-0.06896587
180	0xbd2ccaf0	-0.042185724
181	0x3dabde86	0.08392052
182	0xbe00b17f	-0.1256771
183	0x3d8bc79c	0.06825182
184	0x3d8e8cba	0.06960435
185	0xbd279959	-0.040917728
186	0x3d42f0ce	0.04759293
187	0xbe04b51d	-0.12959714
188	0x3d9a7fe1	0.07543922
189	0x3dfd92c0	0.12381506
190	0xbd162788	-0.036658794
191	0xbd833a37	-0.06407588
192	0x3d15f4b8	0.036610335
193	0x3cfdd30b	0.030984422
194	0xbd039d2a	-0.032132305
195	0xbc79e211	-0.015251652
196	0xbc8cf589	-0.017206924
197	0xbc30e8d3	-0.010797697
198	0xb9155bbe	-0.00014243924
199	0x3b1bdbea	0.0023782202
200	0x3cccc76b	0.024997434
201	0xbe013097	-0.12616192
202	0x3de5602a	0.111999825
203	0x3cc88e4d	0.024481917
204	0xbd3bf289	-0.045885596
205	0xbdbb5bee	-0.091483936
206	0xbda2a23e	-0.079411015
207	0x3c547898	0.012968205
208	0x3c58a6a2	0.013223322
209	0x3df17e83	0.11791708
210	0x3d27d769	0.040976916
211	0xbd9a6b18	-0.07539958
212	0xbd843ecb	-0.06457289
213	0xbdbe7128	-0.092989266
214	0xbe0dd047	-0.13848983
215	0x3ce1f71a	0.027583648
216	0xbdc87927	-0.09788733
217	0x3d9dbe53	0.07702317
218	0x3cc2e7f0	0.023792237
219	0xbceb1f60	-0.028701484
220	0xbd83a89e	-0.064286456
221	0xbd06166e	-0.032736234
222	0xbcfb6e5c	-0.030692272
223	0xbdd16e66	-0.10226135
224	0x3ca368f0	0.019947499
225	0xbd261cae	-0.040554695
226	0x3d5e96e4	0.05434312
227	0xbc2ef694	-0.010678906
228	0x3b5b1153	0.0033427074
229	0x3c1349ac	0.008989733
230	0xbcb89e06	-0.022536289
231	0x3b5a08b9	0.003326936
232	0x3ca0eb46	0.019643437
233	0x3d3a5e2a	0.045499958
234	0xbd017f17	-0.031615343
235	0xbdf09a08	-0.11748129
236	0xbdb3af22	-0.08773638
237	0x3e24d13d	0.16095443
238	0xbcfce512	-0.030870948
239	0xbd95b473	-0.073098086
240	0xbca3ed89	-0.020010727
241	0x3d7b5ee1	0.06136978
242	0xbd96bd3e	-0.07360314
243	0xbd6a906a	-0.05726663
244	0x3c98300e	0.018577602
245	0x3b863be4	0.004096495
246	0x3c18cc5f	0.00932607
247	0x3dc8b5c7	0.09800296
248	0xbddc6f32	-0.10763396
249	0xbd693942	-0.05693937
250	0xbd77f0dd	-0.06053244
251	0x3de1543a	0.11002393
252	0x3d93b60e	0.072124586
253	0x3da24925	0.079241075
254	0xbd553572	-0.052052923
255	0x3dec1148	0.11526734

fc1.bias f4 [400]
0	0x3abe873a	0.001453615
1	0x3e093fba	0.13403216
2	0xbd70a594	-0.058751658
3	0xbd1f5238	-0.03889677
4	0xbe0bfd51	-0.13670851
5	0x3df4e395	0.1195747
6	0xbd97a8b3	-0.07405224
7	0xbd765f43	-0.060149442
8	0xbe149acd	-0.14512177
9	0x3e104400	0.1408844
10	0xbe116204	-0.14197546
11	0x3bc18121	0.005905286
12	0xbdf5a978	-0.11995214
13	0xbcfac63e	-0.030612107
14	0x3d9334bf	0.07187795
15	0x3dda6b1d	0.106649615
16	0xbe11a5a5	-0.14223345
17	0xbe0c77b9	-0.13717546
18	0x3d2e536c	0.042560026
19	0xbc58bee7	-0.013229108
20	0xbdd4042c	-0.10352358
21	0xbe135707	-0.14388667
22	0x3dc20a74	0.0947465
23	0x3d101dfd	0.03518485
24	0x3dd8c525	0.10584477
25	0x3b8127f9	0.0039415327
26	0x3d45d24e	0.048296265
27	0x3cbfd99b	0.023419192
28	0xbd7572cd	-0.059923936
29	0x3c97234e	0.018449452
30	0xbc855329	-0.016275005
31	0xbe144355	-0.1447881
32	0x3e0544a2	0.13014463
33	0xbe1e1280	-0.15436745
34	0xbdeb8f89	-0.115019865
35	0xbc5d17d6	-0.013494452
36	0x3e154885	0.14578445
37	0xbe18f705	-0.1493798
38	0x3c9bc49b	0.019014647
39	0xbbc32c22	-0.005956189
40	0xbd9258a5	-0.07145814
41	0x3d8197af	0.063277595
42	0xbe13107d	-0.14361759
43	0x3afcfd35	0.0019301536
44	0xbe2616eb	-0.1621968
45	0xbe0d4f32	-0.13799742
46	0xbddca0a3	-0.107728265
47	0xbe2846c1	-0.1643324
48	0x3da9321c	0.08261511
49	0xbe091f6b	-0.13390891
50	0x3c7f16f6	0.015569439
51	0xbdbf91dd	-0.09353993
52	0xbe295394	-0.16535789
53	0x3e0cd936	0.13754734
54	0x3e1c0b4a	0.15238681
55	0xbdd21496	-0.10257833
56	0xbe0ca966	-0.13736495
57	0x3de4432e	0.11145626
58	0x3e1ba3c1	0.15199186
59	0x3dd5af00	0.10433769
60	0xbda65c02	-0.08123018
61	0xbe0388f2	-0.12845209
62	0x3c99bc11	0.018766435
63	0x3e08c391	0.13355853
64	0xbe2a60fa	-0.16638556
65	0x3d1cb642	0.038259752
66	0xbe044ce8	-0.12919962
67	0xbdce2846	-0.10066275
68	0x3db3e44a	0.08783777
69	0x3bf99eac	0.007617792
70	0x3e246aa8	0.16056311
71	0x3d2dcce2	0.04243172
72	0xbd03de0a	-0.032194175
73	0x3e0cb671	0.13741471
74	0x3de25dbb	0.11053034
75	0xbe0cfd18	-0.13768423
76	0xbe053c7b	-0.13011353
77	0x3e0c8431	0.13722302
78	0x3d2a90d5	0.04164203
79	0x3df25e0c	0.11834344
80	0xbe0d50a3	-0.13800292
81	0x3d6da193	0.058015417
82	0xbdb1e08f	-0.08685409
83	0xbe1bccdc	-0.15214866
84	0x3d8d7c02	0.06908418
85	0x3de278a7	0.11058169
86	0x3e29117e	0.16510579
87	0x3e27fe3e	0.1640558
88	0xbe1afcf5	-0.15135558
89	0x3de1121d	0.10989783
90	0x3e15482e	0.14578316
91	0xbe1ce793	-0.15322714
92	0x3e21e979	0.15811719
93	0x3e208ca5	0.15678652
94	0x3e23a309	0.15980162
95	0xbe19c3e6	-0.15016136
96	0x3de4e9d0	0.11177409
97	0x3d19bf4f	0.03753596
98	0x3c3feeb0	0.011714622
99	0x3dc3ffa5	0.09570245
100	0xbd8f9b0d	-0.070119955
101	0xbd0f1b5a	-0.034938194
102	0xbb58a111	-0.0033054987
103	0xbe32a248	-0.17444718
104	0xbe13bfd7	-0.1442865
105	0xbe1db271	-0.15400101
106	0xbe0a46db	-0.13503592
107	0xbd8de02c	-0.06927523
108	0x3de39606	0.11112599
109	0xbe3138fc	-0.17306894
110	0x3e18d127	0.14923535
111	0xbae5e91b	-0.0017540784
112	0xbe10375a	-0.14083615
113	0x3dd9d8c6	0.106370494
114	0x3dfb6a4c	0.12276134
115	0xbe12b78c	-0.1432783
116	0x3e1883f6	0.14894089
117	0xbdb142ab	-0.08655294
118	0x3d4eedb9	0.05051968
119	0x3d417877	0.047234025
120	0xbc0c8eb1	-0.008578942
121	0xbe1382a4	-0.14405304
122	0x3de42572	0.111399546
123	0xbe1c88de	-0.15286586
124	0xbdd09128	-0.10183936
125	0xbc26e009	-0.01018525
126	0x3d44cd8d	0.04804759
127	0x3e1aff33	0.15136413
128	0xbc0586c9	-0.008149811
129	0xbd040857	-0.032234516
130	0xbdeeecc3	-0.116662525
131	0x3e228ab2	0.1587322
132	0xbe288526	-0.16457042
133	0xbd8d13e7	-0.06888562
134	0xbda84483	-0.082161926
135	0xbe1e09cd	-0.15433426
136	0x3d89a814	0.067215115
137	0x3dc9ca37	0.098530225
138	0x3e089803	0.13339238
139	0xbc6fc99a	-0.014635468
140	0xbe2d84f6	-0.16945252
141	0x3dc983ec	0.09839615
142	0xbe2af1fd	-0.16693874
143	0xbdd0b725	-0.10191182
144	0x3d82f774	0.06394854
145	0x3d9c4f1c	0.076322764
146	0x3d313158	0.04325995
147	0xbdd97b81	-0.106192596
148	0xbdbe26f4	-0.092847735
149	0x3c9208c5	0.017826447
150	0x3da258ee	0.07927118
151	0xbc1aa8c6	-0.009439653
152	0xbdc108c6	-0.094255015
153	0x3d83c053	0.06433167
154	0x3d6afa75	0.05736776
155	0xbd7196fe	-0.058981888
156	0xbb53e40b	-0.003233197
157	0x3ccf3939	0.02529584
158	0xbdadeeb7	-0.08492797
159	0xbd2f631e	-0.042819135
160	0xbd7f1a28	-0.062280804
161	0xbc3582be	-0.011078535
162	0xbdd718d1	-0.1050278
163	0xbdeca5c4	-0.11555055
164	0xbde03845	-0.109482326
165	0x3d0422e3	0.032259833
166	0x3b921d50	0.0044590607
167	0xbd5a6bb0	-0.053325355
168	0xba9eb2f5	-0.0012107777
169	0x3d345edc	0.044035777
170	0x3d55fb9b	0.052241903
171	0x3c2a15f9	0.010381215
172	0xbd389353	-0.045062374
173	0xbdca85bd	-0.0988879
174	0xbda5f492	-0.08103289
175	0xbcbfb6f6	-0.023402672
176	0xbe064767	-0.13113175
177	0xbca72d31	-0.020407291
178	0xbdeb6c6d	-0.1149529
179	0xbe26e912	-0.16299847
180	0x3d945996	0.0724365
181	0xbcdf2cf5	-0.027243117
182	0xbd353b4c	-0.044246003
183	0x3da1ef57	0.079069786
184	0xbcece034	-0.028915502
185	0xbd1bd1cb	-0.03804187
186	0x3e31b4d9	0.17354144
187	0x3d9d4e90	0.07681
188	0xbe1071b1	-0.1410587
189	0x3e000cb2	0.12504843
190	0xbdb8fe7d	-0.09032915
191	0xbd23e494	-0.04001291
192	0x3da896d1	0.08231891
193	0x3e2955f8	0.165367
194	0xbe0d9c88	-0.13829243
195	0xbdd7fb92	-0.1054603
196	0xbe1b47c0	-0.15164089
197	0xbe285300	-0.16437912
198	0xbe2375d5	-0.15962918
199	0xbe08275c	-0.13296264
200	0x3d1cd961	0.038293246
201	0x3d8b6521	0.06806398
202	0x3e0c0520	0.1367383
203	0x3de7954a	0.113077715
204	0xbe11b4e7	-0.14229165
205	0x3b7248af	0.0036969592
206	0xbe22293e	-0.15836045
207	0x3e1d0888	0.15335286
208	0xbd05f701	-0.032706264
209	0x3d821329	0.06351311
210	0xbde377a8	-0.11106807
211	0x3e160067	0.14648591
212	0xbe0656e2	-0.1311908
213	0x3d71f902	0.059075363
214	0xbd0d8fc7	-0.034560945
215	0xbcad315c	-0.0211417
216	0xbd22fc89	-0.039791618
217	0x3dd28483	0.10279181
218	0x3d2e745b	0.042591434
219	0x3dc0fa94	0.09422794
220	0xbd776b4c	-0.06040506
221	0xbdc4a3bc	-0.09601542
222	0x3de83a4c	0.11339244
223	0xbe026f89	-0.1273786
224	0xbdbcc637	-0.09217494
225	0xbd1e8075	-0.038696725
226	0xbe07b925	-0.13254221
227	0x3df2c6b4	0.11854306
228	0x3e1a94b8	0.15095794
229	0xbdab5f54	-0.08367792
230	0xbdf66c72	-0.12032403
231	0x3ca200f2	0.019775841
232	0x3dc8df2c	0.09808192
233	0x3dfd3163	0.123629354
234	0xbd8a67a5	-0.0675805
235	0xbb97fe73	-0.004638487
236	0xbda6ccef	-0.08144557
237	0xbe2c4fda	-0.16827336
238	0xbce19396	-0.027536195
239	0xbd53ce8a	-0.051710643
240	0x3dde6f00	0.10861015
241	0x3df994d4	0.1218659
242	0xbe02e0e7	-0.12781106
243	0x3d7121d5	0.058870155
244	0xbdfe1cd4	-0.12407842
245	0xbdc3f451	-0.09568084
246	0x3e0fe369	0.14051594
247	0xbd4c1d72	-0.04983277
248	0x3dd04ada	0.10170527
249	0xbe2a446f	-0.16627668
250	0xbe20ac3c	-0.15690702
251	0x3cb826e9	0.022479491
252	0xbe23a333	-0.15980224
253	0x3df443f1	0.11927021
254	0x3e09e805	0.13467415
255	0xbdea16c9	-0.11430127

bn1.weight f4 [400]
0	0x3e21fd30	0.1581924
1	0x3ed48783	0.41509637
2	0x3e9ec148	0.31006837
3	0x3e91c1f8	0.284683
4	0x3f0cc062	0.5498105
5	0x3f2e3020	0.6804218
6	0x3e9b6467	0.30350038
7	0x3e4ce116	0.20007738
8	0x3e68a803	0.22720341
9	0x3f60d655	0.87827045
10	0x3f112eef	0.5671224
11	0x3f04136a	0.51592124
12	0x3e40bf77	0.18823038
13	0x3ebad802	0.36492926
14	0x3e802d8d	0.25034752
15	0x3f0d2ca3	0.55146235
16	0x3e8f1fc0	0.2795391
17	0x3ef3c347	0.47609922
18	0x3f02dc58	0.5111747
19	0x3f38abb1	0.7213698
20	0x3f640d66	0.89082944
21	0x3f025e67	0.50925297
22	0x3e9d816f	0.30762812
23	0x3f48247e	0.7818068
24	0x3f3f86e8	0.74815226
25	0x3eccd857	0.40008804
26	0x3e6674dd	0.22505517
27	0x3eaeddc8	0.3415358
28	0x3edb6a00	0.4285431
29	0x3f224e4f	0.6340074
30	0x3e7a170b	0.24422853
31	0x3f1e54c6	0.61848104
32	0x3f12918d	0.5725334
33	0x3e962da3	0.29331693
34	0x3ee22de1	0.44175628
35	0x3e25fd3c	0.16209882
36	0x3f4b4955	0.7940877
37	0x3ebd72b0	0.37001562
38	0x3f454d44	0.77071023
39	0x3f03ae5b	0.5143792
40	0x3ee393c3	0.4444867
41	0x3efa7b99	0.48922423
42	0x3ebb19f4	0.36543238
43	0x3f24582a	0.6419703
44	0x3f34852a	0.7051569
45	0x3f1b32c9	0.60624367
46	0x3f38b596	0.7215208
47	0x3f410880	0.75403595
48	0x3f1d354c	0.6140945
49	0x3e6eee54	0.23333102
50	0x3eba29a8	0.36359906
51	0x3f314359	0.6924339
52	0x3ee66adf	0.4500341
53	0x3f201647	0.6253399
54	0x3ebc0f61	0.36730483
55	0x3f144eaa	0.5793253
56	0x3f36a3f0	0.713439
57	0x3ef165d3	0.47147998
58	0x3f50802e	0.81445587
59	0x3f02693a	0.50941813
60	0x3ef6a302	0.4817124
61	0x3f121c45	0.57074386
62	0x3e9f767c	0.31145084
63	0x3efd29e4	0.49446023
64	0x3f35cab3	0.7101242
65	0x3efb42c8	0.49074388
66	0x3ef01537	0.46891186
67	0x3e6b5a5c	0.22983688
68	0x3e57e291	0.21082522
69	0x3f293375	0.6609414
70	0x3f3e031f	0.7422351
71	0x3eda1dbb	0.42600808
72	0x3f1dcee2	0.61643803
73	0x3eae4583	0.34037408
74	0x3f51476d	0.8174961
75	0x3f1b5c37	0.60687584
76	0x3f50f9d0	0.81631184
77	0x3ed9fc5c	0.42575347
78	0x3eb1f8e1	0.34760192
79	0x3e5504af	0.20802568
80	0x3eba237d	0.363552
81	0x3f08b65f	0.53403276
82	0x3f502d3e	0.81319034
83	0x3f01ce13	0.5070507
84	0x3e9411e1	0.2891989
85	0x3f2d8264	0.67777085
86	0x3efa62c9	0.48903492
87	0x3f35daeb	0.7103717
88	0x3f39cebe	0.7258109
89	0x3f124780	0.5714035
90	0x3f53a1bd	0.8266867
91	0x3f17745f	0.59161943
92	0x3f40c813	0.7530529
93	0x3e8319f3	0.25605735
94	0x3f2845ec	0.6573169
95	0x3f2e1a22	0.68008626
96	0x3f5577e1	0.83386046
97	0x3eb00662	0.3437987
98	0x3f1ba207	0.6079411
99	0x3ea9a0e4	0.33130562
100	0x3ef1420f	0.4712071
101	0x3f301013	0.6877453
102	0x3eaf4202	0.34230047
103	0x3ec3c3f9	0.38235453
104	0x3f42664d	0.7593735
105	0x3f38d9d8	0.72207403
106	0x3f2e8d82	0.68184674
107	0x3f0aac68	0.5416932
108	0x3f3a7ce6	0.7284683
109	0x3f025194	0.5090573
110	0x3ea71b8d	0.32638207
111	0x3e846fee	0.25866646
112	0x3f510e35	0.81662303
113	0x3e73ce35	0.2380913
114	0x3e7a7c13	0.24461393
115	0x3f0b06ec	0.54307437
116	0x3f167212	0.5876781
117	0x3f647cda	0.8925301
118	0x3ebe7514	0.371987
119	0x3f3435c7	0.7039456
120	0x3efe1c56	0.49630994
121	0x3ed478dd	0.4149846
122	0x3f1c2ce0	0.61005974
123	0x3f3ae173	0.7300026
124	0x3f264c3d	0.6496008
125	0x3f4ca248	0.7993512
126	0x3f39d85b	0.7259576
127	0x3f242a08	0.64126635
128	0x3e9db479	0.30801752
129	0x3ecfa9dd	0.40559283
130	0x3f2a0e6c	0.66428256
131	0x3e744325	0.23853739
132	0x3f5a2f92	0.85228837
133	0x3f1486d7	0.5801825
134	0x3f499b4a	0.7875258
135	0x3f403c55	0.7509206
136	0x3eed63d7	0.46365234
137	0x3e8cf035	0.27527013
138	0x3e95fa57	0.29292557
139	0x3e7c9bf4	0.24668866
140	0x3f50eea3	0.8161413
141	0x3e6e3782	0.23263362
142	0x3ee84a40	0.45369148
143	0x3f4fef80	0.81224823
144	0x3f1a9f02	0.60398877
145	0x3e90626b	0.28200087
146	0x3e5b9890	0.21444917
147	0x3f1a2205	0.6020816
148	0x3f1eb759	0.61998516
149	0x3f46c0c2	0.77637875
150	0x3f39f151	0.72633845
151	0x3f2ea1d4	0.6821568
152	0xb9939a2e	-0.00028152898
153	0x3f3e2698	0.7427764
154	0x3ee13398	0.43984675
155	0x3ec47f12	0.38378197
156	0x3f4356e7	0.7630448
157	0x3ed05155	0.4068705
158	0x3e5b2c2d	0.2140357
159	0x3f4cb260	0.7995968
160	0x3e875187	0.26429388
161	0x3ee55166	0.44788665
162	0x3eb4a9a0	0.35285664
163	0x3f44cb38	0.7687259
164	0x3eb58a2c	0.3545698
165	0x3f49c272	0.78812325
166	0x3f349f2c	0.70555377
167	0x3ebd1dd2	0.36936814
168	0x3e825146	0.25452632
169	0x3e51c99c	0.20487064
170	0x3f507f9d	0.8144472
171	0x3ef4db72	0.47823673
172	0x3f09bd8c	0.5380485
173	0x3f3f9f3d	0.74852353
174	0x3ea00394	0.3125273
175	0x3ea8b867	0.32953188
176	0x3edd3245	0.43202415
177	0x3f1c66b4	0.6109421
178	0x3f0d7bee	0.55267227
179	0x3eff64c2	0.4988156
180	0x3e293182	0.16522792
181	0x3f054303	0.52055377
182	0x3f456c87	0.77118725
183	0x3e9c31a8	0.30506635
184	0x3ec379e9	0.38178948
185	0x3f00c15a	0.5029503
186	0x3f112152	0.5669147
187	0x3f1c6a43	0.6109964
188	0x3e8396d6	0.25701016
189	0x3f4f4485	0.8096393
190	0x3eb6471b	0.35601124
191	0x3edf1444	0.4357015
192	0x3ee0189b	0.43768772
193	0x3f18ed51	0.59737116
194	0x3f179662	0.5921384
195	0x3f09af5f	0.5378322
196	0x3f2bca46	0.6710552
197	0x3e617724	0.22018105
198	0x3e98c158	0.2983501
199	0x3f3e8e2a	0.74435675
200	0x3f2ec22d	0.6826504
201	0x3ec0d1dc	0.3766011
202	0x3ef82502	0.48465735
203	0x3f0e96cf	0.55698866
204	0x3e232052	0.15930298
205	0x3e5289d8	0.20560396
206	0x3efcf6f5	0.49407163
207	0x3eebcab4	0.46053088
208	0x3eeef9f8	0.46675086
209	0x3eba9a94	0.3644606
210	0x3f14a318	0.5806136
211	0x3e97b68e	0.29631466
212	0x3f236efa	0.6384121
213	0x3f4c7428	0.7986474
214	0x3e790693	0.24318914
215	0x3f4f6171	0.8100806
216	0x3f1a6f5b	0.60326165
217	0x3f22700b	0.63452214
218	0x3f10acbb	0.56513566
219	0x3f2bbddb	0.6708657
220	0x3ef3e8b5	0.4763848
221	0x3ee3f77e	0.4452476
222	0x3f4857f5	0.7825921
223	0x3e962ca3	0.2933093
224	0x3e3e9dbf	0.18614863
225	0x3f0dceda	0.55393755
226	0x3ef40fbc	0.47668254
227	0x3e91b0a4	0.2845508
228	0x3a34514f	0.0006878571
229	0x3f4f94c8	0.810864
230	0x3e89cf2d	0.26915875
231	0x3ecec5be	0.4038524
232	0x3ec853a0	0.391263
233	0x3f420605	0.75790435
234	0x3f305210	0.6887522
235	0x3ef1682f	0.47149798
236	0x3eb10c78	0.34579825
237	0x3ec4a510	0.38407183
238	0x3e59ece8	0.21281779
239	0x3f3346aa	0.700297
240	0x3f561695	0.8362821
241	0x3f425cc7	0.75922817
242	0x3ebfa193	0.3742796
243	0x3e8c9304	0.27455914
244	0x3e83e172	0.2575794
245	0x3f1e62af	0.6186933
246	0x3f0fdcec	0.56196475
247	0x3f41cb99	0.7570129
248	0x3e5dfd0d	0.21678562
249	0x3f260da9	0.64864594
250	0x3eeb8689	0.4600108
251	0x3ec3e614	0.38261473
252	0x3f199b48	0.60002565
253	0x3f437223	0.76346034
254	0x3eb9bd08	0.36277032
255	0x3e8d7b49	0.27633122

bn1.bias f4 [400]
0	0xbe59bcf7	-0.2126349
1	0xbe894e6c	-0.26817644
2	0xbe62b7e4	-0.22140461
3	0xbe09c325	-0.13453348
4	0xbe26eb50	-0.16300702
5	0xbe9f77fe	-0.31146234
6	0xbe3f6960	-0.18692541
7	0xbd45dcdf	-0.048306342
8	0xbe2874d4	-0.16450816
9	0xbdc63030	-0.0967716
10	0xbe4c84cd	-0.19972534
11	0xbe39ca83	-0.18143658
12	0x3dcc8642	0.09986545
13	0xbd57db03	-0.0526991
14	0xbda58abf	-0.08083104
15	0xbe1aa2ac	-0.15101117
16	0xbe294d0c	-0.16533297
17	0xbea3a549	-0.3196204
18	0xbe4b7a8d	-0.19870968
19	0x3ccb36b1	0.024806352
20	0x3d8c3374	0.068457514
21	0xbe7b84f1	-0.24562432
22	0xbda04892	-0.07826342
23	0xbedb9b77	-0.42892048
24	0x3db49365	0.08817176
25	0xbca5df68	-0.02024813
26	0x3e3b72db	0.18305533
27	0xbe42ed40	-0.19035816
28	0xbe570824	-0.20999199
29	0xbe4720e2	-0.19446138
30	0xbd918940	-0.071062565
31	0xbe3c23f9	-0.18373097
32	0xbead0909	-0.33795956
33	0xbe239205	-0.15973671
34	0x3e0d0955	0.13773091
35	0xbd701da6	-0.058622025
36	0xbe2498bc	-0.16073889
37	0xbe0715d0	-0.13191915
38	0xbeb0c778	-0.34527183
39	0xbd9cd9ce	-0.076587304
40	0xbe22f312	-0.15913036
41	0xbdee9547	-0.11649566
42	0xbe963b45	-0.29342094
43	0x3d4f5594	0.050618723
44	0xbe831034	-0.255983
45	0xbe003eec	-0.12524003
46	0xbdbaa116	-0.09112756
47	0xbe824af7	-0.2544782
48	0xbe55f595	-0.20894463
49	0xbdddf92f	-0.108385436
50	0x3e2fe907	0.17178737
51	0xbedd58dd	-0.4323186
52	0xbe63e2e6	-0.22254524
53	0xbe0460a1	-0.12927486
54	0xbe38367e	-0.17989537
55	0xbe1e890c	-0.15481967
56	0xbe68b430	-0.22724986
57	0xbe2bf611	-0.16793086
58	0xbe017d9d	-0.12645574
59	0xbe7bc9af	-0.24588655
60	0xbe8fdd81	-0.28098682
61	0xbe315494	-0.1731742
62	0xbdb4c9b8	-0.08827537
63	0xbead7382	-0.33877188
64	0xbf102eb1	-0.56321245
65	0xbeb4b9a2	-0.35297877
66	0xbeb3028b	-0.34962878
67	0xbde4ab95	-0.11165539
68	0xbde3c670	-0.11121833
69	0xbe3588dd	-0.1772799
70	0xbebdbda6	-0.37058753
71	0xbd882272	-0.06647195
72	0xbed71ba0	-0.42013264
73	0xbe53992a	-0.20663896
74	0xbe934888	-0.28766274
75	0xbec35441	-0.38150218
76	0xbe9e29a8	-0.30891156
77	0xbe34ad6a	-0.17644277
78	0xbdca0451	-0.098641045
79	0xbe3535ab	-0.17696254
80	0xbdda91e2	-0.10672356
81	0xbe345b3e	-0.17612931
82	0xbe2430a2	-0.16034177
83	0xbc9d9bb0	-0.019239277
84	0x3bfbfc67	0.007690001
85	0xbe086f3e	-0.13323686
86	0xbe29b8e7	-0.16574441
87	0xbe366655	-0.17812474
88	0xbe989922	-0.2980433
89	0xbdc3c633	-0.09559288
90	0xbcfc06cc	-0.03076496
91	0xbe1d52fe	-0.1536369
92	0xbdcbe303	-0.099554084
93	0xbe236169	-0.15955128
94	0xbe8e349a	-0.27774507
95	0xbeb25e90	-0.3483777
96	0xbe1a2a68	-0.15055239
97	0xbcd91a39	-0.026501762
98	0xbe07e8a2	-0.13272336
99	0xbdb70a10	-0.08937466
100	0xbd9695a7	-0.07352763
101	0xbc931d0e	-0.01795819
102	0xbe1ed716	-0.15511736
103	0xbe95aaaf	-0.29231784
104	0xbe9ddae5	-0.30831066
105	0xbd8fbfbc	-0.07018992
106	0xbdce57cb	-0.10075339
107	0xbdc50e5c	-0.096218795
108	0xbec89667	-0.39177248
109	0xbe9d87d3	-0.30767688
110	0xbe23f217	-0.16010319
111	0x3cc2edad	0.023794973
112	0xbe092d02	-0.13396075
113	0xbe6756b1	-0.22591664
114	0xbd044a31	-0.032297317
115	0xbe95b1d2	-0.2923723
116	0x3d9e727f	0.07736682
117	0xbe8553b0	-0.2604041
118	0xbb306f19	-0.0026921688
119	0xbc3a9be2	-0.011389704
120	0xbe015aa9	-0.1263224
121	0xbea9abef	-0.33138987
122	0xbe4d6dda	-0.20061436
123	0xbdbe7639	-0.09299893
124	0xbe8f13e0	-0.2794485
125	0xbddf7ce4	-0.10912493
126	0xbe0c36fc	-0.1369285
127	0x3d240e5f	0.040052768
128	0xbd3a36a0	-0.04546225
129	0xbe3fcd23	-0.18730597
130	0xbecced4e	-0.400248
131	0xbdb9488c	-0.0904704
132	0xbe1cf80f	-0.15329002
133	0xbdffd686	-0.12492089
134	0xbe212de1	-0.15740158
135	0xbe8178ac	-0.25287378
136	0xbe80cf3b	-0.25158104
137	0xbd7940df	-0.06085288
138	0xbd82f1c1	-0.06393767
139	0xbe17067e	-0.1474857
140	0xbe89124e	-0.26771778
141	0xbe07dce0	-0.13267851
142	0xbe8697ff	-0.2628784
143	0xbe7d1c94	-0.24717933
144	0xbe5f3191	-0.21796252
145	0xbce85400	-0.028360367
146	0xbe7c1546	-0.2461749
147	0xbe6f7311	-0.23383738
148	0x3d3317c7	0.043723848
149	0xbe676a48	-0.22599137
150	0xbe3280be	-0.17431924
151	0xbd73592b	-0.05941121
152	0xbb32eda4	-0.002730229
153	0xbe8e3c7b	-0.27780518
154	0xbd9b711e	-0.07589935
155	0xbe4d4ae0	-0.20048094
156	0xbe19a8f2	-0.15005854
157	0xbe20d3b0	-0.15705752
158	0xbe3c8bb9	-0.18412675
159	0xbe20ed0c	-0.15715426
160	0xbe0006f1	-0.12502648
161	0xbe0f3576	-0.13985237
162	0xbe517844	-0.20456034
163	0xbe8e5f35	-0.27807012
164	0xbd931a12	-0.07182707
165	0xbe5f99ca	-0.2183601
166	0xbe577b58	-0.21043146
167	0xbdce0595	-0.100596584
168	0xbe104bf8	-0.1409148
169	0xbd8c91f6	-0.06863777
170	0xbe9ba221	-0.30397132
171	0xbdf7d5da	-0.12101336
172	0xbe5c92a3	-0.21540312
173	0x3ca2289b	0.019794753
174	0xbd89b692	-0.06724276
175	0x3cc7f705	0.02440978
176	0xbe758f52	-0.23980454
177	0xbdd5ea9b	-0.10445138
178	0xbe5ea9bb	-0.21744435
179	0xbe1478ef	-0.14499258
180	0x3de2f0ef	0.11081111
181	0x3cb92909	0.022602575
182	0xbdc74950	-0.0973078
183	0xbe1055ba	-0.14095202
184	0xbd09db52	-0.033656426
185	0xbe1a6005	-0.15075691
186	0xbe758a92	-0.23978642
187	0xbeb31ca8	-0.349828
188	0xbdbc705c	-0.09201118
189	0xbea40b9f	-0.32040116
190	0xbdc35ad6	-0.0953881
191	0xbe0331de	-0.12811992
192	0xbe6ed2d7	-0.23322617
193	0x3c2e0f31	0.010623739
194	0xbebe60cc	-0.37183225
195	0xbe443de5	-0.19164236
196	0xbeb927f0	-0.36163282
197	0x3d38a5fb	0.045080166
198	0xbe09f67e	-0.13472936
199	0xbeaa298f	-0.33234832
200	0xbe1f4ed7	-0.15557419
201	0xbe4928be	-0.19644448
202	0xbe622353	-0.22083788
203	0xbe8df0ac	-0.2772268
204	0xbd84bbc0	-0.06481123
205	0xbdf77729	-0.12083275
206	0xbcba6a34	-0.02275572
207	0xbe9548f7	-0.2915723
208	0xbe82cf00	-0.25548553
209	0xbeb1bd4e	-0.3471474
210	0xbe928f09	-0.28624752
211	0xbc9c1216	-0.019051593
212	0xbd726d41	-0.059186224
213	0xbe93445a	-0.28763086
214	0xbd37bafb	-0.044856053
215	0xbed4b159	-0.41541556
216	0xbe9225fd	-0.28544608
217	0xbe773e8b	-0.24144952
218	0xbea182b5	-0.31545034
219	0xbe01e6ba	-0.12685671
220	0xbd9b6e4a	-0.07589395
221	0xbe9d24c2	-0.30692106
222	0xbe53c593	-0.20680837
223	0xbe461abd	-0.19346137
224	0xbe30793d	-0.17233749
225	0xbe59933f	-0.21247576
226	0xbe5fa377	-0.218397
227	0xbe82644d	-0.25467148
228	0xbb7cc4c0	-0.003856942
229	0xbeaefdda	-0.34178048
230	0xbe1f48e2	-0.15555146
231	0xbdbfdcfd	-0.09368322
232	0xbe808c9c	-0.25107276
233	0xbd69aa1b	-0.05704699
234	0xbe132f0c	-0.14373416
235	0xbe630413	-0.22169523
236	0xbe8e6c36	-0.27816933
237	0xbe16afac	-0.14715451
238	0x38e99829	0.00011138648
239	0xbee0b103	-0.4388505
240	0xbe8d59a6	-0.2760746
241	0xbe206b2d	-0.15665884
242	0xbdb6a040	-0.08917284
243	0xbd10c12d	-0.035340477
244	0xbdf55a4b	-0.11980113
245	0xbe6159f9	-0.22006978
246	0xbf01c69b	-0.5069367
247	0xbd8b3dd8	-0.06798905
248	0xbe156ffe	-0.14593503
249	0xbe2c9a38	-0.16855705
250	0xbe9b1236	-0.3028733
251	0xbd1706e3	-0.036871802
252	0xbe2ce754	-0.1688512
253	0xbec5aa53	-0.3860651
254	0xbdc7f799	-0.097640224
255	0xbe3d6dad	-0.18498869

bn1.running_mean f4 [400]
0	0x3a83dd1f	0.0010060406
1	0x3e0a235b	0.1349005
2	0xbd70c9d1	-0.058786217
3	0xbd221c81	-0.039577965
4	0xbe0c4361	-0.13697578
5	0x3df5fd44	0.12011197
6	0xbd98e892	-0.07466234
7	0xbd714202	-0.05890084
8	0xbe14a113	-0.1451457
9	0x3e0f40a0	0.13989496
10	0xbe1121fd	-0.14173122
11	0x3bde9e17	0.006793748
12	0xbdf48dc8	-0.11941105
13	0xbcf5c593	-0.030001437
14	0x3d911ab2	0.0708517
15	0x3dda8ed1	0.10671771
16	0xbe10b4a8	-0.14131415
17	0xbe0cab46	-0.1373721
18	0x3d2faa59	0.042887066
19	0xbc589c61	-0.013220877
20	0xbdd4adae	-0.10384689
21	0xbe13452f	-0.1438186
22	0x3dc1f440	0.09470415
23	0x3d118007	0.035522487
24	0x3dd931ec	0.10605225
25	0x3b58c221	0.0033074694
26	0x3d4550d3	0.048172783
27	0x3cc420ac	0.02394136
28	0xbd743c2e	-0.059627704
29	0x3c9a091e	0.018803176
30	0xbc8c840b	-0.017152807
31	0xbe14ba31	-0.14524151
32	0x3e05353a	0.13008586
33	0xbe1e864e	-0.1548092
34	0xbdeaec6e	-0.11470877
35	0xbc6142d4	-0.013748843
36	0x3e151a35	0.14560778
37	0xbe186a2d	-0.14884253
38	0x3ca05de7	0.019576026
39	0xbbd556ab	-0.006510576
40	0xbd929917	-0.07158106
41	0x3d7e9b55	0.062159855
42	0xbe11cc21	-0.14238025
43	0x3b00d603	0.001965881
44	0xbe26d782	-0.16293147
45	0xbe0da014	-0.13830596
46	0xbddcb788	-0.10777193
47	0xbe29ab03	-0.16569142
48	0x3da98527	0.0827735
49	0xbe098051	-0.13427855
50	0x3c803d32	0.01565418
51	0xbdbfccc6	-0.09365229
52	0xbe2a405a	-0.1662611
53	0x3e0cb740	0.1374178
54	0x3e1baaab	0.15201823
55	0xbdd11d12	-0.10210623
56	0xbe0c4e1e	-0.13701674
57	0x3de3712d	0.11105571
58	0x3e1c0141	0.15234853
59	0x3dd62a30	0.104572654
60	0xbda65153	-0.0812098
61	0xbe033b07	-0.12815486
62	0x3c9991f5	0.018746356
63	0x3e080d33	0.13286285
64	0xbe2a4b1d	-0.16630216
65	0x3d1fe2a4	0.0390345
66	0xbe037a87	-0.12839709
67	0xbdce70d7	-0.10080116
68	0x3db37817	0.0876314
69	0x3bfe3f22	0.007758991
70	0x3e242746	0.16030607
71	0x3d2d92a8	0.04237619
72	0xbd05da17	-0.03267869
73	0x3e0cbe23	0.13744406
74	0x3de23568	0.11045343
75	0xbe0d018a	-0.13770118
76	0xbe05463c	-0.13015074
77	0x3e0c644a	0.13710132
78	0x3d25ea89	0.040506873
79	0x3df2d7c1	0.11857558
80	0xbe0d1351	-0.137769
81	0x3d6c64f8	0.05771348
82	0xbdb235cb	-0.087016664
83	0xbe1c4714	-0.15261489
84	0x3d8d846a	0.069100216
85	0x3de25d9c	0.11053011
86	0x3e2980ec	0.16553086
87	0x3e28c2c4	0.16480547
88	0xbe1a4fb1	-0.15069462
89	0x3de1999a	0.11015625
90	0x3e1580e9	0.14599957
91	0xbe1c7395	-0.15278466
92	0x3e22d233	0.15900497
93	0x3e215744	0.15755945
94	0x3e2406b1	0.16018178
95	0xbe19b4e0	-0.15010405
96	0x3de56e1b	0.112026416
97	0x3d19ff6a	0.037597097
98	0x3c406255	0.011742194
99	0x3dc3aca0	0.0955441
100	0xbd90efde	-0.07077001
101	0xbd0d8bef	-0.03455728
102	0xbb83873c	-0.004013924
103	0xbe324038	-0.1740731
104	0xbe14074b	-0.14455907
105	0xbe1e31c8	-0.15448678
106	0xbe0a5d23	-0.13512091
107	0xbd8e0c0f	-0.06935894
108	0x3de410d0	0.11136019
109	0xbe319bb9	-0.1734456
110	0x3e181ad9	0.14853992
111	0xbadfe5aa	-0.0017081995
112	0xbe10f9ef	-0.14157842
113	0x3dd95cb6	0.10613386
114	0x3dfbabad	0.12288604
115	0xbe11c58e	-0.14235517
116	0x3e186860	0.14883566
117	0xbdb14bcf	-0.086570375
118	0x3d4e3f65	0.050353426
119	0x3d3e0508	0.046391517
120	0xbc0e17b2	-0.008672642
121	0xbe138cb3	-0.14409141
122	0x3de5e8b8	0.11226028
123	0xbe1c180a	-0.15243545
124	0xbdcfd2e0	-0.10147643
125	0xbc1a4098	-0.009414814
126	0x3d42e68e	0.047583155
127	0x3e1b0398	0.1513809
128	0xbbf122ec	-0.0073588993
129	0xbd02c1df	-0.03192317
130	0xbdeebd31	-0.11657179
131	0x3e228a69	0.15873112
132	0xbe280ec4	-0.16411883
133	0xbd8d5882	-0.06901647
134	0xbda7c07f	-0.081910126
135	0xbe1e0e2e	-0.15435097
136	0x3d898cc1	0.067163
137	0x3dcaa301	0.09894372
138	0x3e083e0a	0.13304916
139	0xbc6d3533	-0.014478016
140	0xbe2d1803	-0.16903691
141	0x3dc8ddf6	0.09807961
142	0xbe2a72aa	-0.16645303
143	0xbdd1a7e9	-0.102371044
144	0x3d82bb7b	0.06383415
145	0x3d9c5341	0.07633067
146	0x3d2f9946	0.042870782
147	0xbdd9d1ba	-0.10635705
148	0xbdbdba0f	-0.092640035
149	0x3c952367	0.018205358
150	0x3da230ce	0.07919465
151	0xbc1ccd53	-0.0095704375
152	0xbdc0d7ba	-0.094161466
153	0x3d8337c3	0.0640712
154	0x3d6f6f4e	0.058455758
155	0xbd6e7ac9	-0.058222566
156	0xbb7b2a68	-0.0038324837
157	0x3cd5d629	0.026103096
158	0xbdb114a4	-0.08646515
159	0xbd33c0cb	-0.043885034
160	0xbd7e2c72	-0.062054105
161	0xbc406a67	-0.011744118
162	0xbdd8709d	-0.10568354
163	0xbdea9e72	-0.11456002
164	0xbdddf2f3	-0.108373545
165	0x3cfbcd1a	0.030737448
166	0x3b93495d	0.0044948296
167	0xbd5d0390	-0.053958476
168	0xba9f838d	-0.0012169942
169	0x3d34069e	0.043951623
170	0x3d5734de	0.052540652
171	0x3c3344ef	0.010941728
172	0xbd391e70	-0.045195043
173	0xbdc9dac8	-0.09856182
174	0xbda65b9f	-0.08122944
175	0xbcc8fb4a	-0.024533886
176	0xbe05c4f1	-0.13063408
177	0xbcaaab13	-0.020833528
178	0xbded1465	-0.115761556
179	0xbe26edc0	-0.16301632
180	0x3d93ed3a	0.07222982
181	0xbcddce08	-0.027075782
182	0xbd37dca4	-0.044888154
183	0x3da32049	0.07965142
184	0xbce79b79	-0.028272377
185	0xbd1d9aab	-0.03847758
186	0x3e3241d8	0.1740793
187	0x3d9d4431	0.07679022
188	0xbe0f6d13	-0.14006452
189	0x3dffd8cb	0.12492522
190	0xbdbb831f	-0.09155869
191	0xbd234e91	-0.03986985
192	0x3da8b420	0.08237481
193	0x3e28cc38	0.16484153
194	0xbe0dbc27	-0.13841306
195	0xbdd96b4a	-0.10616167
196	0xbe1babe7	-0.15202294
197	0xbe28e3b8	-0.16493118
198	0xbe230c74	-0.15922719
199	0xbe085e8b	-0.13317315
200	0x3d1d3ea2	0.03838981
201	0x3d8ab62e	0.06773029
202	0x3e0b773a	0.136197
203	0x3de94841	0.113907345
204	0xbe117dd4	-0.14208156
205	0x3b964c4e	0.004586733
206	0xbe21fc54	-0.15818912
207	0x3e1d0ead	0.1533763
208	0xbd074989	-0.033029113
209	0x3d8177a2	0.06321646
210	0xbde15edc	-0.11004421
211	0x3e160ec1	0.14654066
212	0xbe06bb74	-0.13157445
213	0x3d742e20	0.0596143
214	0xbd0ed5b1	-0.03487176
215	0xbca97599	-0.020685958
216	0xbd24f210	-0.04026991
217	0x3dd3f52f	0.103494994
218	0x3d2d350e	0.042286925
219	0x3dc22b41	0.09480906
220	0xbd76ead5	-0.060282547
221	0xbdc4e1cd	-0.096133806
222	0x3de80508	0.11329085
223	0xbe026d24	-0.12736946
224	0xbdbd8818	-0.092544734
225	0xbd1c83d9	-0.038211677
226	0xbe086049	-0.1331798
227	0x3df3c80b	0.119033895
228	0x3e1a220f	0.15052055
229	0xbdab90fa	-0.083772615
230	0xbdf4f029	-0.119598694
231	0x3c9e5dbf	0.019331811
232	0x3dc96d1e	0.098352656
233	0x3dfbaecf	0.122892015
234	0xbd894789	-0.067030974
235	0xbb928c9d	-0.004472329
236	0xbda6ef8c	-0.08151159
237	0xbe2cfb4b	-0.16892736
238	0xbcda0032	-0.026611421
239	0xbd504ba5	-0.05085339
240	0x3dde464a	0.1085325
241	0x3dfab342	0.12241222
242	0xbe0384af	-0.12843584
243	0x3d7164c1	0.058933977
244	0xbdfeffd0	-0.12451136
245	0xbdc61342	-0.09671642
246	0x3e0ee0ab	0.13952892
247	0xbd4a5656	-0.049398743
248	0x3dd308c8	0.10304409
249	0xbe298f68	-0.16558611
250	0xbe20dacc	-0.15708464
251	0x3cb697a9	0.022289114
252	0xbe23790c	-0.15964144
253	0x3df629a5	0.12019662
254	0x3e0a0fff	0.13482665
255	0xbde9461e	-0.11390327

bn1.running_var f4 [400]
0	0x3d084bd2	0.033275433
1	0x3d006d73	0.03135438
2	0x3ce42456	0.027849358
3	0x3c0f0a09	0.00873042
4	0x3cce0dc2	0.025153045
5	0x3cd464bc	0.02592694
6	0x3c8ff46e	0.017572608
7	0x3ca8e41b	0.020616582
8	0x3ccb2d7b	0.02480196
9	0x3cc69840	0.02424252
10	0x3c5e130c	0.013554346
11	0x3c0fbb52	0.008772688
12	0x3bff27db	0.0077867336
13	0x3ce4d783	0.027934795
14	0x3c9d951a	0.019236136
15	0x3c0d02a5	0.008606588
16	0x3c76fd07	0.015074975
17	0x3c6d967e	0.014501212
18	0x3c37b4ff	0.011212586
19	0x3d5f202e	0.05447405
20	0x3bcb35ee	0.0062014973
21	0x3d22bace	0.039728932
22	0x3c908296	0.017640393
23	0x3d049332	0.03236694
24	0x3d0213a8	0.031757027
25	0x3d5a0c0a	0.053234138
26	0x3d05ab6d	0.032634187
27	0x3d16fb5a	0.0368608
28	0x3ca7131f	0.02039486
29	0x3c8adfa6	0.016952347
30	0x3c56f918	0.013120912
31	0x3c683549	0.01417286
32	0x3c844d3d	0.016150111
33	0x3c35209a	0.011055136
34	0x3cdeacb0	0.027181953
35	0x3d188e61	0.037245158
36	0x3d2a623b	0.041597586
37	0x3d1b67bc	0.037940726
38	0x3cd28767	0.02569933
39	0x3cb5a322	0.022172514
40	0x3cbecaa0	0.023289979
41	0x3cf4176d	0.029796327
42	0x3d06fefc	0.032958016
43	0x3c8eb487	0.017420067
44	0x3d2addd0	0.041715443
45	0x3d23919d	0.03993379
46	0x3d11b92d	0.035576988
47	0x3ca601fb	0.020264616
48	0x3c844f7d	0.016151184
49	0x3cef1414	0.029184379
50	0x3ca5ffeb	0.020263633
51	0x3cbbb2ef	0.02291247
52	0x3d4158ed	0.047203947
53	0x3b903634	0.0044009928
54	0x3cc0e33d	0.023545856
55	0x3cfda725	0.03096349
56	0x3d248720	0.040167928
57	0x3cc8976d	0.024486268
58	0x3c873237	0.016503436
59	0x3c205ca4	0.009787712
60	0x3c8afc3d	0.01696598
61	0x3c32cb10	0.010912672
62	0x3d1af8fa	0.0378351
63	0x3d08f09b	0.033432584
64	0x3d103720	0.03520882
65	0x3ce194ee	0.027536836
66	0x3cefdd28	0.02928026
67	0x3d255625	0.040365357
68	0x3d07944f	0.033100422
69	0x3c45fc42	0.012084069
70	0x3c990b43	0.018682128
71	0x3d2e893a	0.04261134
72	0x3c7c6027	0.015403784
73	0x3c383339	0.011242681
74	0x3cb090fc	0.021553509
75	0x3c4cd923	0.012502941
76	0x3cc73e10	0.024321586
77	0x3cf6d864	0.03013248
78	0x3ce3744d	0.027765417
79	0x3c8eeff5	0.017448405
80	0x3cf5da99	0.030011462
81	0x3d0add88	0.033902675
82	0x3cfcb7b9	0.030849325
83	0x3c91c98c	0.0177963
84	0x3c906b48	0.01762928
85	0x3c821d57	0.015883131
86	0x3c9b14dc	0.018930845
87	0x3d56f891	0.052483145
88	0x3ca63320	0.02028805
89	0x3c71b272	0.014752017
90	0x3bdc8949	0.006730233
91	0x3cc9be40	0.024626851
92	0x3c7e06ca	0.015504548
93	0x3cb7a812	0.02241901
94	0x3d21aaa2	0.03946937
95	0x3c2e4cc3	0.010638419
96	0x3c8a5696	0.01688699
97	0x3c386892	0.0112554
98	0x3c2989e0	0.010347813
99	0x3ce61531	0.028086277
100	0x3c77366b	0.015088658
101	0x3c4d4281	0.012528063
102	0x3d4c6147	0.04989746
103	0x3cc2bcec	0.023771726
104	0x3d307e63	0.04308928
105	0x3c73ff6d	0.014892441
106	0x3d4ef129	0.050522957
107	0x3d035107	0.032059696
108	0x3c386f98	0.011257075
109	0x3d8511a9	0.06497509
110	0x3ceb6950	0.02873674
111	0x3cf0cd42	0.02939475
112	0x3cda522a	0.026650507
113	0x3ccfd414	0.025369681
114	0x3ca7b14c	0.020470284
115	0x3c7f5a47	0.015585489
116	0x3c455595	0.01204433
117	0x3b96b242	0.0045988867
118	0x3c6bedd4	0.014399964
119	0x3c6bdc25	0.014395748
120	0x3c7199be	0.014746128
121	0x3d0f5576	0.03499361
122	0x3d2b2142	0.041779764
123	0x3cd1d4be	0.025614139
124	0x3c87dcb0	0.016584724
125	0x3c7eea3d	0.015558776
126	0x3c4047d6	0.011735877
127	0x3cdbe3c2	0.026842002
128	0x3cabbe27	0.020964695
129	0x3cff3589	0.031153457
130	0x3d470d9a	0.048596956
131	0x3c994cb4	0.018713333
132	0x3c46325b	0.012096967
133	0x3c8aa867	0.016926004
134	0x3cf80da5	0.030279944
135	0x3cd0331c	0.025414996
136	0x3d6157ce	0.055015378
137	0x3d1a3f1c	0.037657842
138	0x3c218101	0.009857417
139	0x3cbf71f9	0.023369776
140	0x3c96b65b	0.0183975
141	0x3cbf30a4	0.023338623
142	0x3ce803df	0.028322158
143	0x3d545503	0.051838886
144	0x3cc6c9a4	0.024266072
145	0x3cb7c601	0.022433283
146	0x3cd4afb9	0.025962697
147	0x3d1fbbe1	0.038997535
148	0x3c353b82	0.011061551
149	0x3d06c8ea	0.03290645
150	0x3cf62b33	0.030049896
151	0x3d323989	0.0435119
152	0x3b84bd17	0.0040508616
153	0x3cce8f64	0.025214858
154	0x3cb2161f	0.021739064
155	0x3cfe0e97	0.031012816
156	0x3cab3915	0.020901242
157	0x3cb796f6	0.022410851
158	0x3c8c18d0	0.017101675
159	0x3cd207e3	0.025638526
160	0x3caefd03	0.02136088
161	0x3ce27cc7	0.02764739
162	0x3ca1f93b	0.019772163
163	0x3c8f62a6	0.017503094
164	0x3d23a7a2	0.03995479
165	0x3c972f3a	0.018455137
166	0x3c9bdee1	0.019027175
167	0x3cf73e94	0.030181207
168	0x3d30f36b	0.04320089
169	0x3ce57c9b	0.028013518
170	0x3bf1341c	0.0073609482
171	0x3c8a135b	0.016854933
172	0x3cb665a8	0.02226527
173	0x3cfe9197	0.031075282
174	0x3cb5e988	0.022206083
175	0x3c66bc52	0.014082985
176	0x3cc5b17d	0.024132485
177	0x3cacbec3	0.021087056
178	0x3ba6a7cc	0.005085921
179	0x3c8806ac	0.016604744
180	0x3c87957e	0.016550776
181	0x3c927794	0.017879285
182	0x3d3cc639	0.046087477
183	0x3d2f2c78	0.042767018
184	0x3cc40101	0.02392626
185	0x3c70c5e8	0.014695622
186	0x3d31a847	0.043373372
187	0x3cb30fe6	0.021858167
188	0x3d1c1ef9	0.038115475
189	0x3c9a8c2c	0.018865667
190	0x3ce22e01	0.027609827
191	0x3cae81da	0.021302152
192	0x3c4e7827	0.012601889
193	0x3c31ad23	0.010844502
194	0x3cd5a028	0.026077345
195	0x3cb51fe3	0.022109931
196	0x3c940b39	0.018071758
197	0x3cc8a857	0.024494333
198	0x3d127aba	0.035761572
199	0x3c84952c	0.016184412
200	0x3c6c25ca	0.0144133065
201	0x3c91cb78	0.017797217
202	0x3d4423aa	0.047885574
203	0x3cadbfad	0.021209562
204	0x3e0121c6	0.1261054
205	0x3c9e5e39	0.019332038
206	0x3d03e280	0.03219843
207	0x3c86e9fb	0.016468992
208	0x3cde3d07	0.02712871
209	0x3cbcf603	0.023066526
210	0x3cd912e5	0.026498267
211	0x3caa32d0	0.020776182
212	0x3c982be5	0.018575618
213	0x3c4ae075	0.012382616
214	0x3d1b431a	0.03790579
215	0x3cac2bea	0.021017034
216	0x3cd74183	0.026276356
217	0x3c503005	0.012706761
218	0x3c687509	0.01418806
219	0x3cbde0a1	0.0231784
220	0x3c6bcb02	0.014391663
221	0x3c3295d4	0.01089998
222	0x3c86a973	0.016438222
223	0x3c89b470	0.016809672
224	0x3cb068ad	0.021534288
225	0x3cd4acb1	0.025961252
226	0x3cda3496	0.026636403
227	0x3cc40a12	0.023930583
228	0x3bb3e4af	0.0054899077
229	0x3c92968a	0.017894048
230	0x3c4ca186	0.012489682
231	0x3caef4a5	0.02135689
232	0x3c92f67c	0.017939799
233	0x3c2c4a96	0.01051583
234	0x3cd80d4a	0.026373524
235	0x3cbe2c4e	0.023214485
236	0x3d1119fc	0.03542517
237	0x3d3dac3b	0.04630683
238	0x3cd165d8	0.025561258
239	0x3c9628c7	0.018329991
240	0x3c8d5d67	0.017256452
241	0x3c2e4a49	0.010637828
242	0x3c3627c3	0.011117878
243	0x3cc613f5	0.024179438
244	0x3c326873	0.01088916
245	0x3cf2849f	0.029604254
246	0x3d06cfe9	0.032913122
247	0x3ceefd0c	0.029173397
248	0x3c803d1c	0.01565414
249	0x3c7d6d9d	0.015468028
250	0x3cac3385	0.02102066
251	0x3cbbae52	0.02291027
252	0x3d1b780e	0.03795629
253	0x3d07fb78	0.033198804
254	0x3cef9fa1	0.029250922
255	0x3d20f99e	0.039300554
