checkpoint_critic_DDPG.pth (torch_old, 550584 bytes, 13 tensors)

bn0.weight f4 [33]
0	0x3f1d5ca8	0.6146951
1	0x3ec3141e	0.38101286
2	0x3f2319ed	0.63711435
3	0x3ef2ec90	0.47446108
4	0x3f36ae16	0.71359384
5	0x3f1e792b	0.6190364
6	0x3ee293a4	0.44253266
7	0x3dc42258	0.09576863
8	0x3f1d3968	0.6141572
9	0x3d6ad070	0.057327688
10	0x3f10d2a2	0.565714
11	0x3f0881b1	0.53322893
12	0x3ec7b4be	0.39005083
13	0x3f68aa4b	0.90884846
14	0x3f088ad5	0.5333684
15	0x3f35142f	0.7073392
16	0x3f362b3f	0.7115974
17	0x3e51f47c	0.2050342
18	0x3e9d95b4	0.30778277
19	0x3f7b1994	0.98085904
20	0x3c281f00	0.010261297
21	0x3eee9ce8	0.46604085
22	0x3eebb64a	0.46037513
23	0x3f5acaa7	0.8546547
24	0x3ee7a986	0.45246524
25	0x3f21b466	0.6316589
26	0x3ef3b608	0.47599816
27	0x3e614ea8	0.22002661
28	0x3e5dcdac	0.21660489
29	0x3e83a066	0.25708312
30	0x3d3b9670	0.045797765
31	0x3e33b898	0.17550886
32	0x3f1e1fea	0.61767447

bn0.bias f4 [33]
0	0x00000000	0.0
1	0x00000000	0.0
2	0x00000000	0.0
3	0x00000000	0.0
4	0x00000000	0.0
5	0x00000000	0.0
6	0x00000000	0.0
7	0x00000000	0.0
8	0x00000000	0.0
9	0x00000000	0.0
10	0x00000000	0.0
11	0x00000000	0.0
12	0x00000000	0.0
13	0x00000000	0.0
14	0x00000000	0.0
15	0x00000000	0.0
16	0x00000000	0.0
17	0x00000000	0.0
18	0x00000000	0.0
19	0x00000000	0.0
20	0x00000000	0.0
21	0x00000000	0.0
22	0x00000000	0.0
23	0x00000000	0.0
24	0x00000000	0.0
25	0x00000000	0.0
26	0x00000000	0.0
27	0x00000000	0.0
28	0x00000000	0.0
29	0x00000000	0.0
30	0x00000000	0.0
31	0x00000000	0.0
32	0x00000000	0.0

bn0.running_mean f4 [33]
0	0x3f6c2f18	0.9225936
1	0xc014dec4	-2.3260965
2	0xbf5e21d1	-0.8677035
3	0x3f2e23a4	0.68023133
4	0x3db4339c	0.08798906
5	0x39af8514	0.00033477752
6	0xbde17bc5	-0.11009935
7	0x3d5cc2ad	0.053896595
8	0xbb9ea5ac	-0.004841527
9	0x3d15891e	0.03650772
10	0x3ccd6782	0.02507377
11	0x3db86973	0.09004488
12	0xbd0f07f8	-0.03491971
13	0x3f6f0166	0.9336151
14	0xc04aadff	-3.1668699
15	0xbf996bba	-1.1986
16	0xbd9fb7f3	-0.077987574
17	0x3e7ddd85	0.24791534
18	0x3d9f00d8	0.07763833
19	0x3d3222dd	0.04349028
20	0x3e280951	0.16409804
21	0xbc15c106	-0.009140259
22	0x3e7c65b7	0.24648176
23	0xbdb84699	-0.089978404
24	0x3e798bbb	0.24369709
25	0xbc61fc7a	-0.013793105
26	0xbe0c86dd	-0.13723321
27	0xbf7ffffc	-0.99999976
28	0x3d2ce848	0.04221371
29	0x00000000	0.0
30	0x3f7ffffc	0.99999976
31	0x00000000	0.0
32	0xbd14405d	-0.036194194

bn0.running_var f4 [33]
0	0x40573760	3.3627548
1	0x3fca3e8e	1.580034
2	0x40831e75	4.097468
3	0x3e7d8232	0.24756697
4	0x3d8cdcc3	0.068780445
5	0x3da62ae6	0.08113651
6	0x3df47cc1	0.119378574
7	0x3f377688	0.7166524
8	0x3dcba140	0.09942865
9	0x3e29fa3b	0.16599362
10	0x404fbf10	3.2460365
11	0x40583953	3.3784988
12	0x4074eb66	3.8268676
13	0x418170c5	16.180063
14	0x40ae7b7b	5.4525733
15	0x41998828	19.191483
16	0x3e355742	0.17709067
17	0x3e900e39	0.2813585
18	0x3e22d430	0.15901256
19	0x3e9df81d	0.30853358
20	0x4083802b	4.1093955
21	0x3f67e724	0.9058707
22	0x3fad1456	1.3521831
23	0x415727b9	13.447198
24	0x4195e9ce	18.739162
25	0x4179b88d	15.607556
26	0x41f4a2a6	30.579418
27	0x00000004	6e-45
28	0x4204dff9	33.218723
29	0x00000004	6e-45
30	0x00000004	6e-45
31	0x00000004	6e-45
32	0x3eb107c7	0.34576246

fcs1.weight f4 [400, 33]
0	0x3d308fff	0.043106075
1	0x3cee8676	0.02911685
2	0x3d6a6e7e	0.05723428
3	0xbde31548	-0.110880435
4	0x3c05f4e5	0.008176063
5	0xbeac188f	-0.33612487
6	0xbcf074b0	-0.029352516
7	0xbd23aca7	-0.039959576
8	0xbdfa2d1c	-0.12215635
9	0x3cb8d3f4	0.022562005
10	0xbc34b58e	-0.011029614
11	0x3ca8f900	0.020626545
12	0xbca00f7b	-0.019538632
13	0x3c836d69	0.016043382
14	0x3d1aa0ff	0.037751194
15	0xbdbcb1a8	-0.09213573
16	0x3caf43e6	0.021394681
17	0xbbf18104	-0.007370116
18	0xbdffa6b4	-0.12482968
19	0xbe0cda29	-0.13755096
20	0xbc982be9	-0.018575625
21	0x3d28ccb3	0.04121084
22	0xbce78033	-0.028259372
23	0x3d22124b	0.039568227
24	0x3d01b159	0.031663273
25	0x3c879022	0.01654822
26	0x3ac0c282	0.0014706405
27	0xbcaf444c	-0.021394871
28	0x3d717bbb	0.05895589
29	0x3c0a4778	0.008439891
30	0xbaa549e0	-0.0012610517
31	0xbd269d10	-0.04067713
32	0x3ea3389d	0.3187913
33	0x39761fc3	0.0002347222
34	0xbe0863f6	-0.13319382
35	0x3d21dbf1	0.039516393
36	0xbc617eee	-0.013763173
37	0x3cddbe4c	0.02706828
38	0xbdbab44f	-0.091164224
39	0xbd10b7b0	-0.035331428
40	0x3ba7d620	0.0051219612
41	0xbdaa1006	-0.083038375
42	0x3c5ac90d	0.013353598
43	0xbca1c5be	-0.019747611
44	0x3bba70f6	0.0056897355
45	0xbbbe5412	-0.005808362
46	0x3dba43a6	0.09094934
47	0x3e1c107d	0.15240665
48	0xbd8202f3	-0.06348219
49	0xbd8410cf	-0.064485185
50	0xbd9b37da	-0.07579012
51	0xbe02f402	-0.12788394
52	0x3ad1788b	0.0015981359
53	0xbc9d8db8	-0.019232616
54	0xbd2af3b1	-0.04173631
55	0x3cce02f3	0.02514789
56	0x3ccfe05c	0.025375538
57	0x3a9ab930	0.0011804458
58	0x3d2d682d	0.042335678
59	0xbd73e292	-0.059542246
60	0x3bf3f364	0.007444786
61	0x3d0dd197	0.03462371
62	0xbd1cacd8	-0.038250774
63	0x3d400bf0	0.046886384
64	0x3ce7529e	0.028237637
65	0x3e65bec2	0.2243605
66	0x3dc2bc06	0.09508519
67	0x3c114c53	0.008868295
68	0x3e06dee0	0.13170958
69	0x3d9072b2	0.070531264
70	0xbe016640	-0.12636662
71	0xb860eda8	-5.3627096e-05
72	0x3e17a6de	0.14809749
73	0x3d27f443	0.04100443
74	0x3da2a786	0.07942109
75	0xbd8df4c0	-0.06931448
76	0xbc750ea0	-0.0149571
77	0xbbd7be7f	-0.006583988
78	0x3baf3da1	0.005347923
79	0xbd57a1b5	-0.05264445
80	0x3a64eb2b	0.00087325525
81	0xbba5c625	-0.005059021
82	0xbde97855	-0.11399905
83	0x3ceb695e	0.028736766
84	0x3ceb5dc5	0.028731236
85	0x3d0a3b67	0.033748057
86	0xbc6c201c	-0.014411952
87	0x3d49388f	0.049126204
88	0x3dd7118c	0.10501394
89	0x3cdef7b7	0.027217729
90	0xbc8a1910	-0.016857654
91	0xbc4e4143	-0.012588802
92	0x3e2978ba	0.1654996
93	0x3ce7690a	0.028248329
94	0x3d5d5149	0.054032598
95	0x3d2ae4e9	0.041722212
96	0xbd111e48	-0.03542927
97	0x3cb80692	0.02246407
98	0x3dcd5046	0.100250766
99	0xbdb8b310	-0.090185285
100	0x3d19058e	0.037358813
101	0xbd7df976	-0.062005483
102	0xbe202e5d	-0.15642686
103	0x3da94d63	0.082667135
104	0x3c5a4fc6	0.0133246835
105	0xbdabb4db	-0.08384105
106	0x3b1ddd7e	0.0024088318
107	0xbcf871c1	-0.03032768
108	0x3e2eb6d8	0.17061937
109	0xbd8e0fe4	-0.06936625
110	0x3ca3e381	0.020005943
111	0xbd3541ba	-0.044252135
112	0xbc898cad	-0.016790712
113	0x3d8a765c	0.067608565
114	0xbc8ea6f1	-0.017413588
115	0xbd2145f4	-0.039373353
116	0xbdab3b14	-0.08360878
117	0xbe1fc4c3	-0.15602402
118	0x3c833cb3	0.016020155
119	0xbaca2b93	-0.0015424363
120	0x3d214867	0.03937569
121	0xbd3a317b	-0.045457345
122	0x3caa1593	0.02076224
123	0x3cb65f71	0.022262307
124	0xbcc0aa35	-0.023518661
125	0x3c895970	0.01676628
126	0x3c893962	0.016750995
127	0x3da47045	0.08029226
128	0x3d3dd0e7	0.046341803
129	0xbc4ef8e1	-0.01263258
130	0xbccb61b0	-0.024826854
131	0xbed42e65	-0.41441646
132	0xbc2efe3c	-0.010680731
133	0x3d12b700	0.035819054
134	0xbd7a5eaf	-0.061125454
135	0xbebb2321	-0.3655024
136	0xbbe82116	-0.0070840223
137	0x3d8b2b59	0.06795377
138	0x3ce5ac9c	0.028036408
139	0x3d0c0ea3	0.034193646
140	0x3d2f8ba3	0.042857777
141	0x3e8f9cd1	0.2804933
142	0x3cc44a94	0.023961343
143	0x3cd732be	0.026269313
144	0xbd22ca34	-0.039743617
145	0x3d150732	0.036383815
146	0x3c01c1ef	0.0079197725
147	0xbcbd7dff	-0.023131369
148	0xbebeed15	-0.37290254
149	0x3c99dfdd	0.018783504
150	0x3d69a96c	0.05704634
151	0xbca16044	-0.019699223
152	0x3aee52cd	0.0018182636
153	0xbc5ce271	-0.013481722
154	0xba7d9321	-0.0009673108
155	0x3d824e8e	0.06362639
156	0xbc062416	-0.0081873145
157	0x3bb55e07	0.0055348906
158	0xbc263933	-0.010145473
159	0x3c1ddccd	0.009635163
160	0x3d046f12	0.032332487
161	0xbd2ad45a	-0.04170642
162	0xbc382f01	-0.011241675
163	0xbb941c80	-0.004519999
164	0xbbf92b70	-0.007604055
165	0xbd609262	-0.0548271
166	0x3c653433	0.013989496
167	0x3c150152	0.009094553
168	0x3e725db9	0.23668565
169	0x3d986638	0.07441372
170	0xbd35e545	-0.0444081
171	0xbd7ad6da	-0.061240055
172	0x3ce1d057	0.027565164
173	0xbe493158	-0.1964773
174	0xbe05ee9e	-0.13079306
175	0x3cbc05e2	0.022952024
176	0xbc2c26e5	-0.01050732
177	0xbc9460a6	-0.018112492
178	0xbc5c365e	-0.0134406965
179	0x3c1d33fc	0.009594914
180	0x3cd0e7f5	0.02550123
181	0xbd5e4a46	-0.05427005
182	0xbe91db56	-0.28487653
183	0xbd936843	-0.07197621
184	0x3db7c2c2	0.08972694
185	0x3d2a3d81	0.04156256
186	0xbcd4b921	-0.025967183
187	0xbce48e83	-0.027899986
188	0xbcee73e8	-0.029108003
189	0xbd1dbc8f	-0.0385099
190	0xbcaec7e7	-0.021335555
191	0x3d9da6a9	0.076978035
192	0xbcba2c14	-0.022726096
193	0xbdc11f84	-0.09429839
194	0x3c1a8fc8	0.009433694
195	0x3d1543db	0.036441665
196	0x3ceab846	0.028652322
197	0x3e58b63a	0.21163264
198	0xbc816019	-0.015792893
199	0xbdec326e	-0.11533056
200	0xbda5d108	-0.0809651
201	0xbb1b4630	-0.0023692958
202	0x3e361c45	0.17784221
203	0xbbe1ecac	-0.0068946686
204	0x3e9119f3	0.2834011
205	0x3d3cc124	0.04608263
206	0x3d6edd5f	0.058316585
207	0x3dbb533c	0.09146735
208	0xbd182c55	-0.037151653
209	0xbd06cabe	-0.032908194
210	0xbd2d2ef1	-0.042281095
211	0x3d089cac	0.03335254
212	0xbd60847c	-0.054813847
213	0xbd1da2a0	-0.03848517
214	0xbd98c9b2	-0.07460345
215	0xbd64fe67	-0.05590668
216	0x3df28127	0.1184104
217	0xbe75d373	-0.24006443
218	0x3d809707	0.06278806
219	0xbd209011	-0.039199892
220	0x3d63caee	0.05561345
221	0x3cb7dd11	0.02244428
222	0xbc8560eb	-0.016281566
223	0x3d34b16f	0.044114526
224	0x3d359458	0.044330925
225	0x3c5deb1e	0.013544826
226	0x3d2665a8	0.04062429
227	0x3ccfcca2	0.025366131
228	0xbd25e51f	-0.04050171
229	0x3c76e8dc	0.015070166
230	0x3e9c00fc	0.304695
231	0xbd573c22	-0.05254758
232	0x3ca30f3c	0.019904725
233	0xbcaea1bd	-0.021317357
234	0x3d1b6080	0.037933826
235	0xbca1a71b	-0.019733002
236	0xbcdaac05	-0.026693353
237	0x3dc343aa	0.0953439
238	0x3af165cd	0.001841718
239	0xbd2306fb	-0.03980158
240	0x3bace083	0.0052757873
241	0x3d82b3a5	0.06381921
242	0x3ba2ba43	0.004966052
243	0xbd2c797c	-0.042108044
244	0xbd85b330	-0.06528318
245	0xbd970aa9	-0.0737508
246	0x3d061082	0.032730587
247	0xbde8386e	-0.11338888
248	0x3dd3fdd9	0.10351152
249	0x3dc59ce6	0.096490666
250	0x3daf3ad2	0.08556141
251	0xbd333d55	-0.043759663
252	0x3c91a87a	0.017780531
253	0xbcb32fbe	-0.021873351
254	0x3caf99a6	0.02143557
255	0x3cca32b3	0.024682378

fcs1.bias f4 [400]
0	0x3ac92ac4	0.0015347828
1	0x3e07cc8a	0.13261619
2	0xbd70b2f4	-0.058764413
3	0xbd1dc2bb	-0.038515788
4	0xbe0cd69b	-0.1375374
5	0x3df5749e	0.119851336
6	0xbd954045	-0.07287649
7	0xbd76ed63	-0.060284983
8	0xbe138ca3	-0.14409117
9	0x3e11e890	0.14248872
10	0xbe0fe953	-0.1405385
11	0x3bb51db3	0.005527222
12	0xbdf696cf	-0.12040483
13	0xbcff56a1	-0.031169238
14	0x3d93a7ae	0.07209717
15	0x3ddb1266	0.106968686
16	0xbe0ffda0	-0.14061594
17	0xbe09fc91	-0.13475253
18	0x3d2ac099	0.04168758
19	0xbc528ae2	-0.012850495
20	0xbdd1c425	-0.1024249
21	0xbe14586e	-0.14486858
22	0x3dc29a79	0.095021196
23	0x3d12941a	0.035785772
24	0x3dda60b5	0.10662977
25	0x3b84ecb0	0.0040565357
26	0x3d45c687	0.048285034
27	0x3cc496f1	0.023997756
28	0xbd7a3ffe	-0.061096184
29	0x3c924058	0.017852947
30	0xbc78e6d1	-0.01519175
31	0xbe11a993	-0.14224844
32	0x3e060784	0.13088804
33	0xbe1db097	-0.15399395
34	0xbdeaa07f	-0.114563935
35	0xbc5deca8	-0.013545193
36	0x3e14a1f0	0.14514899
37	0xbe16c712	-0.14724377
38	0x3ca4ba31	0.020108314
39	0xbba2a217	-0.0049631703
40	0xbd91c9f6	-0.07118599
41	0x3d82774f	0.063704126
42	0xbe12bdbf	-0.14330195
43	0x3b134dfb	0.00224769
44	0xbe2550aa	-0.16144052
45	0xbe0d4af3	-0.13798122
46	0xbddc98ed	-0.10771356
47	0xbe273ab2	-0.16330984
48	0x3daa3b34	0.08312073
49	0xbe099097	-0.13434063
50	0x3c62d41e	0.013844518
51	0xbdbf0c78	-0.0932855
52	0xbe286fa3	-0.16448836
53	0x3e0603f8	0.13087451
54	0x3e1ca2eb	0.15296523
55	0xbdd22c8c	-0.10262403
56	0xbe0ca636	-0.1373528
57	0x3de880bc	0.11352679
58	0x3e1c49ce	0.15262529
59	0x3ddabd26	0.106806085
60	0xbda4a465	-0.08039168
61	0xbe01eaa9	-0.12687172
62	0x3c955c83	0.01823259
63	0x3e0a25ef	0.13491033
64	0xbe2d1cbf	-0.16905497
65	0x3d1c0733	0.038092803
66	0xbe065894	-0.13119727
67	0xbdcdfca2	-0.100579515
68	0x3db669f0	0.08906925
69	0x3c2023fc	0.009774204
70	0x3e25413b	0.16138165
71	0x3d334e60	0.043775916
72	0xbd0183ba	-0.031619765
73	0x3e0cba92	0.13743046
74	0x3de5768a	0.1120425
75	0xbe0e9194	-0.13922721
76	0xbe03e5f0	-0.12880683
77	0x3e0c13ee	0.13679478
78	0x3d27d0b2	0.04097051
79	0x3df196fb	0.11796375
80	0xbe0f792c	-0.14011067
81	0x3d73f040	0.059555292
82	0xbdb1b4de	-0.08677076
83	0xbe1cebe4	-0.1532436
84	0x3d90c234	0.07068291
85	0x3ddf2158	0.10895032
86	0x3e290ecc	0.16509551
87	0x3e269443	0.16267495
88	0xbe198e90	-0.1499579
89	0x3de13980	0.109972954
90	0x3e13b671	0.14425065
91	0xbe1b6221	-0.15174152
92	0x3e1def4b	0.15423314
93	0x3e1f778c	0.15572947
94	0x3e23d577	0.15999399
95	0xbe20053b	-0.15626995
96	0x3de3d4ca	0.11124571
97	0x3d1967b7	0.037452426
98	0x3c46dd00	0.012137651
99	0x3dc2aa5a	0.09505148
100	0xbd909d8a	-0.07061298
101	0xbd191d86	-0.03738167
102	0xbb9b43c2	-0.004738302
103	0xbe323447	-0.17402755
104	0xbe1426ad	-0.14467879
105	0xbe1f41fd	-0.15552516
106	0xbe09ca76	-0.13456139
107	0xbd8e9c6c	-0.06963429
108	0x3de6e2ae	0.112737045
109	0xbe328da1	-0.1743684
110	0x3e194f89	0.14971747
111	0xbb062296	-0.0020467392
112	0xbe0ebd54	-0.1393941
113	0x3dda6d50	0.10665381
114	0x3dfc8da7	0.123317055
115	0xbe136a08	-0.14395916
116	0x3e1b47ec	0.15164155
117	0xbdafcc98	-0.08583945
118	0x3d49f1c5	0.049302835
119	0x3d3cadc1	0.046064142
120	0xbc12861b	-0.008943106
121	0xbe161827	-0.14657651
122	0x3de3f796	0.11131208
123	0xbe1aecc8	-0.15129387
124	0xbdcb7206	-0.099338576
125	0xbc2fd661	-0.010732264
126	0x3d45bbf1	0.048274938
127	0x3e1bde9c	0.15221637
128	0xbbd29cfc	-0.0064274054
129	0xbd05ba90	-0.032648623
130	0xbdf09eda	-0.117490485
131	0x3e244fa7	0.1604601
132	0xbe2aacfe	-0.16667554
133	0xbd8e63c5	-0.06952623
134	0xbda65713	-0.08122077
135	0xbe1db352	-0.15400437
136	0x3d895d0c	0.067072004
137	0x3dc9e464	0.09858015
138	0x3e0b7ac3	0.13621049
139	0xbc7532aa	-0.014965693
140	0xbe31cc18	-0.17363012
141	0x3dc8615f	0.09784197
142	0xbe2af659	-0.16695537
143	0xbdd0700e	-0.10177623
144	0x3d7f923a	0.062395312
145	0x3d9cceb1	0.07656611
146	0x3d345a10	0.044031203
147	0xbdda1d6d	-0.10650144
148	0xbdbb5479	-0.09146971
149	0x3c8771d3	0.016533768
150	0x3da2ee8c	0.079556555
151	0xbc0fed5b	-0.008784617
152	0xbdc108c6	-0.094255015
153	0x3d844e4f	0.06460249
154	0x3d68f5b5	0.05687495
155	0xbd7491c6	-0.059709333
156	0xbb8552d0	-0.00406871
157	0x3cc8a938	0.024494752
158	0xbdae1349	-0.08499772
159	0xbd2f14ac	-0.042744324
160	0xbd819b85	-0.06328491
161	0xbc2d1f11	-0.010566489
162	0xbdd5a5e6	-0.10432033
163	0xbdeaaf30	-0.114591956
164	0xbde2fb45	-0.11083082
165	0x3d0630c2	0.032761343
166	0x3b8317d2	0.0040006423
167	0xbd5e46ee	-0.054266863
168	0xbaf4f488	-0.0018688599
169	0x3d328581	0.04358435
170	0x3d50fb4d	0.05102091
171	0x3c3cf8f6	0.011533966
172	0xbd36abad	-0.044597317
173	0xbdcdb506	-0.10044293
174	0xbda572cd	-0.08078537
175	0xbcbfae85	-0.023398647
176	0xbe049b8d	-0.12949963
177	0xbcb01bb6	-0.021497589
178	0xbde7f5a3	-0.11326148
179	0xbe2725a8	-0.16322958
180	0x3d948d5f	0.07253527
181	0xbce6ce2a	-0.028174479
182	0xbd3350a0	-0.043778062
183	0x3da1c9ba	0.078998044
184	0xbce801b8	-0.028321132
185	0xbd1badd1	-0.03800756
186	0x3e3118c8	0.1729461
187	0x3d9d1fe6	0.076721
188	0xbe116159	-0.14197291
189	0x3e026587	0.12734042
190	0xbdba0683	-0.09083273
191	0xbd1e3c91	-0.03863198
192	0x3da6bf2d	0.08141933
193	0x3e28aa3f	0.16471194
194	0xbe0f609e	-0.140017
195	0xbdd81538	-0.10550922
196	0xbe1bf5e1	-0.15230514
197	0xbe2760a2	-0.16345456
198	0xbe23f7f3	-0.16012554
199	0xbe0ad372	-0.13557222
200	0x3d1e2e27	0.038618233
201	0x3d8a2c9b	0.06746789
202	0x3e0c25c4	0.13686281
203	0x3de7a023	0.113098405
204	0xbe11f846	-0.14254865
205	0x3b7a6935	0.003820968
206	0xbe22704c	-0.1586315
207	0x3e1d7ded	0.15380068
208	0xbd03bef1	-0.032164518
209	0x3d81bb88	0.06334597
210	0xbde4eb43	-0.11177685
211	0x3e15c28c	0.14624995
212	0xbe038bd4	-0.12846309
213	0x3d69e819	0.05710611
214	0xbd07244c	-0.0329936
215	0xbcb032c4	-0.021508582
216	0xbd1f8fa9	-0.038955364
217	0x3dd41090	0.103547215
218	0x3d2d2d66	0.042279623
219	0x3dc08783	0.09400847
220	0xbd7326b2	-0.059363075
221	0xbdc60d2f	-0.09670483
222	0x3deaa8bb	0.11457964
223	0xbe041d7d	-0.12901874
224	0xbdbfb88b	-0.09361371
225	0xbd216796	-0.039405428
226	0xbe0675d5	-0.13130887
227	0x3df3f0a3	0.11911132
228	0x3e1a2a16	0.15055117
229	0xbdab8eec	-0.083768696
230	0xbdf81423	-0.12113216
231	0x3caba2e3	0.020951694
232	0x3dc89bfe	0.09795378
233	0x3dfe2e88	0.12411219
234	0xbd89fe30	-0.067379355
235	0xbbb775ee	-0.005598775
236	0xbda4b38e	-0.0804206
237	0xbe2d345e	-0.16914508
238	0xbce6603d	-0.028122062
239	0xbd54c6d5	-0.051947434
240	0x3ddb2d2e	0.10701977
241	0x3df2d41b	0.11856862
242	0xbe037eb9	-0.1284131
243	0x3d6ec530	0.05829352
244	0xbdf9b21f	-0.12192177
245	0xbdc1ce5f	-0.0946319
246	0x3e118800	0.14212036
247	0xbd4d79df	-0.050165053
248	0x3dcef0a4	0.10104492
249	0xbe2e13e4	-0.16999775
250	0xbe20100b	-0.1563112
251	0x3cb39b01	0.021924498
252	0xbe2445df	-0.16042279
253	0x3df425dd	0.11921284
254	0x3e090d1c	0.13383907
255	0xbdeb13ff	-0.11478423

bn1.weight f4 [400]
0	0x3ea4b733	0.3217102
1	0x3ebc68f3	0.3679882
2	0x3e7c035b	0.24610655
3	0x3eafc207	0.3432772
4	0x3ee4a4ca	0.44656974
5	0x3f41ca73	0.7569954
6	0x3e9e3cd1	0.30905774
7	0x3d845408	0.0646134
8	0x3e8dc920	0.2769251
9	0x3f35965b	0.7093255
10	0x3f0cfea4	0.5507605
11	0x3f0cd1a6	0.550074
12	0x3e5eb43a	0.21748438
13	0x3e89ec10	0.26937914
14	0x3e9565dc	0.29179275
15	0x3f153d77	0.5829691
16	0x3e8a2100	0.26978302
17	0x3e9972d0	0.29970407
18	0x3ed13d68	0.40867162
19	0x3f333858	0.7000785
20	0x3f123021	0.5710469
21	0x3f241280	0.6409073
22	0x3e9327e8	0.28741384
23	0x3f0fe255	0.5620473
24	0x3f9a0ad6	1.2034557
25	0x3eb8a106	0.3606035
26	0x3eacf775	0.33782545
27	0x3e8d2544	0.27567494
28	0x3f27e647	0.6558575
29	0x3f0d710b	0.55250615
30	0x3e8134bc	0.25235546
31	0x3f252a7e	0.6451796
32	0x3f0297d8	0.51012945
33	0x3e62f71c	0.22164577
34	0x3ef00565	0.46879116
35	0x3d800a89	0.062520094
36	0x3f579232	0.8420745
37	0x3ec41397	0.38296196
38	0x3f741ca6	0.95356214
39	0x3e9bfc79	0.3046606
40	0x3ef0dfc6	0.47045726
41	0x3ecfdf3d	0.40600005
42	0x3eaa338d	0.33242455
43	0x3f1be5b3	0.6089737
44	0x3f3dcbda	0.7413918
45	0x3f0e99d1	0.55703455
46	0x3f575812	0.8411876
47	0x3f35e377	0.7105021
48	0x3f2b2607	0.668549
49	0x3d8f0b9f	0.069846384
50	0x3ee8fea5	0.45506778
51	0x3f468811	0.7755137
52	0x3edf673e	0.43633455
53	0x3efefb5b	0.49801144
54	0x3ec60d78	0.3868215
55	0x3ee76fd2	0.452025
56	0x3f0dc082	0.5537187
57	0x3ecadccf	0.3962159
58	0x3f43ce7c	0.76486945
59	0x3f04fc94	0.51947904
60	0x3ecd1a3e	0.40059084
61	0x3f03d0f6	0.51490724
62	0x3ea35051	0.31897214
63	0x3eee899a	0.46589357
64	0x3f54b58e	0.8308953
65	0x3ee32b44	0.44368947
66	0x3ef535ba	0.47892553
67	0x3ea1ad9e	0.31577772
68	0x3e47f1bb	0.19525807
69	0x3f25ce22	0.6476766
70	0x3f3bc733	0.7335083
71	0x3ec7ae1a	0.39000016
72	0x3f0d5ffe	0.552246
73	0x3ea684cd	0.32523194
74	0x3f2b8ec5	0.67014724
75	0x3f003550	0.5008135
76	0x3f041784	0.5159838
77	0x3ed79950	0.42109156
78	0x3e9bb931	0.30414727
79	0x3e0433ad	0.12910338
80	0x3e80d397	0.2516143
81	0x3f1946bd	0.59873563
82	0x3f3ffa09	0.749909
83	0x3f18348e	0.5945519
84	0x3ec3f197	0.38270256
85	0x3f164aa7	0.5870766
86	0x3edb170c	0.4279102
87	0x3f48df21	0.7846547
88	0x3f4fc058	0.8115287
89	0x3f0bcbb8	0.54607725
90	0x3f14421a	0.5791336
91	0x3ede6b53	0.43441257
92	0x3f4223d3	0.75835913
93	0x3e9f18f4	0.31073725
94	0x3f1aff13	0.6054546
95	0x3f221245	0.6330913
96	0x3f297385	0.66191894
97	0x3e9b8f04	0.3038255
98	0x3f10f592	0.5662471
99	0x3e86f992	0.26362282
100	0x3f1071fd	0.5642393
101	0x3f1cdd98	0.61275625
102	0x3e8f2b78	0.27962852
103	0x3f0d4af9	0.55192524
104	0x3f381144	0.71901345
105	0x3f2d749b	0.6775605
106	0x3ef25dd2	0.47337204
107	0x3eff09ee	0.49812263
108	0x3f295b43	0.6615488
109	0x3ef476f5	0.47747007
110	0x3e82ff49	0.25585392
111	0x3e988069	0.2978547
112	0x3f402a9a	0.75065005
113	0x3e5e2d22	0.21696904
114	0x3ede6398	0.4343536
115	0x3edb9861	0.42889693
116	0x3ef973aa	0.48721057
117	0x3f3adcea	0.7299334
118	0x3eb993da	0.36245614
119	0x3f09f93a	0.53895915
120	0x3f16a827	0.5885033
121	0x3eb8812c	0.3603605
122	0x3efe80f0	0.49707747
123	0x3f334c04	0.70037866
124	0x3f0aee97	0.5427031
125	0x3f475526	0.778643
126	0x3f6bcb23	0.9210684
127	0x3f23c5e6	0.63973844
128	0x3e902f3e	0.28161043
129	0x3ee741a8	0.4516728
130	0x3f19d3d7	0.60088867
131	0x3e99a0e4	0.30005562
132	0x3f294e94	0.66135526
133	0x3f21c79c	0.63195205
134	0x3f589cca	0.8461424
135	0x3f38c474	0.72174764
136	0x3e85a340	0.26101112
137	0x3ec6a3a3	0.3879672
138	0x3ea657cd	0.32488862
139	0x3f172948	0.59047365
140	0x3f738c97	0.951364
141	0x3e84cac0	0.25935936
142	0x3ef31e89	0.47484234
143	0x3f422f04	0.7585299
144	0x3ef83f76	0.48485917
145	0x3ea4ae98	0.32164454
146	0x3d676441	0.056492094
147	0x3f3305d1	0.6993075
148	0x3f0e5c95	0.5561002
149	0x3f3f97c2	0.7484094
150	0x3f3fc77e	0.74913776
151	0x3f48d35b	0.784475
152	0xb96f1f70	-0.00022804528
153	0x3f3ab8f3	0.7293846
154	0x3f0591c7	0.52175564
155	0x3ef0eae9	0.47054222
156	0x3f66194d	0.89882356
157	0x3ed952bd	0.42445937
158	0x3e38b2d9	0.18036975
159	0x3f4c1d4f	0.7973222
160	0x3e9bcc61	0.30429366
161	0x3f244de7	0.6418137
162	0x3ec8237c	0.39089572
163	0x3f3d0c1d	0.7384661
164	0x3eaa1375	0.3321797
165	0x3f2ac957	0.6671347
166	0x3f33677f	0.700798
167	0x3ebc6a42	0.36799818
168	0x3ed0675d	0.4070386
169	0x3ce1d827	0.02756889
170	0x3f33136e	0.6995152
171	0x3efdc5b4	0.49564898
172	0x3f176a05	0.5914615
173	0x3f2655c4	0.6497462
174	0x3e16020b	0.14649217
175	0x3da865fc	0.08222577
176	0x3ed4721b	0.41493306
177	0x3f1a2397	0.60210556
178	0x3f0c7583	0.5486681
179	0x3f0da486	0.5532917
180	0x3dac0a5c	0.084004134
181	0x3f08c73c	0.5342901
182	0x3f46371f	0.7742786
183	0x3eaf7772	0.34270817
184	0x3ef27790	0.47356844
185	0x3efbb3c6	0.49160594
186	0x3f428945	0.75990707
187	0x3f4c7d6c	0.7987888
188	0x3e651855	0.22372563
189	0x3f334548	0.7002759
190	0x3ecf1f6d	0.40453663
191	0x3eabdb39	0.3356569
192	0x3ee788be	0.45221514
193	0x3f07a92c	0.5299251
194	0x3ee742ed	0.45168248
195	0x3f0eec82	0.5582963
196	0x3f1dc9ca	0.6163603
197	0x3e6fd8b5	0.23422511
198	0x3e9ee08f	0.310307
199	0x3f359d31	0.7094298
200	0x3f2f3423	0.6843893
201	0x3ec8d8bc	0.39227855
202	0x3ef83334	0.48476565
203	0x3f21c93a	0.6319767
204	0x3e93f9c5	0.28901497
205	0x3eb6e68f	0.35722777
206	0x3f2b5759	0.66930157
207	0x3ecbabaf	0.39779422
208	0x3ec868bc	0.39142406
209	0x3ec9ae2b	0.39390692
210	0x3eea4d18	0.45761943
211	0x3e84177c	0.25799167
212	0x3f2823f7	0.6567988
213	0x3f32486e	0.6964177
214	0x3e8c80a8	0.27441907
215	0x3f3dcd6f	0.7414159
216	0x3f140776	0.57823884
217	0x3efc0df7	0.49229404
218	0x3f105f7b	0.5639569
219	0x3f3699fc	0.7132871
220	0x3f102187	0.5630116
221	0x3ec12d41	0.37729838
222	0x3f40ca7b	0.7530896
223	0x3e9bb996	0.30415028
224	0x3e86e562	0.2634688
225	0x3f1eaa32	0.6197845
226	0x3f01daf9	0.5072475
227	0x3ed35522	0.4127589
228	0x3eaae9cf	0.33381507
229	0x3f3c5ba0	0.7357731
230	0x3e6c107b	0.23053162
231	0x3e97f0b1	0.2967582
232	0x3eed2836	0.4631974
233	0x3f358bc8	0.70916414
234	0x3f241af3	0.6410362
235	0x3f03266a	0.5123049
236	0x3ec29308	0.380028
237	0x3f1d0e7d	0.6135023
238	0x3e9cd99c	0.30634773
239	0x3f57dcfd	0.84321576
240	0x3f2dc452	0.67877686
241	0x3ede7222	0.4344645
242	0x3edfdf70	0.43725157
243	0x3e81dd1a	0.25364
244	0x3e70eb5d	0.23527284
245	0x3efec228	0.49757504
246	0x3f6b9e93	0.9203884
247	0x3f146441	0.57965475
248	0x3e061b8b	0.13096444
249	0x3f062300	0.52397156
250	0x3ef043d0	0.46926737
251	0x3eafbb2b	0.34322485
252	0x3f0528f4	0.52015615
253	0x3f1cf215	0.6130689
254	0x3eeb7110	0.45984697
255	0x3eb47d97	0.35252067

bn1.bias f4 [400]
0	0xbdc4fda2	-0.09618689
1	0xbe6033c7	-0.21894751
2	0x3db85a60	0.09001613
3	0xbe6b17ea	-0.22958341
4	0xbea1769b	-0.315358
5	0x3d78cf40	0.060744524
6	0xbe598d66	-0.21245345
7	0x3e66dcaf	0.22545122
8	0xbd1f1ed6	-0.038847767
9	0x3e01a081	0.12658884
10	0xbe8329ef	-0.2561793
11	0xbecdcb37	-0.40194103
12	0xbe2026ab	-0.1563975
13	0xbe0d0d1e	-0.13774535
14	0xbdbdfef6	-0.092771456
15	0xbe80be53	-0.25145206
16	0xbe6affa7	-0.22949086
17	0xbe7a5d38	-0.24449623
18	0xbe51b682	-0.20479777
19	0x3d46b375	0.048510987
20	0x3d927c80	0.07152653
21	0xbe2eb42b	-0.17060916
22	0xbe3b89d6	-0.18314299
23	0xbe365033	-0.17804031
24	0xbe4b4830	-0.19851756
25	0xbe5f2871	-0.21792771
26	0xbea23050	-0.31677485
27	0x3e044457	0.12916695
28	0xbe36c10f	-0.17847084
29	0xbdecb3e2	-0.115577474
30	0xbdfcef87	-0.12350374
31	0xbd6b0fd3	-0.057388138
32	0x3da50353	0.08057275
33	0x3e13591a	0.14389458
34	0xbda7adf3	-0.08187475
35	0x3e13793e	0.14401719
36	0xbe782bd5	-0.2423547
37	0xbe47af44	-0.19500452
38	0xbe777321	-0.24165012
39	0x3d2b0aad	0.041758228
40	0xbdfef805	-0.1244965
41	0xbdc5a963	-0.096514486
42	0xbda74419	-0.081672855
43	0xbe6cd8a1	-0.23129512
44	0xbe2260dd	-0.15857263
45	0x3df95091	0.1217357
46	0xbea4b323	-0.3216792
47	0xbea72201	-0.3264313
48	0xbe835d5e	-0.2565717
49	0x3e815906	0.25263232
50	0xbe715b71	-0.23570038
51	0xbe80fc30	-0.25192404
52	0xbe4f3f4c	-0.2023899
53	0xbe1d6f12	-0.15374401
54	0xbe00f80f	-0.12594627
55	0xbdf32d21	-0.11873842
56	0xbe0f17de	-0.13973948
57	0x3e33e06e	0.17566082
58	0xbb683923	-0.0035434447
59	0xbe4a3180	-0.19745445
60	0x3d8d9381	0.069129
61	0xbe01bdca	-0.12670055
62	0xbe098812	-0.13430813
63	0xbe441a74	-0.19150716
64	0xbe88d686	-0.26726168
65	0xbe7d70f8	-0.24750125
66	0xbd34378d	-0.04399829
67	0xbe051c41	-0.1299906
68	0xbe31f4c8	-0.17378533
69	0xbe3771de	-0.1791453
70	0xbe64bf18	-0.22338521
71	0x3dc6a9ae	0.097003326
72	0xbe6584a2	-0.22413877
73	0xbdb3d2e2	-0.08780457
74	0xbe905296	-0.28188008
75	0xbe592082	-0.21203807
76	0xbdbfe430	-0.09369695
77	0xbe5e8bdd	-0.21733041
78	0x3ddb0bc1	0.10695601
79	0x3dc5df7d	0.09661768
80	0xbdf673fb	-0.1203384
81	0xbe84080e	-0.25787395
82	0xbe8e35ed	-0.27775517
83	0xbe288285	-0.16456039
84	0xbe31e927	-0.17374097
85	0xbe9d09fa	-0.30671674
86	0xbe517f63	-0.2045875
87	0xbe0db439	-0.1383828
88	0xbeb7952e	-0.35856003
89	0xbdad863f	-0.08472871
90	0xbea45237	-0.32093975
91	0xbdedaac2	-0.11604835
92	0xbe853e22	-0.26023966
93	0xbdbb7384	-0.09152892
94	0xbe1ae0e0	-0.15124846
95	0xbe4df58c	-0.201132
96	0xbe48ed10	-0.19621682
97	0xbdb168e1	-0.08662582
98	0x3cc51e84	0.024062403
99	0xbe2bb1cc	-0.16767043
100	0xbe3f6090	-0.1868918
101	0xbe9dcc05	-0.30819717
102	0x3e0f1042	0.13971046
103	0xbe37aef1	-0.17937829
104	0xbe92e70f	-0.2869191
105	0xbe264a5d	-0.16239305
106	0xbea47fe9	-0.32128838
107	0xbd592dc6	-0.05302217
108	0xbe75c03c	-0.23999113
109	0x3d431956	0.047631584
110	0xbd8c2cd3	-0.06844487
111	0xbdb1eeeb	-0.08688148
112	0xbe6fd98f	-0.23422836
113	0xbe3b2f79	-0.18279828
114	0xbcf2f72e	-0.02965888
115	0xbe251fcd	-0.16125412
116	0xbe42d84a	-0.1902782
117	0xbe4d15b5	-0.20027812
118	0xbe025200	-0.12726593
119	0xbe0a6fe6	-0.13519248
120	0xbe25946c	-0.161699
121	0xbe6f4a83	-0.23368268
122	0xbe2923a0	-0.16517496
123	0xbcb1f9c9	-0.021725552
124	0xbe6dcd57	-0.23222862
125	0x3d35e085	0.04440357
126	0xbea57de6	-0.32322615
127	0xbe81dba9	-0.253629
128	0x3e2ec4f0	0.17067313
129	0xbd86b759	-0.065779395
130	0x3d80146d	0.06253896
131	0xbe164e7b	-0.14678375
132	0xbe2a2841	-0.16616918
133	0xbd595466	-0.053059004
134	0xbe47cd2d	-0.19511862
135	0xbe2ebbc9	-0.17063822
136	0xbd4adc37	-0.04952642
137	0xbc60980c	-0.013708126
138	0xbe435345	-0.19074734
139	0xbe427c23	-0.18992667
140	0xbd904dc1	-0.070460804
141	0xbe397b17	-0.18113361
142	0xbe2a9670	-0.1665895
143	0xbdd07128	-0.10177833
144	0xbe08c665	-0.13356932
145	0xbda516da	-0.08060999
146	0x3e62a07a	0.2213153
147	0xbe1e4d57	-0.1545919
148	0xbe207bf1	-0.1567228
149	0xbdab13fa	-0.083534196
150	0x3dea783d	0.11448715
151	0xbe8cf6c5	-0.2753202
152	0xbb328e5e	-0.0027245502
153	0xbe13ffda	-0.14453068
154	0x3d60068a	0.054693736
155	0xbe7e88d7	-0.24856888
156	0x3dcc9657	0.099896125
157	0xbe93ca9c	-0.28865516
158	0xbdcbb08a	-0.099457815
159	0xbe6d7a76	-0.23191246
160	0xbe271dd8	-0.16319978
161	0xbe77214d	-0.24133797
162	0xbe21f160	-0.15814734
163	0xbdb2bc49	-0.08727319
164	0xbe51031d	-0.20411344
165	0xbea8de1d	-0.3298196
166	0xbe9200e3	-0.28516302
167	0xbe672556	-0.22572836
168	0xbdffd3b9	-0.12491555
169	0x3e718fdd	0.23590036
170	0xbeeb9f93	-0.46020183
171	0xbe6a052c	-0.22853535
172	0xbe69f83e	-0.22848603
173	0xbe194387	-0.14967166
174	0x3e05a2d8	0.13050401
175	0x3e4a344e	0.19746515
176	0xbd25697c	-0.0403838
177	0xbe8154ed	-0.25260106
178	0xbe417d52	-0.18895462
179	0xbda78840	-0.081802845
180	0x3e0f535b	0.13996641
181	0xbe60fb07	-0.2197076
182	0xbe81be09	-0.25340298
183	0xbe230123	-0.15918402
184	0xbe4ffb87	-0.20310794
185	0xbe2cfa52	-0.16892365
186	0xbe99adc0	-0.30015373
187	0xbe2ca39d	-0.16859289
188	0xbdefc09a	-0.11706658
189	0xbe243dd4	-0.1603921
190	0x3df0e97e	0.11763285
191	0xbe30356c	-0.17207879
192	0xbe0bc91e	-0.13650939
193	0xbe625203	-0.22101597
194	0xbd0f88ee	-0.035042696
195	0xbe6fc4fe	-0.2341499
196	0xbe91187a	-0.28338987
197	0x3dceb439	0.100929685
198	0xbd46229c	-0.04837285
199	0xbea151df	-0.31507775
200	0xbe893742	-0.2679997
201	0xbe62d887	-0.22152911
202	0xbbf8bd8c	-0.007590955
203	0xbdbce0a1	-0.09222532
204	0xbde13107	-0.10995679
205	0xbd6eeac6	-0.058329366
206	0xbe49f333	-0.1972168
207	0xbe5d4e94	-0.21612006
208	0xbe80d6f8	-0.25164008
209	0xbe3416e6	-0.1758686
210	0xbe8fe2d9	-0.2810276
211	0xbe311b14	-0.17295486
212	0xbdad4e89	-0.08462245
213	0xbeafa221	-0.34303382
214	0xbe37f735	-0.17965396
215	0xbee289bc	-0.44245708
216	0xbe51b3da	-0.20478764
217	0xbe8efc2b	-0.27926764
218	0x3ca0d7d1	0.01963416
219	0x3e5a0b2f	0.21293329
220	0xbe6b2d64	-0.22966534
221	0xb9b06b85	-0.00033649444
222	0xbe08db7f	-0.13364981
223	0xbe815236	-0.25258034
224	0xbd96dd17	-0.07366388
225	0xbeab7244	-0.33485615
226	0xbeaa54a1	-0.33267692
227	0xbe0aa605	-0.13539894
228	0xbdd457d8	-0.10368317
229	0xbd947177	-0.07248204
230	0xbe2a03c5	-0.16603
231	0xbe58db38	-0.21177375
232	0xbe47cef2	-0.19512537
233	0xbe1f645f	-0.15565632
234	0xbe8a460d	-0.2700657
235	0xbe7c040b	-0.24610917
236	0xbe420c54	-0.18950015
237	0xbe2e9e60	-0.17052603
238	0xbdb8aecd	-0.090177156
239	0xbe0b1bbe	-0.13584802
240	0xbee6f49f	-0.45108506
241	0xbe0af609	-0.13570417
242	0xbdffd931	-0.12492598
243	0x3c6d1b9a	0.014471913
244	0xbe327443	-0.17427163
245	0xbe945b1f	-0.2897577
246	0xbe6bdb0b	-0.23032777
247	0xbe76d50c	-0.24104708
248	0xbddb4fa2	-0.10708548
249	0xbdcd3c47	-0.100212626
250	0xbe792cf6	-0.24333557
251	0xbe890b94	-0.26766646
252	0xbe8d5431	-0.27603295
253	0xbe504840	-0.20340061
254	0xbe03271f	-0.12807892
255	0xbd77eb78	-0.060527295

bn1.running_mean f4 [400]
0	0xbe1ec7c3	-0.1550589
1	0x3dd501ff	0.10400771
2	0xbe3c91aa	-0.18414941
3	0xbefde666	-0.49589843
4	0xbebb2228	-0.36549497
5	0x3db9f443	0.09079792
6	0x3edad420	0.42739964
7	0x3db32fe1	0.087493666
8	0xbd5b20a9	-0.053497944
9	0xbe2c434e	-0.1682255
10	0xbf480b28	-0.78142023
11	0xbe6594dd	-0.22420068
12	0xbed4c8ae	-0.41559356
13	0xbe98d6d7	-0.2985141
14	0xbe0c1c67	-0.1368271
15	0x3ebc224d	0.3674492
16	0xbea7ee28	-0.32798886
17	0xbf00f564	-0.50374436
18	0x3f58868a	0.8458029
19	0x3eb344d8	0.3501346
20	0xbd896699	-0.06709022
21	0xbeb92f28	-0.3616879
22	0x3ee0940b	0.43862948
23	0xbe3e6c88	-0.18596089
24	0x3d19be69	0.037535105
25	0xbe778eef	-0.24175619
26	0xbda2b325	-0.07944325
27	0xbe52d212	-0.20587948
28	0xbe13fcbd	-0.14451881
29	0x3e8858e5	0.2663032
30	0xbe5cf968	-0.21579516
31	0xbc8e0d7a	-0.01734041
32	0x3e0804b0	0.13283038
33	0x3e15eb85	0.14640625
34	0xbdd56160	-0.104189634
35	0xbe8c7dea	-0.27439815
36	0x3e17f304	0.14838797
37	0xbe36cfcb	-0.17852704
38	0xbc17ba7a	-0.009260768
39	0xbe9929df	-0.29914758
40	0xbd1b70d0	-0.037949383
41	0x3d0a2d28	0.03373447
42	0xbe636bb1	-0.2220905
43	0xbcb60671	-0.022219868
44	0xbe84e764	-0.25957787
45	0x3e9a5208	0.3014071
46	0xbb6d35e5	-0.0036195454
47	0xbe918246	-0.28419703
48	0xbe3e3ced	-0.18577929
49	0xbd7eb185	-0.062181015
50	0x3e6f4584	0.23366362
51	0x3dd76a36	0.10518305
52	0xbea1fa1c	-0.3163613
53	0x3dec0518	0.11524409
54	0x3e357d36	0.17723545
55	0xbf0d0ea4	-0.55100465
56	0x3dd70b05	0.10500149
57	0x3eb988d6	0.3623721
58	0x3ea234be	0.31680864
59	0x3ee9eec4	0.45689976
60	0x3e83dc32	0.25753933
61	0x3d8cda4e	0.06877576
62	0x3d1f48a2	0.038887627
63	0xbd371c0b	-0.04470448
64	0xbdbf1213	-0.09329619
65	0x3c9220fd	0.017837996
66	0xbd469bdb	-0.04848848
67	0xbe37e60e	-0.17958853
68	0x3d278f60	0.040908217
69	0x3ce8bd0b	0.028410455
70	0xbd4aed28	-0.049542576
71	0xbcedff32	-0.02905235
72	0x3efc1970	0.49238157
73	0x3eecb547	0.46232054
74	0xbd88327c	-0.06650254
75	0xbe6096c6	-0.21932516
76	0xbed0d980	-0.4079094
77	0x3cc08eb7	0.023505552
78	0x3ed9dad7	0.42549774
79	0x3ea0c3a7	0.3139927
80	0xbe63475f	-0.22195195
81	0x3ec3d29f	0.3824663
82	0xbe22eb9e	-0.15910193
83	0xbd5b1099	-0.053482626
84	0xbc6c06d9	-0.0144059295
85	0xbdedc328	-0.11609489
86	0x3e2e460a	0.17018905
87	0x3e7deda6	0.24797687
88	0xbebb4401	-0.3657532
89	0x3dfd6312	0.12372412
90	0x3d20c912	0.039254256
91	0xbe881df1	-0.26585343
92	0x3e2861fd	0.1644363
93	0x3e4dc5ac	0.20094937
94	0x3c724408	0.014786728
95	0x3e907bed	0.28219548
96	0x3e15ca62	0.14627984
97	0xbcd7f82e	-0.026363458
98	0x3edcd4ad	0.4313101
99	0x3d96ab2f	0.073568694
100	0x3d98b31f	0.0745604
101	0xbdb1519f	-0.08658146
102	0xbf2c69eb	-0.6734912
103	0x3e016028	0.12634337
104	0xbe9abaab	-0.3022054
105	0x3e3370fe	0.17523572
106	0xbe5183f2	-0.2046049
107	0xbf124302	-0.57133496
108	0x3e0ee4e0	0.13954496
109	0xbe370bac	-0.17875546
110	0x3e3ada01	0.18247224
111	0xbf17e24b	-0.5932967
112	0x3d3c421b	0.04596148
113	0xbd9c2b68	-0.076254666
114	0x3edc54d7	0.43033478
115	0xbe8e9826	-0.27850455
116	0x3e0e4219	0.13892402
117	0xbdc9737b	-0.09836479
118	0xbd67d869	-0.05660287
119	0x3e0dbd7a	0.13841811
120	0x3a35b73b	0.00069319055
121	0x3e4b26af	0.19838975
122	0xbd768292	-0.060183115
123	0x3ea7869c	0.32719886
124	0xbd5b7e49	-0.05358723
125	0x3e0ab180	0.13544273
126	0x3c51f4d8	0.012814723
127	0xbdeac5ca	-0.114635065
128	0xbba7d2ac	-0.0051215496
129	0xbeca49e6	-0.39509505
130	0x3eb4bbc2	0.35299498
131	0x3e6bcef4	0.23028165
132	0x3e42f834	0.19039994
133	0x3ea8716f	0.32899043
134	0xbe8691b8	-0.2628305
135	0x3d3a0b80	0.045421124
136	0xbe2b6edd	-0.1674151
137	0x3f03418e	0.51271904
138	0x3de5c8c9	0.11219937
139	0x3df3adc7	0.1189838
140	0xbe063a43	-0.13108163
141	0xbea8c68e	-0.32963985
142	0xbe74a618	-0.23891485
143	0xbc9a9001	-0.018867495
144	0x3e3960bb	0.18103306
145	0x3d9b0267	0.075688176
146	0xbc3f806c	-0.011688333
147	0xbe646674	-0.22304708
148	0xbd526430	-0.051365077
149	0x3e950fd0	0.29113626
150	0x3e8e41fd	0.2778472
151	0xbcdfb436	-0.027307611
152	0x3cfb5df9	0.030684458
153	0x3eefb228	0.4681561
154	0x3e4b2b4f	0.1984074
155	0x3d958379	0.07300467
156	0x3a923dac	0.0011157296
157	0x3ca24e02	0.019812588
158	0x3e7dc03f	0.24780367
159	0xbefb4f9f	-0.49084184
160	0xbe907181	-0.28211597
161	0xbe8392af	-0.25697848
162	0xbecb43d7	-0.39700195
163	0xbe2981ef	-0.16553472
164	0xbdaf4f41	-0.08560038
165	0x3ca43eb2	0.020049427
166	0x3d07cbe1	0.03315342
167	0xbe774f9f	-0.24151467
168	0x3ca9eec7	0.02074374
169	0x3eb75813	0.35809383
170	0x3de3a77c	0.111159295
171	0xbe609901	-0.21933366
172	0x3c9a87b2	0.018863533
173	0x3d8daea4	0.06918076
174	0xbf25e083	-0.647957
175	0xbd9f204b	-0.07769831
176	0xbe39e718	-0.18154562
177	0xbddfedf6	-0.10934059
178	0xbd81468f	-0.06312286
179	0xbd964c7a	-0.073388055
180	0x3e80a5cc	0.25126493
181	0xbe2a2694	-0.16616279
182	0xbd986dad	-0.07442794
183	0x3dfd95c3	0.123820804
184	0xbde85e0d	-0.11346064
185	0x3d735c49	0.05941418
186	0x3e5367de	0.20645091
187	0x3e2e665b	0.17031233
188	0xbeaf42b5	-0.3423058
189	0x3e9d1866	0.30682677
190	0x3c6f4202	0.01460314
191	0xbe8f2fb3	-0.2796608
192	0xbe8122ff	-0.25222012
193	0x3e713246	0.23554334
194	0x3d389529	0.045064125
195	0xbd11c058	-0.035583824
196	0xbececa52	-0.40388733
197	0x3d9d4f81	0.0768118
198	0xbe83b881	-0.25726703
199	0x3ecd497b	0.40095124
200	0xbd86a40f	-0.065742604
201	0x3e2a73eb	0.16645782
202	0x3e06d89d	0.13168569
203	0x3e26df3a	0.16296092
204	0xbdcd6dae	-0.10030685
205	0x3e99e663	0.30058584
206	0x3e25d0ec	0.16192979
207	0x3dad2ab2	0.08455409
208	0xbe35c001	-0.17749025
209	0x3ee00f0c	0.4376148
210	0x3e2228fa	0.15835944
211	0x3e382172	0.17981508
212	0x3d3aa69d	0.04556905
213	0x3d35bbb6	0.04436847
214	0xbeba9fc0	-0.36450005
215	0x3eb06d53	0.34458408
216	0xbd85126d	-0.06497655
217	0xbe8947aa	-0.26812488
218	0xbe3353ef	-0.17512487
219	0x3dd9bd2e	0.10631786
220	0xbd77e5ab	-0.060521763
221	0x3ed18289	0.40919903
222	0x3ea34ffd	0.31896964
223	0xbec89f02	-0.39183813
224	0x3d027f61	0.03185976
225	0xbd02a073	-0.031891298
226	0xbe180843	-0.14846902
227	0x3e24a9d3	0.16080408
228	0x3dfa8116	0.122316524
229	0x3c469dad	0.012122554
230	0xbf4c8d11	-0.7990275
231	0x3ddd6094	0.108094364
232	0xbd8db8cf	-0.06920015
233	0x3df645fb	0.120250665
234	0x3eb1b953	0.34711704
235	0xbba2e0e8	-0.0049706586
236	0xbdf71cbf	-0.1206603
237	0xbd3013f4	-0.04298778
238	0xbef566aa	-0.4792989
239	0x3debe6d3	0.115186356
240	0x3e259b80	0.161726
241	0xbc84f100	-0.016228199
242	0x3d843369	0.06455118
243	0x3e4ff7d5	0.20309384
244	0xbf336341	-0.70073324
245	0xbda36713	-0.07978644
246	0x3dfc1ed6	0.12310569
247	0x3d4813d0	0.04884702
248	0x3c35a63e	0.0110869985
249	0xbed3affc	-0.41345203
250	0x3d645ad2	0.055750675
251	0xbd8e6442	-0.069527164
252	0xbd3d9000	-0.046279907
253	0xbddf5d4c	-0.10906467
254	0x3e31aa76	0.17350182
255	0xbd12f5bd	-0.035878886

bn1.running_var f4 [400]
0	0x3e440c2e	0.19145271
1	0x3e328662	0.17434075
2	0x3f91dce0	1.1395531
3	0x3e53e371	0.20692231
4	0x3e5a778a	0.21334663
5	0x3ee37854	0.4442774
6	0x3e80e38e	0.2517361
7	0x3fe032fa	1.7515557
8	0x3e565d76	0.2093409
9	0x3f37adbc	0.7174947
10	0x3e826861	0.2547026
11	0x3df9c367	0.12195473
12	0x3f45ad29	0.77217346
13	0x3f16015c	0.58595824
14	0x3df7cb22	0.120992914
15	0x3eb7159e	0.3575868
16	0x3e3a416f	0.18189023
17	0x3eb9cc6a	0.36288768
18	0x3ed81d51	0.42209867
19	0x3e659cab	0.22423045
20	0x3e6ca82b	0.23111026
21	0x3e454225	0.19263513
22	0x3e28b530	0.16475368
23	0x3e376c1c	0.17912334
24	0x3e8ea7af	0.27862307
25	0x3e95592f	0.29169604
26	0x3debcbe9	0.11513502
27	0x3e33efef	0.17571996
28	0x3e0d8804	0.13821417
29	0x3e8d23cc	0.27566373
30	0x3e3e4237	0.18579946
31	0x3e36b027	0.17840634
32	0x3eb65223	0.3560954
33	0x3f21541c	0.63018966
34	0x3f016e0b	0.5055854
35	0x3e9ec991	0.31013158
36	0x3e6f1300	0.23347092
37	0x3ed3bea5	0.41356388
38	0x3e893933	0.26801452
39	0x3e5df243	0.21674447
40	0x3e98ea23	0.29866132
41	0x3ebcbe2f	0.3686385
42	0x3efafaeb	0.4901956
43	0x3e3e4124	0.18579537
44	0x3e30426b	0.17212836
45	0x3f0d558a	0.5520865
46	0x3e9388e1	0.28815368
47	0x3ee32676	0.4436528
48	0x3e110df6	0.14165482
49	0x3faea957	1.3645428
50	0x3e8ecb17	0.2788932
51	0x3ebbfa3e	0.36714357
52	0x3ebde93c	0.37092006
53	0x3e87cbd8	0.26522708
54	0x3e565907	0.20932399
55	0x3e755b64	0.23960644
56	0x3ef24214	0.4731604
57	0x3f142c57	0.5788016
58	0x3e88032e	0.26564926
59	0x3ee99bb4	0.45626605
60	0x3ede13d5	0.43374506
61	0x3e277bc7	0.16355811
62	0x3dbf70f4	0.09347716
63	0x3e21a5eb	0.15785949
64	0x3e6f8f6c	0.23394555
65	0x3e1d13c7	0.15339576
66	0x3e97c1cb	0.2964004
67	0x3ec96f69	0.39342812
68	0x3ee80e76	0.45323533
69	0x3e82c7db	0.25543103
70	0x3ef53846	0.47894496
71	0x3f1bc31c	0.6084459
72	0x3e821e65	0.25413814
73	0x3eaf89af	0.34284732
74	0x3ed8db30	0.42354727
75	0x3dce775e	0.10081361
76	0x3f41f3dd	0.7576273
77	0x3ee57a18	0.44819713
78	0x3e1cc8b6	0.1531094
79	0x3f27dfc6	0.65575826
80	0x3e8d392c	0.2758268
81	0x3e7ce24e	0.24695703
82	0x3e3b176c	0.18270653
83	0x3e0ff3d0	0.14057851
84	0x3e5bedf1	0.21477486
85	0x3ea7b54a	0.327555
86	0x3e2a4d3a	0.16631022
87	0x3eb4dc6c	0.3532442
88	0x3f2f6798	0.68517447
89	0x3e99a0a5	0.30005375
90	0x3e7fbdca	0.24974743
91	0x3ec824e2	0.3909064
92	0x3ea6d6fd	0.32585898
93	0x3e8be633	0.27324066
94	0x3de98232	0.11401786
95	0x3e7dc6d7	0.24782883
96	0x3db637aa	0.08897336
97	0x3de3e489	0.11127574
98	0x3e3ad49f	0.18245171
99	0x3f1891e9	0.5959764
100	0x3e3f83d4	0.18702632
101	0x3e716557	0.23573814
102	0x3e2f2dd1	0.17107321
103	0x3e43d8b4	0.19125634
104	0x3e7ad94b	0.24496953
105	0x3e8c029d	0.27345744
106	0x3e11d4ae	0.14241287
107	0x3eb9c74e	0.3628487
108	0x3ea226d1	0.3167024
109	0x3ebb25b8	0.36552215
110	0x3e7ad060	0.24493551
111	0x3e661ae7	0.224712
112	0x3f047b7c	0.5175092
113	0x3e9374a7	0.28799936
114	0x3eb6f42c	0.35733163
115	0x3e9baeb4	0.30406725
116	0x3f0657d8	0.5247779
117	0x3e92b0cc	0.2865051
118	0x3e0954c4	0.13411242
119	0x3f01e1a2	0.50734913
120	0x3e6262a5	0.22107942
121	0x3edb2997	0.42805168
122	0x3e4d4815	0.20047028
123	0x3ecaac14	0.3958441
124	0x3ed675ee	0.41886848
125	0x3e91499b	0.2837647
126	0x3e836caa	0.25668842
127	0x3ec5bb32	0.3861938
128	0x3e9cca9e	0.30623335
129	0x3f112937	0.56703514
130	0x3e396c24	0.18107659
131	0x3e6c2877	0.23062311
132	0x3e85bc7f	0.26120374
133	0x3e4591d4	0.1929391
134	0x3e4ff8b7	0.20309721
135	0x3f0ec9c5	0.55776626
136	0x3e5533c3	0.20820527
137	0x3e00b3ae	0.12568542
138	0x3e99a9db	0.30012402
139	0x3e85376c	0.26018846
140	0x3e6b1754	0.22958118
141	0x3f359edf	0.70945543
142	0x3e62aaa4	0.22135407
143	0x3e22fe88	0.15917408
144	0x3e788617	0.24269901
145	0x3e9924da	0.29910928
146	0x3fdbbd40	1.716713
147	0x3e99d098	0.30041957
148	0x3e8a91ff	0.2706451
149	0x3e4d027f	0.20020483
150	0x3e4fa20e	0.20276663
151	0x3e644c80	0.22294807
152	0x3e272dcf	0.16326068
153	0x3efa8419	0.48928908
154	0x3e1f4b3f	0.15556048
155	0x3e8c3f16	0.2739188
156	0x3eb046e8	0.34429097
157	0x3e76697f	0.24063681
158	0x3e323f6e	0.17407009
159	0x3eca6af3	0.3953472
160	0x3e577795	0.2104171
161	0x3e8a5142	0.2701512
162	0x3e59b5f4	0.21260816
163	0x3e58bae7	0.21165048
164	0x3e938a78	0.2881658
165	0x3e83d191	0.25745824
166	0x3e509ea8	0.20373023
167	0x3f0984e2	0.5371839
168	0x3e625b43	0.22105126
169	0x3f904e9f	1.1273993
170	0x3f2df07c	0.67945075
171	0x3e9a26c2	0.30107695
172	0x3e2ac465	0.16676481
173	0x3e58a9ba	0.21158496
174	0x3f6fd8f7	0.9369044
175	0x3f657b96	0.896417
176	0x3f174faa	0.5910593
177	0x3e577410	0.21040368
178	0x3e9a5504	0.30142987
179	0x3e6886c2	0.22707656
180	0x3e86675f	0.2625074
181	0x3eceb185	0.40369812
182	0x3e8ad0fc	0.27112567
183	0x3e7547c4	0.23953158
184	0x3ea8b4de	0.3295049
185	0x3e39f5a8	0.18160117
186	0x3eb9a2b4	0.36256945
187	0x3e891562	0.26774126
188	0x3e5286a2	0.20559171
189	0x3e0b6621	0.13613178
190	0x3e8554d3	0.26041278
191	0x3ea07e0f	0.31346175
192	0x3e5fce16	0.2185596
193	0x3ee8e5d7	0.45487854
194	0x3eb2fa8b	0.34956774
195	0x3e2dbcf4	0.16966611
196	0x3e717665	0.2358032
197	0x3e12bf49	0.14330782
198	0x3e604c61	0.21904136
199	0x3ec5f10b	0.38660464
200	0x3ee8d12e	0.4547209
201	0x3e5e3c17	0.2170261
202	0x3dea2043	0.11431935
203	0x3e84cd30	0.25937796
204	0x3dec7ec4	0.11547616
205	0x3dc960a6	0.09832887
206	0x3e7d2fbf	0.24725245
207	0x3ea7fea3	0.3281146
208	0x3e1344a4	0.14381653
209	0x3f9c13e0	1.2193565
210	0x3e590c22	0.21196035
211	0x3e2914ce	0.16511843
212	0x3e564ff7	0.20928942
213	0x3deaf153	0.1147181
214	0x3e35d0d1	0.17755438
215	0x3e977c68	0.29587102
216	0x3e90ceaf	0.28282687
217	0x3eac9431	0.3370681
218	0x3ec94b98	0.39315486
219	0x3f2d4edf	0.6769847
220	0x3eaa9195	0.33314195
221	0x3e0cd49f	0.13752984
222	0x3eacc1d6	0.33741635
223	0x3e44cabb	0.1921796
224	0x3e16f5d8	0.1474222
225	0x3e515965	0.20444258
226	0x3e6ccef0	0.23125815
227	0x3e27834b	0.16358678
228	0x3e895859	0.26825216
229	0x3f5cab06	0.8619846
230	0x3ee20bbe	0.44149584
231	0x3e93b2be	0.28847307
232	0x3e3f8032	0.18701246
233	0x3e5b1346	0.21394071
234	0x3e5a2d49	0.21306337
235	0x3dfff739	0.12498326
236	0x3e3b5993	0.18295889
237	0x3e85162b	0.25993475
238	0x3ea0347f	0.3129005
239	0x3e4c72e7	0.19965707
240	0x3e524754	0.20535022
241	0x3dd2e603	0.102977775
242	0x3e0cf654	0.13765842
243	0x3e58be5d	0.21166368
244	0x3e7f2506	0.24916467
245	0x3e6c4404	0.23072821
246	0x3eadb52b	0.33927283
247	0x3f04a019	0.5180679
248	0x3fd52b73	1.6653885
249	0x3e8d4dbd	0.27598372
250	0x3ee793d4	0.4522997
251	0x3f21936b	0.63115567
252	0x3e789352	0.24274948
253	0x3e4e5404	0.20149237
254	0x3e48b213	0.1959918
255	0x3ebc4431	0.36770776

fc2.weight f4 [300, 404]
0	0xbe006901	-0.12540056
1	0x3ccea1e9	0.02522369
2	0x3dcbcd3d	0.099512555
3	0xbdaadebc	-0.083432645
4	0x3d05d4e5	0.032673735
5	0xbcdd6e16	-0.027030032
6	0x3c889c61	0.01667613
7	0xbd1a04db	-0.037602287
8	0x3ddb93ed	0.10721574
9	0xbc686505	-0.014184241
10	0xbd8b8006	-0.06811528
11	0xbcc9beb9	-0.024627076
12	0xbd0ad7f3	-0.03389735
13	0x3cb632c6	0.022241008
14	0xbd34f63e	-0.044180147
15	0x3dc681d7	0.09692734
16	0xbe6aa239	-0.22913446
17	0x3d4e173d	0.05031513
18	0xbcfa42e6	-0.030549478
19	0xbd0e34b2	-0.034718223
20	0x3d13c1b0	0.036073387
21	0x3d60bf20	0.05486977
22	0xbd2634ed	-0.040577818
23	0xbe0978dc	-0.1342501
24	0x3d7de0e6	0.061982058
25	0x3cefa14b	0.029251715
26	0xbe26eb93	-0.16300802
27	0x3d45421d	0.048158754
28	0x3cae1b4f	0.021253256
29	0x3c46e5b6	0.012139728
30	0xbdbce79b	-0.09223863
31	0x3c80ef5f	0.015739141
32	0xbcac0e4b	-0.02100291
33	0x3bb9b53c	0.005667357
34	0x3aebf142	0.0018000978
35	0x3d52fe96	0.051512323
36	0xbc4e2f3f	-0.0125845065
37	0xbe2f95e7	-0.17147027
38	0x3d3a7929	0.045525704
39	0x3de72381	0.11286069
40	0x3b786ae2	0.0037905504
41	0x3b86cfc6	0.004114124
42	0xbd40f419	-0.04710779
43	0x3dcc417b	0.09973427
44	0xbde43157	-0.11142223
45	0xbdfb9c48	-0.12285668
46	0xbd999471	-0.07499016
47	0xbdaf2a6a	-0.08553012
48	0x3ce9ec83	0.02855516
49	0x3cc3b673	0.02389071
50	0xbdcd9d4a	-0.10039766
51	0x3e33ed6d	0.1757104
52	0xbcc352a2	-0.023843113
53	0x3d452c1f	0.04813778
54	0x3cf88f58	0.03034179
55	0xbcc2cf11	-0.023780378
56	0xbddc0e8d	-0.10744963
57	0x3d1d299d	0.038369764
58	0x3d746e1a	0.059675314
59	0x3c935849	0.017986434
60	0x3d86e706	0.06587033
61	0xbd1b35c1	-0.03789306
62	0xbd49ac3e	-0.04923653
63	0xbd2670ef	-0.040635046
64	0xbd6e0822	-0.058113225
65	0xbd2d2524	-0.04227175
66	0x3dc63157	0.096773796
67	0xbda1b000	-0.078948975
68	0x3c3fac2e	0.011698766
69	0xbb94e01c	-0.0045433175
70	0x3d2a306e	0.041550092
71	0x3dc3d20d	0.095615484
72	0xbdde4802	-0.10853578
73	0xbdfe774c	-0.12425098
74	0xbc644548	-0.013932534
75	0xbd0e56be	-0.034750693
76	0xba9044e7	-0.0011006863
77	0xbd8f05b7	-0.06983512
78	0x3d76606a	0.06015054
79	0x3dbab73f	0.09116983
80	0xbd24f172	-0.040269323
81	0x3d42167d	0.047384728
82	0xbd81d9f4	-0.063403994
83	0x3d23bffe	0.03997802
84	0x3d84137e	0.0644903
85	0x3b70fd72	0.003677216
86	0xbe1aa77e	-0.15102956
87	0xbdcc9cdd	-0.09990857
88	0xbd7c894f	-0.061654385
89	0x3d97ee45	0.07418493
90	0x3e23b988	0.15988743
91	0x3d9c72af	0.07639062
92	0xbeb9a12d	-0.3625578
93	0xbdd65a76	-0.10466473
94	0xbc2eb53c	-0.010663327
95	0xbbb4c710	-0.005516894
96	0x3da980ca	0.08276518
97	0x3deb7209	0.1149636
98	0x3c52efce	0.012874557
99	0xbe140bf5	-0.14457686
100	0x3e097d40	0.13426685
101	0xbc9e2c13	-0.019308126
102	0xbd3391a4	-0.043840066
103	0xbe098bf7	-0.13432299
104	0xbd2c8b70	-0.042125165
105	0x3d43a840	0.047767878
106	0xbc8594b9	-0.016306268
107	0xbac28eb4	-0.0014843554
108	0xbdcecba2	-0.100974336
109	0xbd2aee96	-0.04173144
110	0x3d27e678	0.040991277
111	0x3c81798f	0.015805034
112	0x3d1b0a54	0.037851647
113	0xbd396adf	-0.045267936
114	0x3caddbfe	0.021223065
115	0xb974d196	-0.0002334773
116	0xbd8809d2	-0.06642498
117	0xbdb6f006	-0.089324996
118	0x3e0b712d	0.13617392
119	0xbda15e04	-0.0787926
120	0x3c633705	0.013868098
121	0x3dd66e44	0.1047025
122	0x3cffc887	0.031223549
123	0xbc862048	-0.016372815
124	0xbd27f964	-0.04100932
125	0x3de3635b	0.11102935
126	0xbdab5859	-0.0836646
127	0xbe605223	-0.21906333
128	0x3d8a6bdb	0.06758853
129	0xbcd94ca7	-0.026525808
130	0xbc47e18c	-0.012199771
131	0x3bedbf33	0.0072554587
132	0xbd412a0a	-0.047159232
133	0xbdb5a8f5	-0.088701166
134	0xbd5a3b5e	-0.053279273
135	0x3c5b26c5	0.013375943
136	0x3d815300	0.06314659
137	0xbcf3970c	-0.02973511
138	0xbd9573b7	-0.072974615
139	0x3b9c1c10	0.0047640875
140	0xbdb12392	-0.086493626
141	0x3bec6911	0.0072146733
142	0xbd91b6e5	-0.071149625
143	0x3de0851f	0.10962891
144	0xbdad2955	-0.08455149
145	0x3d6dbe3b	0.058042746
146	0x3c4239dc	0.011854615
147	0xbd8b396e	-0.06798063
148	0x3cbe617a	0.02323984
149	0xbd85e774	-0.06538287
150	0x3bf4fe90	0.0074766353
151	0xbbf06653	-0.0073364167
152	0xbd0effb7	-0.034911837
153	0xbdca125a	-0.098667815
154	0xbe1b40c1	-0.1516142
155	0xbdab75a4	-0.083720475
156	0x3ca93a0b	0.02065756
157	0xbdd8dac9	-0.10588605
158	0x3d71fa0f	0.059076365
159	0xbcc327de	-0.023822721
160	0x3db316e9	0.08744604
161	0x3dc1019d	0.09424136
162	0xbd1b23cd	-0.03787594
163	0xbc9b1c03	-0.018934255
164	0xbcf153ae	-0.029458847
165	0xbcd736e1	-0.026271285
166	0x3d077930	0.033074558
167	0xbe206ea6	-0.15667209
168	0x3cfe256d	0.031023705
169	0x3c0b8a6c	0.008516889
170	0xbdd33cfb	-0.103143655
171	0xbd4382fb	-0.047732335
172	0xbc325b5a	-0.010886038
173	0x3d56528a	0.05232481
174	0x3c968f29	0.018378811
175	0xbc521603	-0.012822631
176	0x3c8b6344	0.017015107
177	0x3c95202c	0.018203817
178	0xbc7b45f0	-0.015336499
179	0xbb1ab04a	-0.0023603612
180	0x3c44ac34	0.012003947
181	0xbd3ac40e	-0.04559713
182	0xbe2174cb	-0.15767209
183	0x3c30d016	0.010791799
184	0x3d93d6b5	0.072186865
185	0x3c28b3cb	0.010296772
186	0xbde8d8d6	-0.11369483
187	0xbd9b9ef1	-0.07598675
188	0xbedc6bb3	-0.43050918
189	0x3e0d8921	0.13821842
190	0xbdcdbc16	-0.1004564
191	0x3d3363fe	0.04379653
192	0xbdde406a	-0.1085213
193	0x3db94689	0.09046657
194	0x3ce9cddc	0.028540544
195	0x3d1ce841	0.038307432
196	0xbd540b6e	-0.051768713
197	0x3d26f253	0.040758442
198	0x3d76ff09	0.060301814
199	0x3cc13674	0.023585536
200	0x3d8bddd5	0.068294205
201	0x3d9d86fd	0.076917626
202	0xbd8bc7dd	-0.0682523
203	0x3d5ca1c0	0.053865194
204	0x3cd76af2	0.026296113
205	0xbda5a619	-0.08088321
206	0xbd4fa83d	-0.050697554
207	0xbd1d20b6	-0.038361274
208	0xbe445dcf	-0.1917641
209	0x3d831a79	0.06401534
210	0xbd823635	-0.063579954
211	0xbd2991a4	-0.04139866
212	0x3d9a6149	0.07538087
213	0x3d216504	0.039402977
214	0xbdc586dc	-0.09644863
215	0xbd39d54d	-0.045369435
216	0xbc9f6355	-0.019456545
217	0xbd0a0512	-0.03369624
218	0xbd2ca537	-0.04214975
219	0x3d5aa602	0.053380974
220	0xbd622571	-0.05521149
221	0x3cc40223	0.0239268
222	0xbcae6fd8	-0.021293566
223	0x3e5afce2	0.2138553
224	0x3db7d2f9	0.08975787
225	0xbd8f3326	-0.06992178
226	0xbd8a734f	-0.067602746
227	0xbd8f9ef9	-0.070127435
228	0x3cf853e2	0.030313436
229	0xbd68e2d0	-0.05685693
230	0xbeaa6ae3	-0.33284673
231	0xbe723569	-0.23653187
232	0xbe011f65	-0.12609632
233	0x3cf6db39	0.03013383
234	0x3c7f6945	0.015589063
235	0x3ca0cdb9	0.019629346
236	0x3dff286b	0.12458881
237	0x3d1e2624	0.038610592
238	0x3d9214a3	0.071328424
239	0xbd9d990d	-0.07695208
240	0xbd2a4122	-0.04156602
241	0x3c9380cf	0.018005757
242	0xbd8af71f	-0.06785416
243	0xbd9df007	-0.07711797
244	0x3d289395	0.04115637
245	0x3d45e9f1	0.048318807
246	0x3d7546ce	0.059881978
247	0xbd553f38	-0.052062243
248	0x3e1b0ae5	0.15140875
249	0xbbf874d0	-0.0075822845
250	0xbd6b4d67	-0.057446864
251	0x3c6cfb1b	0.014464165
252	0xbd6e906f	-0.05824321
253	0x3b833ce7	0.004005063
254	0x3dec967e	0.115521416
255	0xbc3aed4f	-0.011409118
