checkpoint_critic_Double_DDPG.pth (torch_old, 550584 bytes, 13 tensors)

bn0.weight f4 [33]
00000000: a85c 1d3f 1e14 c33e ed19 233f 90ec f23e
00000010: 16ae 363f 2b79 1e3f a493 e23e 5822 c43d
00000020: 6839 1d3f 70d0 6a3d a2d2 103f b181 083f
00000030: beb4 c73e 4baa 683f d58a 083f 2f14 353f
00000040: 3f2b 363f 7cf4 513e b495 9d3e 9419 7b3f
00000050: 001f 283c e89c ee3e 4ab6 eb3e a7ca 5a3f
00000060: 86a9 e73e 66b4 213f 08b6 f33e a84e 613e
00000070: accd 5d3e 66a0 833e 7096 3b3d 98b8 333e
00000080: ea1f 1e3f
0.6146951 0.38101286 0.63711435 0.47446108 0.71359384 0.6190364 0.44253266 0.09576863
0.6141572 0.057327688 0.565714 0.53322893 0.39005083 0.90884846 0.5333684 0.7073392
0.7115974 0.2050342 0.30778277 0.98085904 0.010261297 0.46604085 0.46037513 0.8546547
0.45246524 0.6316589 0.47599816 0.22002661 0.21660489 0.25708312 0.045797765 0.17550886
0.61767447

bn0.bias f4 [33]
00000000: 0000 0000 0000 0000 0000 0000 0000 0000
00000010: 0000 0000 0000 0000 0000 0000 0000 0000
00000020: 0000 0000 0000 0000 0000 0000 0000 0000
00000030: 0000 0000 0000 0000 0000 0000 0000 0000
00000040: 0000 0000 0000 0000 0000 0000 0000 0000
00000050: 0000 0000 0000 0000 0000 0000 0000 0000
00000060: 0000 0000 0000 0000 0000 0000 0000 0000
00000070: 0000 0000 0000 0000 0000 0000 0000 0000
00000080: 0000 0000
0.0 0.0 0.0 0.0 0.0 0.0 0.0 0.0
0.0 0.0 0.0 0.0 0.0 0.0 0.0 0.0
0.0 0.0 0.0 0.0 0.0 0.0 0.0 0.0
0.0 0.0 0.0 0.0 0.0 0.0 0.0 0.0
0.0

bn0.running_mean f4 [33]
00000000: 3d2c 643f 2573 0dc0 3172 71bf 782b 0e3f
00000010: 47f2 7f3d c9a4 24bc 90bf dcbd 59d0 c33d
00000020: 75c0 ae39 8354 d93c 830e 04bd 8d02 22bd
00000030: 562c 0fbe 555c 9c3f 9344 3ec0 dae8 a2bf
00000040: 0d54 b43c 293a bb3d a577 dc3c acf3 463e
00000050: 1b0c 453e f58e 633c e47e 173e 9e8f 5cbe
00000060: 931a 6a3d 728e 7ebe ae6c c93d fcff 7fbf
00000070: 1de2 50be 0000 0000 fcff 7f3f 0000 0000
00000080: 21a3 f4bc
0.8913 -2.2101529 -0.9431487 0.5553508 0.062486913 -0.0100490535 -0.10778725 0.095612235
0.00033331258 0.026529556 -0.032240402 -0.039553214 -0.13981757 1.2215677 -2.9729354 -1.2727311
0.022012735 0.091419525 0.02691252 0.19428891 0.19242899 0.013889064 0.14794499 -0.2153916
0.05715425 -0.24859026 0.09835182 -0.99999976 -0.20398755 0.0 0.99999976 0.0
-0.029862942

bn0.running_var f4 [33]
00000000: 2ded 7740 55b8 e43f 04fb 7540 0f92 a63e
00000010: 9dbf a03d 17d1 113e 1311 043e d1fd 9f3f
00000020: 4127 ee3d fe0c 6a3e ba0a 7840 d8fc 9540
00000030: 487b c840 5fba 8e41 2e86 ca40 09c9 8d41
00000040: 7597 3d3e 05db 973e 561f 273e 79f0 9d3e
00000050: 6b54 a140 2b98 9b3f e9e7 c03f eacb 9a41
00000060: a5ad c741 4166 ff41 0cf1 0142 0400 0000
00000070: 72ea fa41 0400 0000 0400 0000 0400 0000
00000080: eac9 a93e
3.873851 1.7868754 3.8434458 0.3253331 0.07849047 0.14239918 0.12897138 1.2499334
0.11628581 0.22856519 3.8756547 4.6871147 6.265049 17.841002 6.3288794 17.723162
0.18514808 0.29659286 0.16320547 0.3084753 5.041555 1.2155813 1.5070773 19.349567
24.959787 31.924929 32.485397 6e-45 31.364475 6e-45 6e-45 6e-45
0.3316186

fcs1.weight f4 [400, 33]
00000000: c801 e2bd 874f cdbd c23b 543b 5558 233d
00000010: 8cbd e63d 94f1 f3bd bbbd dabd 12e4 e3bc
00000020: 4d8c e9bc 82ed 6bbc 3527 3dbd 887d 2a3d
00000030: c185 c4bb f45b ef3c 86db 863d 8d83 a3bc
00000040: 6aee a0ba 28ce 213d 95d7 b9bd c34e 2a3e
00000050: 9946 75bd 0455 f9bc 094b 42bd 3bfd e33c
00000060: f6f7 163a baa6 e73c 94b9 b93c 5be3 b3bc
00000070: 947f 123d 7847 0a3c 48bc 36ba 109d 26bd
00000080: 0d6e 7dbe b080 6ebc cfdc 40bd a96e 083d
00000090: 4a44 043e e60c 563e f2fd 363e f819 e4bd
000000a0: e8d3 89bc 13f1 20be 79c0 2b3e 6606 103d
000000b0: 20f5 02bb d39b 89bb dac1 1ebd 585d 703d
000000c0: aab9 3f3d a36f babd 5110 7dbc af05 0b3d
000000d0: 7660 1cbe ae1e 393c 7ce0 8fbb 6e65 453b
000000e0: 9069 e83c eb49 8cbc 0b69 aa3c 6b4c 253d
000000f0: f0a5 f93b d316 59bc d8ac 1cbd fd54 3f3d
00000100: 9e52 e73c 3209 833e 59d6 7e3d 4ba7 aebd
00000110: f0f0 91bd 64b1 d23d 6de5 4a3e f115 5f3d
00000120: b38b 4dbe dc3e a53b 2fe7 843c 0979 b6bd
00000130: 07a7 cd3b 4a2b a3bc 1fea c93b 81b6 8cbc
00000140: 9a65 dcbc 56da dabc c305 8cbc 6b80 9bbb
00000150: ee74 223d 532c f03c 144d 8cbb 5849 013d
00000160: 880a c83c 888c 6abc 1df5 a6bb a55a 11bc
00000170: 2c2f 243d ad55 e63c 0070 1ebb e9e4 2a3d
00000180: ec95 10bd 9206 b83c 2d9b cdbe bdb3 0e3c
00000190: 6cf7 0a3d e5d1 9cbd 3f61 ebbd 4ba9 f0bd
000001a0: bb27 c8bd bac0 38bd aa41 aebc 9fe9 d23d
000001b0: 52ec 383e b24b 043e 0516 9e3c f638 2ebd
000001c0: ceff 213b 3f64 dcbb 0590 803c 31ef 713d
000001d0: 45fe c33d 60ca 903c 12c6 50bc eb47 af3a
000001e0: 31b7 583d 29b4 74bc ee6d 303d 136c 183c
000001f0: 3930 c03c 7037 1d3d 6946 8e3c c87d d13d
00000200: e7d0 3d3d 8514 59bc b061 cbbc 3566 34be
00000210: 90fa 9fbc 364f 703c b2a1 e0ba 28bc 0ebc
00000220: 05c3 3fbd b58c 573e cbf1 ff3c 1228 cdbc
00000230: 3815 fa3a d5a9 10bc 7089 273b 7dfa dc39
00000240: 5f1e 59bc 3430 fe3c bda1 b1bb 2c7f 77bb
00000250: d121 97bd 3a9f 4fbc e0f9 23bd e022 843c
00000260: bcbf 00bc 2966 a1bb 9df2 94bb d725 b63a
00000270: 3126 823b 26a2 97bb 014a 57bd f876 213c
00000280: f93e 2bbc 5ad4 2abd 2cc9 3bbc 801c 94bb
00000290: 72c1 08bf 7917 46bd a0bb 323d 17fc ba3d
000002a0: 6076 2c3e ccd1 953d db0a 023d a002 bdbd
000002b0: adbe 4b3b cd4f 33bd 9ffe 39bd 43ac 513c
000002c0: 7a1b 303d dad0 043d 5bd9 eabb ad38 293d
000002d0: 5c55 253d 7f30 e43c 2f91 ee3c 8693 5dbc
000002e0: 68ce a93d 3a79 a2bc af2a 48bd 494c a7bc
000002f0: 1a82 26bd 49f2 363d 3e86 ee3b f913 4c3c
00000300: 685e bcbc 992d ccbd c88f 1a3c d75d 163d
00000310: 46b8 ea3c d6fe 95be 4f30 803d 5e26 d5bc
00000320: 6fc3 823b dfa5 1cbd e10c 9a3d e3a4 aebc
00000330: 477c 793d 8e59 d63c d939 783e 6b02 0abe
00000340: 57f4 ddbc d0c8 bb3c 934b bfbc 785a f93c
00000350: c3e0 77bc 47bf 8fbc 6cf8 eabd 70d1 6f3d
00000360: 9dce 6bbe d732 cebd 10f7 84bd 1db6 f9bc
00000370: 8c60 663c 7434 903d 0c17 af3a c160 853d
00000380: 2e47 9ebc 81fe 603c b544 0a3d a2cc cf3c
00000390: cca9 26bd dce8 763c 83da f83d 74d7 b03c
000003a0: ef2c 913d c382 d33d c09f d03c 749c 813c
000003b0: cb3f b33d 1821 203d 1c53 08bd a697 c4bd
000003c0: d116 45bd 0f73 073d 2a76 a23b 1dd1 a93c
000003d0: 1148 efbc 200c 34bd 7806 013d ba2e 85bd
000003e0: 77ea 913d 990e 91bd 7764 d13d 2d6a 783b
000003f0: 0bb8 06bd 244c a7bd 1454 8abc 3345 9e3c
-0.11035496 -0.10024934 0.0032384251 0.039879162 0.11266622 -0.11911312 -0.106807195 -0.027818713
-0.028509283 -0.014399888 -0.04617997 0.041623622 -0.00599739 0.029218651 0.065848395 -0.01996019
-0.0012278084 0.039503247 -0.09074322 0.16631608 -0.05988178 -0.030436046 -0.04743484 0.02783071
0.0005758995 0.028277744 0.022671498 -0.021958997 0.0357662 0.008439891 -0.0006970805 -0.04067713
-0.24749012 -0.014557049 -0.04708558 0.03330866 0.12916675 0.20903358 0.1787031 -0.11137766
-0.016824678 -0.15716963 0.16772641 0.035162352 -0.0019982532 -0.004199484 -0.03875909 0.05868277
0.046807922 -0.09103324 -0.015445785 0.033940967 -0.15271172 0.0112988185 -0.0043907743 0.0030120271
0.028370649 -0.01712509 0.020802042 0.04035608 0.0076186582 -0.013250071 -0.038250774 0.04671191
0.028237637 0.25592953 0.062216137 -0.08528002 -0.07126033 0.10287741 0.19814081 0.054464284
-0.20072822 0.005042894 0.016223518 -0.089098044 0.0062760147 -0.019918103 0.0061619426 -0.017176868
-0.026903916 -0.026715439 -0.017092591 -0.004745533 0.039662294 0.02931801 -0.0042816494 0.031564087
0.024419084 -0.014315732 -0.0050951377 -0.008871709 0.04008405 0.028117025 -0.0024175644 0.041722212
-0.035299227 0.02246407 -0.40157452 0.008709845 0.033927366 -0.07657222 -0.114931576 -0.1175104
-0.09773203 -0.045105673 -0.021271545 0.10298466 0.18058899 0.129195 0.01929761 -0.04253479
0.0024719122 -0.0067258175 0.015693674 0.059066 0.095699824 0.017674625 -0.012742536 0.0013372874
0.05290908 -0.014935532 0.043073587 0.009303111 0.023460494 0.038382947 0.017367559 0.10229069
0.046341803 -0.013249521 -0.024826854 -0.17617114 -0.019528657 0.014667323 -0.0017138033 -0.008711852
-0.046816844 0.21049769 0.031243226 -0.025043521 0.001907981 -0.008829554 0.0025564097 0.00042148298
-0.01325187 0.031028844 -0.005420892 -0.003776501 -0.07379497 -0.01267224 -0.04003322 0.016129911
-0.007858213 -0.0049255085 -0.0045455233 0.0013896775 0.003971838 -0.004627484 -0.05256081 0.0098550245
-0.010452026 -0.04170642 -0.011461537 -0.004519999 -0.53420174 -0.04836223 0.043635964 0.091301136
0.16842031 0.07315406 0.031748634 -0.09229016 0.0031088993 -0.043777276 -0.04540884 0.012797418
0.042994954 0.03242574 -0.007167024 0.041313816 0.04036461 0.027855156 0.029121963 -0.013523942
0.08291322 -0.019833196 -0.04886883 -0.020422118 -0.04065142 0.044664655 0.0072791865 0.012455934
-0.022994235 -0.099696346 0.009433694 0.036710586 0.028652322 -0.29295987 0.06259214 -0.026019271
0.0039905827 -0.038244125 0.07521988 -0.021318858 0.060909536 0.02616575 0.24240817 -0.13477485
-0.02709405 0.022922903 -0.023351466 0.030438647 -0.015129271 -0.017547263 -0.11473164 0.058549345
-0.23028035 -0.10068291 -0.06492436 -0.030482346 0.0140611045 0.07041255 0.0013358309 0.06512595
-0.01932105 0.013732553 0.03375693 0.025366131 -0.040689275 0.015070166 0.12151053 0.021587111
0.070886485 0.10327675 0.0254668 0.015821673 0.08752402 0.03909406 -0.033282384 -0.09599237
-0.048117463 0.033068713 0.004957934 0.020729596 -0.029209169 -0.043956876 0.03150031 -0.06503053
0.07124799 -0.070828624 0.1022424 0.0037905083 -0.03289036 -0.081688195 -0.016885795 0.019320106

fcs1.bias f4 [400]
00000000: 9750 f33a f3a1 073e 5376 70bd f965 1ebd
00000010: d659 0cbe e671 f53d f6ae 95bd e18d 76bd
00000020: 32ae 13be c56a 113e d81e 10be a5e2 bc3b
00000030: 2752 f6bd 9aa8 ffbc 3e2c 943d 65a0 da3d
00000040: c18c 12be 1717 0abe 3653 2a3d bcb7 52bc
00000050: c690 d0bd fc35 13be b0d9 c23d c9b2 0f3d
00000060: 1d1c db3d 53e7 853b 0cce 4a3d bd1c c43c
00000070: e2e0 73bd 1c87 923c 9810 7abc 8310 12be
00000080: 6c3f 063e 5e86 1dbe 2caa eabd 22cf 5cbc
00000090: b5f3 143e dc94 17be bdd5 9f3c 4864 a7bb
000000a0: cc84 92bd 54b2 823d 8f0a 13be 3636 0b3b
000000b0: 5aa2 24be 3f74 0dbe c64d ddbd f03a 27be
000000c0: a3a2 aa3d 6477 09be 0348 643c de09 bfbd
000000d0: babe 26be 2d1b 063e aeeb 1c3e e4de d2bd
000000e0: 4fda 0cbe 402e e73d 2546 1c3e a995 da3d
000000f0: 775f a4bd d49e 01be e8a5 963c 73d0 0a3e
00000100: 3b9a 2dbe 8d4d 1d3d 8c11 06be 3934 cebd
00000110: 10db b63d ac86 213c 472f 253e 8649 323d
00000120: c919 02bd d83e 0c3e 7260 e53d 957e 0ebe
00000130: 61dc 03be 598f 0c3e 5ee1 283d 982e f23d
00000140: 185e 0fbe 9eac 753d 7a6d b1bd f7a8 1cbe
00000150: 5a3b 943d 1689 de3d cd80 293e 2753 263e
00000160: ac7f 19be 50e5 e13d 9424 143e 5d35 1bbe
00000170: c3bb 1d3e d518 1f3e 4ff2 233e f1e5 1fbe
00000180: 4dd5 e43d cb0f 183d ac40 403c ddb7 c23d
00000190: fcdf 90bd adcd 17bd cb5e 5bbb 1bb3 31be
000001a0: 9b32 14be c059 1fbe 7cfe 09be 7fc4 8ebd
000001b0: 2431 e73d 0a15 32be d55c 193e c439 13bb
000001c0: f267 0fbe 6ac0 da3d 3866 fc3d 5e8a 13be
000001d0: e891 1b3e 2454 b1bd 46ce 493d 0ef7 3c3d
000001e0: 90a0 14bc ea0d 16be f46e e43d 5c9e 1abe
000001f0: 2fdb cabd 17bd 2fbc 9c05 483d fe94 1b3e
00000200: 6a07 d6bb 1c58 04bd 56ab efbd f5ce 233e
00000210: f7ef 29be 97d1 8dbd e191 a7bd ba11 1dbe
00000220: 6e1f 893d 5bb1 c93d 6300 083e f95c 6fbc
00000230: b470 30be 0515 c73d 2548 2bbe 5f00 d1bd
00000240: e1df 7f3d 4223 9d3d faea 333d ab74 d9bd
00000250: ab78 bcbd 386e 8b3c 9134 a23d 5c5f 0bbc
00000260: c608 c1bd 4f4e 843d ab78 683d fd70 75bd
00000270: 87fe 76bb 7e0f c43c eea5 adbd 1ee3 2fbd
00000280: bbc3 81bd 703b 3bbc e1c4 d6bd 3f44 eabd
00000290: 5892 e2bd c37a 053d 2f44 8a3b 47a7 5fbd
000002a0: 409f d4ba afec 333d 1400 503d 4656 443c
000002b0: 4bd6 37bd f530 cebd 4a5f a4bd 591a bfbc
000002c0: c49a 04be 91af b7bc 3c89 e8bd e618 27be
000002d0: 95cb 943d 9037 e5bc 550b 32bd d150 a13d
000002e0: ff16 e6bc a91e 1abd 5fa8 303e e5e0 9c3d
000002f0: fd9d 11be c25f 023e a4bf b9bd 09ec 1fbd
00000300: bb6a a63d 1279 293e 7e23 0fbe 2927 d9bd
00000310: 5a1e 1cbe 97ff 26be 2f0e 24be e590 0abe
00000320: e110 1e3d e31e 8a3d 499e 0c3e 3ce6 e63d
00000330: 3866 12be 70e7 7b3b 269a 23be 2236 1d3e
00000340: d291 03bd 89ea 803d b965 e4bd f8c1 143e
00000350: 9fa2 03be 027a 6d3d 18ec 05bd 4be7 b3bc
00000360: eee1 1ebd 879d d43d 4a66 2e3d 6534 c03d
00000370: 3800 77bd 04f9 c5bd 528e ea3d 062e 04be
00000380: f6f0 bebd 784c 21bd b397 06be cf33 f53d
00000390: b894 1a3e e574 abbd 04fd f6bd f51c ac3c
000003a0: 5da2 c93d 4075 fe3d 54d6 88bd ad76 bbbb
000003b0: 8dcf a4bd e58f 2cbe 4813 e2bc 239c 55bd
000003c0: 2891 db3d fb0f f23d d5ab 03be 4c2d 6d3d
000003d0: 2883 fbbd aabe c1bd 9f5a 113e 2493 4cbd
000003e0: 13f2 cd3d 3863 2ebe 2975 1fbe f208 b53c
000003f0: cc05 24be 26ab f43d db03 093e 93cf eabd
0.0018563446 0.13245372 -0.058706593 -0.038671467 -0.13706145 0.11984615 -0.07308762 -0.0601939
-0.14421919 0.14200886 -0.14074266 0.005764323 -0.12027388 -0.031208325 0.07235001 0.10675124
-0.14311506 -0.1348537 0.041583262 -0.0128611885 -0.10183863 -0.14376062 0.09514177 0.035082612
0.106987216 0.004086414 0.049512908 0.023939485 -0.059540637 0.01788669 -0.015262745 -0.14264111
0.13110131 -0.15383288 -0.11458239 -0.013477119 0.14546092 -0.14802879 0.019511098 -0.00510839
-0.07154235 0.0638167 -0.14359497 0.002124203 -0.16077557 -0.13813876 -0.1080585 -0.16331077
0.08331802 -0.1342445 0.013933185 -0.09328054 -0.16283694 0.13096304 0.1532428 -0.10296419
-0.13755153 0.11288118 0.15261133 0.10673077 -0.08026021 -0.12658244 0.018389657 0.1355608
-0.16953366 0.038404036 -0.13092631 -0.100685544 0.089285016 0.009858768 0.16131316 0.04352715
-0.031762872 0.13695848 0.11200036 -0.13915475 -0.12877037 0.13726558 0.041230552 0.11825293
-0.14000738 0.059979074 -0.08663459 -0.1529883 0.07237883 0.10865991 0.1655304 0.16242658
-0.14990109 0.11030066 0.14467078 -0.15157075 0.15403657 0.15536816 0.16010402 -0.1561506
0.111734964 0.037124436 0.011734169 0.095077254 -0.07073972 -0.037061382 -0.003347325 -0.1735348
-0.1447243 -0.1556158 -0.13475984 -0.069710724 0.1128867 -0.17390838 0.14976819 -0.002246485
-0.14004496 0.10681231 0.12324184 -0.14408252 0.15192378 -0.08658627 0.049268983 0.046134047
-0.009071484 -0.14653745 0.11153975 -0.15099472 -0.09905087 -0.010726235 0.048833475 0.15193555
-0.0065316455 -0.03231059 -0.117026016 0.15996917 -0.16595446 -0.06924742 -0.08182121 -0.15338793
0.06695448 0.09848281 0.13281398 -0.014609569 -0.17230493 0.09720806 -0.1672674 -0.10205149
0.062469367 0.076727405 0.043925263 -0.10617956 -0.09202703 0.01702033 0.079201825 -0.008506622
-0.094255015 0.06460249 0.056755703 -0.059922207 -0.0037688331 0.023933169 -0.08478914 -0.042941205
-0.06336161 -0.011427745 -0.104867704 -0.11438798 -0.11063069 0.032587778 0.004219554 -0.054602887
-0.0016221777 0.04392689 0.050781325 0.01198346 -0.0448821 -0.100679316 -0.080259874 -0.023327993
-0.12949663 -0.022422584 -0.113543004 -0.16318092 0.07265393 -0.027980596 -0.04346784 0.07876743
-0.028087137 -0.037626896 0.17251728 0.07660083 -0.14220424 0.12731841 -0.09069756 -0.03904346
0.08125826 0.16550091 -0.13978383 -0.10603172 -0.15245953 -0.16308437 -0.16021036 -0.13531835
0.038590316 0.067441724 0.13732256 0.112743825 -0.14296806 0.0038437508 -0.15976772 0.15352681
-0.032121487 0.06294734 -0.111522146 0.14527118 -0.12855004 0.057977684 -0.03269586 -0.021960875
-0.038789682 0.103816085 0.04257802 0.093849935 -0.060302943 -0.096666366 0.11452927 -0.12908182
-0.093233034 -0.039379567 -0.13143806 0.11972772 0.15095794 -0.08371905 -0.12059978 0.021009902
0.098454215 0.124247074 -0.06681505 -0.0057209344 -0.080474 -0.16851766 -0.027597085 -0.052150857
0.10721046 0.11819454 -0.12858517 0.057904527 -0.122808754 -0.094601944 0.14194725 -0.04994501
0.100559376 -0.17030036 -0.15572037 0.022098992 -0.16017836 0.119467065 0.13380377 -0.11465373

bn1.weight f4 [400]
00000000: 8dd4 943e 5814 d13e ba99 ae3e d1c1 293e
00000010: 8b0e 433f 7b27 343f 40b6 a23e dabc 8b3d
00000020: 6a33 2e3e 037b 4f3f b4df 2b3f 6c9e 073f
00000030: 8f77 ec3d a0eb af3e 9d3f 4b3e 26c9 0d3f
00000040: 96a8 cf3e abd8 bd3e de5c 153f 8705 403f
00000050: 35d0 193f 4b22 ff3e 35cf c13e 5f34 7b3f
00000060: c9fe 8f3f 1776 b73e 839a ae3e 028e c43e
00000070: b334 fb3e abd8 1f3f bdcb b83d b910 403f
00000080: ff98 253f dd25 bb3e 1f30 c53e 3321 af3d
00000090: cbbf 3b3f 3ff2 9c3e 781f 5c3f ccfa d53e
000000a0: b212 053f 98ad 1b3f a639 003f e09c 3d3f
000000b0: 618b 583f 62b8 233f 671b 5a3f 937c 3d3f
000000c0: c71d 253f f268 743e 1d2f 083f 5772 503f
000000d0: b6d7 013f 620b 043f e424 b63e 48d5 153f
000000e0: 826e 153f 4781 e23e 5499 273f b13c f13e
000000f0: 8a82 ff3e d911 1e3f 6ff8 9a3e 668a 023f
00000100: fef0 303f 6684 df3e cf9f 023f 689d 2f3e
00000110: 7574 7d3e 0a1b 263f 2c00 483f d4f8 d63e
00000120: 00f5 1b3f 7e59 c33e 2cf8 403f 0f6b 213f
00000130: d3d8 423f e383 c73e 0ce4 763e 8dc2 6c3d
00000140: 437b d83e 17f7 0e3f cf4b 2e3f 3517 083f
00000150: 2dbe 143f a249 213f 4bb5 0a3f d606 4c3f
00000160: 48b9 623f ef58 123f d033 363f ef28 063f
00000170: 33cb 123f d6a8 8a3e e766 1a3f 223c 0a3f
00000180: 04a7 513f 8f0c 803e ecbb 143f 3792 673e
00000190: cd7b 143f 30eb 3b3f b607 a13e a38f 053f
000001a0: 76cb 3d3f 76fe 443f 1a22 0a3f 4636 2b3f
000001b0: f668 7d3f a732 073f 855e 0d3e a4ba 923e
000001c0: b5e6 623f 87e9 833e 0cdf 8a3e 5085 da3e
000001d0: eb0c f23e c265 543f 59d9 a23e c1a6 173f
000001e0: 9a1f 083f b202 c63e ff34 0b3f c247 183f
000001f0: 936c 143f 1434 473f 2396 243f df35 293f
00000200: 4e62 053f 78e7 d63e dbee 2a3f 5e92 723e
00000210: 4b4c 923f b73e 4d3f bd4a 403f 1d07 493f
00000220: 1ca2 a23e bb83 843e 1d4c 783e ce8e 623e
00000230: dc35 463f 883d f23d 11bb 193f 118e 5c3f
00000240: 0c4c 193f 5250 853e 2125 943d 5d4e 423f
00000250: 7fa0 353f ee7c 303f 1e9a 663f a9b8 503f
00000260: 3c5a 6b37 7c12 4c3f 757f f83e c1d5 d93e
00000270: 6336 553f c303 df3e a30d 793e c2be 483f
00000280: 031c 833e 7557 ba3e d01d bf3e 40fc 2e3f
00000290: e945 cd3e 45ff 2c3f b14b 3e3f 90be cd3e
000002a0: a1f9 9c3e 5358 903e def8 323f 1ce6 023f
000002b0: 2073 173f 14e4 243f fd20 343e 00e4 c33d
000002c0: 68dc fc3e 9b4d 1c3f cb92 c63e f8eb 0b3f
000002d0: 413c a83e 0f8f d63e d410 283f ecd6 833e
000002e0: f3e7 ef3e a138 133f 30b3 473f efe8 583f
000002f0: b453 e63d 8839 343f e9fe 0e3f d8ce e33e
00000300: 83eb d13e 5f81 293f 8a9c 073f cb49 0a3f
00000310: ac62 5f3f 7230 943e e22c b03e 10ef 273f
00000320: af30 383f 40ab d33e 33cb de3e c3d8 193f
00000330: 086d 813e fad9 4c3e ffdc 323f 8607 d03e
00000340: e223 cb3e dad2 e63e 9dbf f23e 4b0d 883e
00000350: 1ab1 173f caff 3e3f 25f0 033e 2ee9 413f
00000360: 2c03 203f 1ab8 293f 5b7f 0a3f af50 3d3f
00000370: ce67 563f 0210 b13e 944a 393f 4098 a33e
00000380: 4c9b 843e 70b6 1d3f 7968 093f 9589 e53e
00000390: 782f 83ba aee4 563f ba1d 4c3e fa0b ad3e
000003a0: de4e f33e 6508 463f f025 4f3f 33f7 083f
000003b0: a309 d33e d9da 213f b82d 6e3b 7f1a 353f
000003c0: c890 593f dd69 d13e 1a34 bd3e 9ed1 843e
000003d0: 2110 143e 86dc 373f 3c80 173f 447c 273f
000003e0: 7bea 053d b84a f23e 3c0a 0a3f 31d9 853e
000003f0: 6e71 043f c497 433f 66db 023f c329 903e
0.29068413 0.40835834 0.3410166 0.16577841 0.76194066 0.7037274 0.3177967 0.0682313
0.170118 0.81047076 0.6713822 0.5297611 0.115462415 0.34359455 0.19848485 0.55385053
0.40558308 0.37079367 0.5834483 0.75008434 0.60083324 0.4983085 0.378534 0.98126787
1.1249629 0.35832283 0.34102258 0.38389593 0.49063644 0.62439984 0.09023235 0.75025517
0.6468658 0.36552325 0.38513276 0.08551254 0.7333953 0.3065357 0.8598552 0.41792905
0.5198165 0.6081176 0.50087965 0.740675 0.84587675 0.6395322 0.8519806 0.7401821
0.6449856 0.23868158 0.5319689 0.8142447 0.50719774 0.5157987 0.3557502 0.58528566
0.58371747 0.44239256 0.65468335 0.47116616 0.4990428 0.61745983 0.30267665 0.5099243
0.69117725 0.436557 0.510251 0.1714989 0.24751456 0.6488501 0.7812526 0.41986716
0.60920715 0.38154215 0.7537868 0.63053983 0.761121 0.3896781 0.2411043 0.057802726
0.4228154 0.5584578 0.68084425 0.5316041 0.58102685 0.6300298 0.5418288 0.7969793
0.88563967 0.5716695 0.7117281 0.5240621 0.5734131 0.27081937 0.60313267 0.53998005
0.8189547 0.2500958 0.58099246 0.2261437 0.58001405 0.7340574 0.31451195 0.521723
0.7413858 0.76950777 0.53958285 0.6687969 0.9898828 0.52811664 0.13805588 0.2865802
0.8863328 0.25764105 0.27123296 0.42679834 0.4727548 0.8296777 0.31806448 0.5923882
0.5317322 0.3867393 0.5437774 0.59484494 0.5797817 0.7781384 0.6429159 0.66097826
0.52103126 0.41973472 0.66770715 0.23688647 1.1429533 0.8017382 0.7511404 0.7852648
0.31764305 0.25881752 0.24247785 0.22124788 0.7742593 0.118281424 0.60051066 0.86154276
0.59881663 0.26037842 0.07233644 0.7590082 0.7094802 0.6894063 0.90078914 0.8153177
1.4028101e-05 0.79715705 0.48534742 0.42545894 0.8328611 0.43557557 0.24321608 0.78416073
0.2560731 0.3639485 0.37327433 0.6835365 0.400924 0.6757701 0.74334246 0.4018445
0.30659202 0.28192386 0.6991099 0.5113237 0.5916004 0.6441052 0.17590709 0.09564972
0.49386907 0.61055917 0.3878387 0.54656935 0.3285847 0.4190602 0.6565068 0.2574991
0.4685665 0.57508284 0.78007793 0.8473043 0.11246434 0.70400286 0.5585771 0.44493747
0.40999994 0.6621303 0.52973235 0.5401885 0.87259936 0.2894321 0.34409243 0.65599155
0.71949285 0.4134159 0.43514404 0.6009638 0.25278497 0.20005026 0.69868463 0.4063074
0.39675814 0.45082742 0.47411814 0.26572642 0.5925461 0.74609053 0.12884577 0.7574643
0.6250484 0.6629654 0.5410058 0.7395124 0.83752143 0.34582525 0.7237942 0.31952095
0.25899732 0.616065 0.5367504 0.4483153 -0.0010008654 0.8394269 0.19933215 0.337982
0.47521108 0.7735656 0.80917263 0.53502196 0.4121829 0.6322456 0.0036343168 0.70743555
0.84986544 0.4090108 0.36953813 0.25941175 0.14459278 0.7182087 0.59180045 0.6542399
0.03269432 0.4732263 0.53921866 0.26142266 0.5173558 0.7640345 0.51116025 0.28156862

bn1.bias f4 [400]
00000000: 3dfd ddbd 6e9c cd3c 6c71 0dbc 2af7 fbbd
00000010: 3bf0 9b3d fb0f 41be cb89 62be faf9 433e
00000020: e7f8 cf3d 6ec6 7c3d c4d8 d8bd 7a4d a2be
00000030: 8209 d3bd c18f 29be 96ed 8b3d 312c ca3d
00000040: 26cb d6bd c627 48be 9472 94bd 54dd 8cbc
00000050: de4d 38be 08b8 2dbd afb1 9bbb a338 0abe
00000060: fbc1 05be 9c91 ae3c cd06 85be b924 90bd
00000070: de25 d8be 6e6a 81be ef95 a53d b348 f13c
00000080: 7192 9a3c 805d 78bd 3e12 e6bd b295 dc3d
00000090: 104e 54be 016d 42be 21b2 63be 436f 34bd
000000a0: ca50 1abd 712e d8bd 9877 05be b9b8 efbd
000000b0: 1e29 c1bd 2ccb 58be c24b 3dbe b419 c1be
000000c0: b41f a43d 20e3 b5bd 217f 2cbe 74e0 97be
000000d0: a994 14be a272 b4bd 81aa 9cbd 0f53 7bbe
000000e0: 129f 9bbd 8def 1f3d 541d 92bc c9d2 f6bd
000000f0: 73b6 99be 31a2 c0bd 7898 c63d 184c 0dbd
00000100: 98e3 b0be 3ffa 753b 7865 8abe cf9a 1c3e
00000110: de00 8fbd 8974 3bbd b5bf 8ebe 074a e3bd
00000120: e221 98be 2c68 fbbd e1d3 93bd 60ae 76be
00000130: f2a5 5cbe 1da5 fabd fb0e 9e3d f095 363e
00000140: 844d 36be 95d3 9dbc eede f4bc 4bf0 67be
00000150: 3869 1fbe 4346 f6bd dd92 27be 40b1 0fbe
00000160: 6810 92be 16eb fcbc 0b67 0c3e ff26 4ebe
00000170: 62c8 fc3d b2ff ec3c 76e0 0c3c d758 87bd
00000180: a51f 0abe b4ec 25be 668e 57be 4a91 fb3d
00000190: 0404 8ebe 6bb9 1cbe b220 913d 3216 1bbe
000001a0: b37a 6fbe 7bcc a2bd 3441 9abd a45c b8bd
000001b0: f6d9 e8bd 5a37 f9bb 40d5 253e 5788 63bd
000001c0: 2ea7 11be 49e4 f8bd 38e0 04be fc99 a4bd
000001d0: b95a 8abd 9062 083d 4b01 a63a 3a97 21be
000001e0: b9da babd 3ded 38be cc78 cbbd c07f 07be
000001f0: 1f03 a63c dd31 e7bc 1265 bbbe 3630 f3bd
00000200: 2e39 473d 8f5a c6bd b999 a43d 419b de3c
00000210: b7d5 3dbe 2581 9d3c 1697 0dbe e25c babe
00000220: e3a2 0d3e 6a43 f8bd 42fd 19be 72cb 18be
00000230: 83de 1c3c 2ebc 153e 5081 ab3d 81d5 9fbd
00000240: 18be 22be 1b49 d33d f443 4e3e c916 26be
00000250: fc35 76be 87c0 69be 6654 5cbe 1a8a 8bbe
00000260: c248 ffb9 7868 5abe 97ea 5bbd a23b 2e3e
00000270: cd62 83be 1386 68be b1fb 94bd b0ef acbe
00000280: 342a 53be 183a dfbc 80ec 3fbe cac4 78be
00000290: 8821 27be 15f7 45be 7029 76be 19ca 9a3c
000002a0: f364 f0bd eb5d 0ebd c277 75be b29a 56be
000002b0: 61f8 43be de6c 8ebe c3d4 d63d 14c5 2f3e
000002c0: 8318 47be 109f 263e a68c 6abe ee85 bfbd
000002d0: 1c01 07bc d3d8 58bd 57a6 99be 7e8e 3ebe
000002e0: d885 d83d d61b c0bd 99f6 23be b2ac 10be
000002f0: 6b51 383e 1c3c 9dbe 76a5 c7bd 4e2a 88bd
00000300: 72ec 2ebe 67c1 9fbe 5d72 70be eb1a d2bd
00000310: 1792 86bd e309 b23d e162 1e3c 71ce 8abe
00000320: 4fdc 11be 47f1 6dbe 64d8 183e 0918 1fbe
00000330: ef5a aabd 496c 25be e3c7 20be 139a ecbc
00000340: 4185 71bb 49ea dfbd 4bc2 6cbe 1782 0dbe
00000350: 5f96 12be 7b0f 94be 9d8e 1a3e 29f3 a8be
00000360: e51e a1be b531 4dbe 83ac 93be a8ce 57be
00000370: bbd9 f3bd 1ea6 cbbc d341 e5be 9f44 4fbd
00000380: 5264 a1bd 77f1 91bc 697a 44be 8209 8bbd
00000390: 9079 6dbc 6e55 233e 8cb7 16be 22b4 b4bd
000003a0: f7c4 00be 0d47 483a 3e1c 8c3d d1b3 27be
000003b0: 9cf5 e8bd b68f aabd 8273 3d3e cf7f 0cbe
000003c0: e717 20be 8357 03be 605c 1fbd 561d 3bbe
000003d0: fdea 0c3e d344 10bc 3ae1 cebc 8cca 55bd
000003e0: 6956 263e d4cb 5ebe 7ccd 02be 86c6 c7bc
000003f0: 1653 3abe 043c 70be 2ffc df3b fa2c 753c
-0.10839317 0.025099006 -0.008632999 -0.12303002 0.0761418 -0.18853752 -0.22122876 0.19138327
0.10154896 0.061712675 -0.1058822 -0.31699735 -0.10304548 -0.16558744 0.06832425 0.0987171
-0.10487966 -0.19546422 -0.072484165 -0.017195381 -0.17998454 -0.042411834 -0.004751406 -0.13498168
-0.13062279 0.021309666 -0.2598175 -0.07038254 -0.4221639 -0.25276512 0.08085238 0.029453611
0.018868657 -0.060636044 -0.11233948 0.107707396 -0.20732903 -0.18986894 -0.2223592 -0.04405142
-0.037674703 -0.10555733 -0.13033903 -0.11705155 -0.094316706 -0.21171254 -0.1848593 -0.37714922
0.080138594 -0.08881211 -0.16845371 -0.29663432 -0.14509834 -0.08810927 -0.076497085 -0.24543403
-0.075987 0.039046813 -0.01783625 -0.12051923 -0.3002201 -0.094059356 0.0969705 -0.034496397
-0.3454864 0.0037533191 -0.2703054 0.1529343 -0.06982587 -0.045765433 -0.27880636 -0.11098104
-0.2971335 -0.122757286 -0.07218147 -0.24089956 -0.21547678 -0.12238524 0.07717701 0.17830634
-0.17803007 -0.01926593 -0.029891457 -0.22650258 -0.15567482 -0.1202512 -0.16364618 -0.1403246
-0.28528142 -0.030873816 0.13711183 -0.20132063 0.123429075 0.028930519 0.0085984375 -0.06608742
-0.13488634 -0.16203576 -0.21050414 0.12283571 -0.2773744 -0.15305106 0.07086314 -0.15145186
-0.2338665 -0.07949158 -0.07531968 -0.09002045 -0.11369698 -0.0076054754 0.1619463 -0.055549946
-0.1422393 -0.12152917 -0.12976158 -0.08037183 -0.06755585 0.03329712 0.001266518 -0.15780345
-0.09123749 -0.18059249 -0.099351496 -0.13232327 0.02026516 -0.028222019 -0.36600548 -0.1187443
0.048638515 -0.096852414 0.08037133 0.02717364 -0.18538557 0.01922662 -0.13827166 -0.3639899
0.13831668 -0.12122233 -0.15038016 -0.14921358 0.009574535 0.14622566 0.08374274 -0.078043945
-0.15892828 0.10316678 0.2014311 -0.1621963 -0.24044031 -0.2282735 -0.2151657 -0.272538
-0.000486916 -0.21328914 -0.05369052 0.17014936 -0.25661317 -0.22707395 -0.07274569 -0.33776617
-0.20621568 -0.027249381 -0.18742561 -0.24293819 -0.16321385 -0.19332536 -0.24039245 0.018895196
-0.117380045 -0.034757536 -0.23971465 -0.20957449 -0.19137718 -0.27817434 0.104898 0.17165023
-0.19442944 0.16271615 -0.22905216 -0.09351717 -0.008240011 -0.052941155 -0.3000972 -0.18609044
0.10572404 -0.09380309 -0.16012038 -0.14128378 0.17999808 -0.30709922 -0.09748356 -0.06648694
-0.17082384 -0.31202242 -0.23481126 -0.102590404 -0.06570833 0.08693292 0.009667129 -0.27110627
-0.14244197 -0.23236571 0.14926296 -0.15536512 -0.083181255 -0.16154589 -0.1570125 -0.028882062
-0.0036853107 -0.10933358 -0.23120992 -0.13819157 -0.14315175 -0.2891806 0.15093465 -0.32998016
-0.31468883 -0.20038493 -0.28842553 -0.21074927 -0.11906763 -0.024859484 -0.44776782 -0.05060255
-0.07880463 -0.017815335 -0.19187321 -0.06788923 -0.014494315 0.15950558 -0.14718455 -0.0882342
-0.12575136 0.0007639982 0.06841324 -0.16377188 -0.11374971 -0.08328192 0.18501094 -0.1372063
-0.15634118 -0.12826352 -0.038906455 -0.1827291 0.13761516 -0.0088054715 -0.02525388 -0.052195117
0.162439 -0.21757442 -0.12773699 -0.024386656 -0.18195757 -0.23460394 0.0068354825 0.0149643365

bn1.running_mean f4 [400]
00000000: bdfc 573d f46a 813b 9534 cd3e 28d8 11be
00000010: 6fa6 1abe 58b7 9dbd a7bb 40bc c4a9 76be
00000020: a07d 823d dbee 3d3e b71e 58be 0b46 31be
00000030: f917 09be 6e53 b53e ed7b 9b3e 3d5f 01bd
00000040: 6915 1ebe 93d3 d0be affc 243e 3fd5 1e3e
00000050: 502c 05bf 8e1a d7be 58e4 be3e 7d2d c5bd
00000060: 6055 923d f664 afbe 0c6e 3dbe 8bc7 3c3e
00000070: 1417 e3be 270b 36be bba0 f73d 10dc 3ebe
00000080: fd8f 4c3e 97e4 1abe a6fd 24be abb1 f03e
00000090: 4799 a1bd e226 67bd 7e3c fabd 5109 0a3e
000000a0: 77f8 9c3d 3d7e 3c3e 2fa4 f5bd 2a29 92bd
000000b0: d9a4 3bbe fbe6 65be afd2 91be 7d0d 74be
000000c0: 754c 49be e7d3 adbe 8b75 bb3e 1cab f9bd
000000d0: 2b21 66be 5121 be3e ffe0 f83c ec9e 83bd
000000e0: f4cc 68be f440 f83e 82bd b9bd d3df b33d
000000f0: 50ba 0cbf 788e 2d3d 762c 9f3e e503 603e
00000100: 7e1c e5be df66 1a3b 84ff 5dbe 67fd 6bbc
00000110: 0604 293e de5b febd a9fa c23e 0f54 583d
00000120: 21cf 203e 253e 66bc 5f02 88bc 2c16 e4be
00000130: 17b7 20be 4a0d 033e deb7 593e 64d7 1bbc
00000140: 4274 ccbd 97c0 7a3d 6151 8cbe 000b 103d
00000150: 3041 8b3d 27cd 15bc e482 8e3e 1112 903e
00000160: d3e1 473d 577e 8b3d 0ad2 c63e 9935 f8bd
00000170: 386e 933d de3d b23e 523d d93d bc69 34bd
00000180: d9c5 b33d a79f 803c debc 62be b08f 0c3e
00000190: b931 2b3e e183 01bd cf8a 3cbe 2eb9 bdbd
000001a0: 0c19 d4be ae05 b0be 4e06 86bd e839 46be
000001b0: 53e5 513e b47e 99bd 232e 6b3e 2d32 653e
000001c0: 200f 6fbe 6840 f8bd 2876 6b3e b134 f83d
000001d0: e282 593e c4f2 acbe 4f13 4dbe abdb 923d
000001e0: aaf0 fa3b 537f 3bbe 1b45 3b3e 7601 59be
000001f0: 853d cb3c afde 7a3e 23af 1ebf e854 d53e
00000200: ff25 7f3b 4c2c e93d 7d60 31be 891e c33c
00000210: 4b11 60be 62b2 873d 4729 263d 0add 9bbe
00000220: 607a c73d 37dc 923d e2df 813e eddb 0e3e
00000230: 9d99 5bbe d85d a93e a0e6 2abe f0d1 a9be
00000240: 8286 4cbd 2562 80bb 0a30 01be c4e0 25be
00000250: 1134 3fbe 3a07 d23d fa58 463e 588e 37bc
00000260: 8b02 323c 5ed1 643e 1adb 553e 5158 85bd
00000270: a8d1 47bd 8027 263d 64bb 48bd 455e c1be
00000280: 52a2 d53d 2d50 d2bd 998d 20bf be78 bfbd
00000290: 29a2 b3bd 80f4 38be 98de 693e 24e4 3a3c
000002a0: 3092 45bb 6fbb 62be 4b81 a2be 7bf4 d53e
000002b0: 876e f13d d3ee 0cbf c36e 37be 3d6c fbbd
000002c0: 4beb b6be 4607 f83d a1b2 bcbd 72f8 93be
000002d0: bb4d ac3e 4a64 bcbe 4c00 f7be 0dbf 313f
000002e0: e3aa 803e 51d5 01be f9b8 6c3e 6d29 cbbc
000002f0: 191e 833e d44c a3be eaba cabd 5cb7 99be
00000300: e974 8fbd 2fa7 603d 62bf 8b3d 049c 17be
00000310: 56f4 11be da8e 9abd 91a1 8bbe 9c27 81be
00000320: 6b42 433d 489c 153d 8871 3e3e cc99 92bd
00000330: b4c7 d8bd 9371 09bf 889a c7bd da7e e53e
00000340: c0a0 383e e29e c13e 2ee3 21bf 1dbe 7e3e
00000350: 8ce7 203e bf33 683e a25e d5be 6df8 753d
00000360: c407 923d eaed cebe b451 593d 1aca 80bc
00000370: 262d 1abd 6b58 b1be 06d6 123f 4c20 27be
00000380: d2eb 4d3e 0d65 cb3d 052d 963e eb31 9f3d
00000390: 618e 543e b51d f3bd 1afe 5fbd 85b8 033e
000003a0: 1853 4f3d 38bd 233e 83c5 8dbe d55d c03e
000003b0: 634a e5be 435b 03be cd1d 4abe 749b 9d3b
000003c0: e993 943d 5fe5 213f 6dee d4bd 5706 a6be
000003d0: 0a4a 89be c1e5 1bbe feda c23e 8e62 debd
000003e0: 4622 903e 3147 d0be c4f6 48be 43b9 b0bd
000003f0: baab 4abe fc8e 9cbd ade9 da3e e3f5 14be
0.052731264 0.0039495174 0.4007918 -0.14242613 -0.15102552 -0.07700986 -0.01176349 -0.24088198
0.06371617 0.18548147 -0.21105467 -0.17311876 -0.13388051 0.35415214 0.30367985 -0.031584967
-0.15437855 -0.40786418 0.16112016 0.15511034 -0.5202074 -0.42012447 0.37283587 -0.09627817
0.0714519 -0.34256715 -0.18499011 0.18435495 -0.44353545 -0.17777692 0.12091204 -0.18638635
0.19976802 -0.15126263 -0.16112384 0.4701055 -0.078905635 -0.056433566 -0.12218569 0.13480116
0.076645784 0.18407531 -0.11994206 -0.07136758 -0.18324603 -0.22451393 -0.2848105 -0.2383327
-0.19658072 -0.3395073 0.36613116 -0.1219084 -0.2247359 0.37134793 0.030380724 -0.06426796
-0.22734433 0.48487055 -0.09069349 0.087829255 -0.5497179 0.042372197 0.31088609 0.21876486
-0.447483 0.002355985 -0.21679503 -0.014403678 0.16505441 -0.12419866 0.38081864 0.05281454
0.15704013 -0.014052902 -0.016602693 -0.44548166 -0.15694843 0.12798038 0.21261546 -0.009511802
-0.09983112 0.061218824 -0.27405837 0.03516674 0.06799543 -0.00914315 0.27834237 0.28138784
0.048799347 0.06811207 0.38832122 -0.12119598 0.07198757 0.34812826 0.10607399 -0.04404615
0.08777971 0.015701128 -0.2214236 0.13726687 0.16718186 -0.03161991 -0.18412326 -0.09263836
-0.4142536 -0.34379333 -0.06544171 -0.19358027 0.20497636 -0.0749487 0.22966819 0.22382422
-0.23345613 -0.121216595 0.22994292 0.12119425 0.21241334 -0.33778965 -0.20026897 0.071708046
0.007658084 -0.18310289 0.1828808 -0.21191964 0.024809608 0.2449901 -0.6198599 0.4166634
0.003893256 0.11385402 -0.17321964 0.023818271 -0.21881597 0.06625821 0.04056671 -0.30442077
0.09740138 0.07170909 0.25366122 0.13951083 -0.21445318 0.3307941 -0.16689539 -0.33167982
-0.049932964 -0.0039179497 -0.12615982 -0.16199023 -0.18672206 0.102552846 0.1936988 -0.011203371
0.010864864 0.22345492 0.20884362 -0.06510986 -0.04878393 0.040565014 -0.049006835 -0.37767234
0.10431351 -0.102691986 -0.6271606 -0.093492016 -0.08771164 -0.1806202 0.22838819 0.011406932
-0.003014695 -0.22141813 -0.31739268 0.41788086 0.117886595 -0.55051917 -0.17913346 -0.12276504
-0.3572639 0.12110762 -0.09213758 -0.28900486 0.33653054 -0.36795264 -0.48242414 0.69432145
0.25130376 -0.1267903 0.23117436 -0.024800027 0.256089 -0.31894553 -0.09898932 -0.30022705
-0.07004721 0.05484694 0.06823613 -0.14805609 -0.14253363 -0.07546778 -0.27271703 -0.25225532
0.047670763 0.036525995 0.18597996 -0.07158241 -0.10584965 -0.53688926 -0.09746271 0.44823343
0.18030071 0.3781653 -0.63237274 0.2487721 0.15713328 0.2267599 -0.41673762 0.06005137
0.071303874 -0.4041589 0.053056434 -0.01572137 -0.037640713 -0.3463777 0.57357824 -0.16320914
0.2010949 0.09931383 0.29331222 0.07773193 0.20757438 -0.118709005 -0.05468569 0.12863357
0.050616354 0.1599015 -0.27689752 0.37571588 -0.44783315 -0.12827782 -0.1973793 0.004809791
0.07254774 0.6324062 -0.103970386 -0.32426712 -0.268143 -0.15224363 0.38057703 -0.108586416
0.2815115 -0.40679315 -0.19625384 -0.08629086 -0.19792071 -0.076444596 0.42756405 -0.14546923

bn1.running_var f4 [400]
00000000: 5ecd 173e 9098 533e f346 5c3e 3c99 193f
00000010: 1354 2e3e d148 bc3e 9b94 753e 2107 b13f
00000020: dd18 823f f3e6 ab3f de1c 303f 0fa5 863e
00000030: cadf 693f 8fc8 063e c031 a83e db7d ec3e
00000040: ede4 9b3d 4faf 943e af88 013e 6533 da3d
00000050: 0872 293e 8e38 bc3d 84ef 193e 56fb 6f3e
00000060: d2fc 493e bd6c d23e 2360 3b3e 4b5a 333e
00000070: 0ccc be3e 69f7 9d3e 9b93 273f 24f3 aa3d
00000080: 714c 4f3e a76c 7e3e 638d e33d e36a 373e
00000090: 94b4 a43e 6fd0 533e a4bf 663e 60b0 5a3e
000000a0: 30ef 9d3e 6fa0 773e 5852 383e 0dcf 0c3e
000000b0: 6668 393e 54a5 163f a016 6a3e a310 5d3e
000000c0: 1c03 583f 3728 883e 2af9 5f3e 3eb0 133e
000000d0: 8bb0 363e 9a43 033e 6a77 2a3e 88ec 603e
000000e0: b49b 453e 317f 853e 3f37 1b3e 0884 763e
000000f0: e58f cc3e 1798 7d3e f5fb 2f3e 4a89 023e
00000100: 7111 003f 2184 213e a7dd 853f 88a0 833e
00000110: dbd7 833e 686f 773f b376 413e bd97 463e
00000120: de7e 3f3e 2317 923e c028 9f3e e8af 2b3e
00000130: a110 bd3e fe0e 933e 2286 333e b0a9 973f
00000140: a1eb 143e 0c13 673e c9aa f93e f7ca 0b3f
00000150: 1db4 443e 1c87 303f 042c 643e c997 323f
00000160: 7398 b83e d5e0 0a3e f7a4 713f 0af8 9b3e
00000170: 0b5e 013f edbc bc3e 0aea 0f3e b6d5 f23d
00000180: 65ed 5e3e fabe be3e 1d50 813f 82c8 f33e
00000190: 2f2e 763e 5329 363e 0681 073e 5ddb 5b3e
000001a0: 3ef2 803e 811f a63f 7598 b93e 8351 5a3e
000001b0: ee59 823e f8c5 0c3f 8c0e f53e b91c f13e
000001c0: 80a6 733e 8742 a03e 65d7 073e 99e1 a93e
000001d0: 3d89 203e 6a5c 043f 8bf3 5a3f b853 393e
000001e0: 88f2 0b3e f10f 423e 5150 183e 9e24 cf3e
000001f0: 8824 de3e 8810 8c3f d85c 6d3e 29cc 8f3e
00000200: edfe 253e 5d11 2f3e 39d7 813e 7f4e b03e
00000210: a40d 2d3e 8137 353e 19ff 6d3e b014 163e
00000220: f142 ab3e e9d3 473e ff7c 983e dcaf c53e
00000230: 4802 303e 4547 bb3e bd5b 953e 4a55 a63e
00000240: af56 453e 31f7 103f 208e 9d3f f515 923e
00000250: d979 fc3d d433 123e fe29 593e 0853 623e
00000260: 83b0 883e 61df 0a3f e5d9 853e 5759 b63f
00000270: 19aa 083e f0e0 1d3e 7fe0 3c3e cb72 b93e
00000280: 2e16 6d3e 193c d63e 1644 af3e 9a88 073f
00000290: 8c45 3e3e cbaa c53e b54a 283f 7a2e be3e
000002a0: 48ee 553e c946 503e 2c0b fa3e 6112 c23e
000002b0: acb3 6c3e bc5f b53e 8bac 993e 0bb8 123f
000002c0: 1f72 5b3e b596 b03d ae12 083f 07bc 7f3e
000002d0: d05b 613e 2f92 f73e 0fc2 a13e d107 d53e
000002e0: 56bf a83e 2a96 233e 47c5 2a3e 99e2 3a3e
000002f0: 7cd9 613e 1fb5 a93e 23ae c63d 523e 7d3e
00000300: fa19 0f3e db27 873e 0044 253e 7400 063e
00000310: 9c6d 5f3e c64e cc3d 0d6b 333e 0c33 793e
00000320: 7b63 e23e 4ebe 213f 1c2e 3c3f 307f 3d3e
00000330: bd4b fa3d 3006 aa3e 736b 103e 20a6 403e
00000340: b12e d93e 2368 353e be11 8f3e b663 493e
00000350: 936a 0e3f 872f 033e 40dd 2f3f 4f53 263e
00000360: 5e5d 263f 4533 453f 4ea4 b23e e297 a93e
00000370: 0437 1e3e 561f a43e 970a 303e 0eae 393e
00000380: 57f8 5c3e c20c ae3e 3db6 903e 3cb9 4e3e
00000390: 9f4c 163e 4ffe ac3f cd00 1f3f a77a a03d
000003a0: 40cf 3f3e 8b5b 233e 6e10 293f 155e 583e
000003b0: 435b 9b3e c99e 203e 977b eb3e c741 e53e
000003c0: 69e9 623e 6611 5a3e 5a9a ba3d 69a6 943e
000003d0: 5186 3e3f 3941 483e bebb 073f 6677 ba3e
000003e0: ef6a 3c3f 8566 a03e 5dd5 a53e f6d6 073f
000003f0: eb21 003e ff42 3e3e be14 1a3e 4ce0 6c3e
0.14824435 0.20663667 0.2151144 0.5999944 0.1702426 0.36774305 0.2398247 1.38303
1.0163838 1.3429855 0.6879405 0.26297805 0.913571 0.13162445 0.32850456 0.4618977
0.076120235 0.2904 0.12649797 0.10654334 0.16547406 0.091904745 0.15032774 0.23435721
0.1972535 0.41098586 0.18298392 0.17514913 0.3726505 0.3085282 0.65459603 0.08347157
0.20244004 0.24846135 0.11110952 0.17911868 0.3216902 0.2068498 0.22534043 0.21356344
0.30846548 0.24182294 0.18000162 0.13750859 0.18106231 0.5884602 0.22860193 0.21588378
0.84379745 0.26593181 0.21872392 0.144227 0.17840783 0.12818757 0.16647115 0.2196523
0.19297677 0.26073602 0.15157793 0.24073803 0.39953533 0.24765049 0.17185958 0.12747684
0.50026613 0.1577306 1.0458268 0.25708413 0.25750622 0.9665437 0.18892936 0.19393821
0.1870074 0.28533277 0.31085777 0.16766322 0.3692675 0.28722376 0.17531636 1.184866
0.1454301 0.2256586 0.4876311 0.54606575 0.19209333 0.6895616 0.22282416 0.69762856
0.3605381 0.13562329 0.9439234 0.30462676 0.50534123 0.3686289 0.14054123 0.118571684
0.21770246 0.3725508 1.0102574 0.47613913 0.24041055 0.17789201 0.13232812 0.21470399
0.25184816 1.2978364 0.36249128 0.21320157 0.25459236 0.54989576 0.4786266 0.47092226
0.23793983 0.31300756 0.1326576 0.3317993 0.15677352 0.5170351 0.8552787 0.18098342
0.13666737 0.18951394 0.14874388 0.40457624 0.43387246 1.0942545 0.23179948 0.2808545
0.16210528 0.17096467 0.25359514 0.34434888 0.16899735 0.17696954 0.23241843 0.14656329
0.3344951 0.19514431 0.29782864 0.38610733 0.1718837 0.36577812 0.29171553 0.32486945
0.19271348 0.56627184 1.2308998 0.28532377 0.12327928 0.14277583 0.21207425 0.22101986
0.26697168 0.542471 0.26142803 1.4246014 0.13346137 0.15417838 0.18445013 0.36220393
0.23152992 0.41842726 0.34231633 0.5294281 0.18581218 0.38606867 0.65738994 0.37144834
0.20891678 0.20339502 0.48836648 0.37904647 0.23115414 0.35424602 0.30014452 0.5731208
0.21430252 0.08622495 0.531535 0.2497407 0.2200768 0.48353717 0.31593367 0.41607526
0.32958478 0.15975252 0.16676818 0.18250503 0.2205562 0.33145997 0.09701183 0.24730805
0.13974753 0.26397595 0.16139221 0.1308611 0.21819156 0.09975962 0.17521305 0.24335879
0.44216523 0.63181007 0.7350786 0.1850555 0.12221477 0.33207846 0.14103489 0.18813372
0.42418435 0.17715506 0.27943224 0.19666943 0.5563137 0.12811099 0.68696976 0.16242717
0.6498622 0.77031356 0.3489098 0.3312369 0.15450674 0.32055157 0.1719154 0.18132803
0.21579109 0.33994108 0.28264037 0.20187849 0.14677666 1.3515109 0.62110597 0.07835894
0.18731403 0.1595289 0.66040695 0.2112964 0.30343065 0.15685572 0.4599273 0.44776747
0.22159351 0.212957 0.091114715 0.2903321 0.744237 0.1955613 0.53020847 0.3641922
0.7360067 0.31328216 0.32389346 0.5306238 0.12512939 0.18580244 0.15046975 0.23132437

fc2.weight f4 [300, 404]
00000000: 3978 04be b2f1 00bd 859a 763d b7c8 22bc
00000010: 32bf c9be b0dc bbbd 0867 54bd 0bb9 303d
00000020: d5d2 8c3d 9264 10bd d82d c7bc 6708 353d
00000030: 2bd2 7fbd 4671 25bc e2b5 70bc 75f9 2fbd
00000040: f7cd 6d3d b92f aebd 6aa0 69bc a963 6fbd
00000050: 2522 253c ab47 dfbc e3e7 ddbd 00fe e53c
00000060: 8426 7cbe 4616 823d 6dac 93bc e95b b9bc
00000070: f721 82bd 4dff fe3c 1ac4 09be 728e b03c
00000080: 76af 09be 32fc 013e 5eaa 123b 9045 3b3d
00000090: c963 92bc 1d1d 02be 3554 f43c be83 c63d
000000a0: 20c1 c23d e7c1 a13d c5ec b4bd 65c7 ecbd
000000b0: 9079 913d 98fa 163d 1264 a8bd 8376 54bd
000000c0: b047 83bc 80cb dabc 7e7c 003d a22e 823c
000000d0: 7598 233e 71bb a83d 80ae a23d 29c2 cebc
000000e0: 0523 1b3d fdb8 79bd c7cd 353d d5ae 833b
000000f0: c084 0a3d dc22 e23c b583 22bd be9f 543d
00000100: d59a 33bd 90e7 223d 35f5 a93d ca89 04bd
00000110: c8b5 9d3d 256d ea3c 54a1 18bd 18b9 233c
00000120: 414e 31bd 42f9 2ebd 694b 433c 11a4 543d
00000130: 3c54 9ebd 883b adbd 4976 9cbd 4326 c83d
00000140: 8c6f 4fbc 21f3 a53c 22bb a5bc 7e6f 9e3d
00000150: 266c 1a3e aa5d da3c bf17 0a3e 9d3a fcbc
00000160: ce99 03be 43a8 623d b987 f63c abdf f33b
00000170: fa01 5cbc 457c e1bd 8997 88bd 7eae aa3d
00000180: 5b09 963a 3e2d 15bc d214 133c 34d0 31bd
00000190: 0825 c5bd ed36 023c 573d c03c 71d9 ba3d
000001a0: a507 d6bd d83f 473c b72b 1cbd 5c52 c23c
000001b0: e736 f93b ba36 ae3b df0b a23d 9e65 5c3c
000001c0: 1838 9e3d c08c f33d 792e c93c b550 d33d
000001d0: 0333 bcbd 4570 ae3d 24b8 933d d3f1 c83c
000001e0: 5ba8 ecbd 4716 c4bc 00f4 463d 26d1 dfbc
000001f0: 0a25 f0ba de3e 1dbb 4800 04bc f68d bf3c
00000200: 1897 80be 0b82 8abd fbc7 843d dc98 08bd
00000210: b9c9 743d 59aa 933d 1b40 60bd 51d6 e2bc
00000220: 0f0a 583d 2b1f c93c ce8c 663c 842e b53d
00000230: a840 f7bc 4777 9f3c 9d04 27be dfaa ec3b
00000240: 1704 0abe faa8 c4bc 0261 d33d c0d6 5d3d
00000250: 442f 66bd 476d 0abe 4c35 e7bc 9471 b8bd
00000260: f7fe 0ebd 9a8d 03bd 83bd 58bd ef94 cf3d
00000270: b9ff 923d a630 a5bb 7395 9fbd f9da 823c
00000280: e097 3c3c c83c 7b3d f3de 4fbd 1792 793d
00000290: 3b81 b6bd 3207 8c3c 2b1c 26bd a045 adbc
000002a0: 1d29 813d d916 23bd 0f98 dd3b b92a b8bd
000002b0: ec28 67bd 92bd 61b9 f2a0 cab9 0173 703c
000002c0: e315 283e 548f 49bd 5934 90bb 4ab0 3bbc
000002d0: 0980 f4bd 4555 73bc 2a2c 4bbd 958d 4c3d
000002e0: a903 8fbd 8844 29bd b675 473d e45a ec3d
000002f0: cf43 3bbd 9cff 7e3d 4edb 7ebd d3c9 893b
00000300: 0074 8fbd 0dfc 2c3d 1e84 c9bc 56be 9a3c
00000310: 7a8a 443b eba6 cf3d 442a b039 c0d2 31bb
00000320: 079a 07be 18ae 0fbd 58b7 8d3c 2993 e03d
00000330: 8f0e ccbd f90c 443d 1fdf 4b3c f4c6 b7bd
00000340: 8637 44bd 4913 03bd 586b 813b efef 50bc
00000350: c62e 613d 9b60 153a a2fe 29bd dd0c 6fbd
00000360: 99d1 083d f974 773d 2c30 babb b895 f5bd
00000370: 5214 b33c 40d2 4eba dc6d ac3d 9676 b53b
00000380: 2f3b 2ebc d479 55bd 5b38 863d b6e6 193c
00000390: 9b42 3a3d 4e03 ae3c 2843 49bd a5f2 6ebd
000003a0: 1ba6 65bd 55c9 71bd 6cf7 99bd 7f57 af3d
000003b0: 1cce 12bd e4a5 293e f2b6 073e 8874 e3bd
000003c0: 61d1 84bd a530 d2bc 9b2c 6a3d 52e7 0cbc
000003d0: db48 773d 39bf 5abc 74bf 8ebd 633a 41bd
000003e0: dfa7 b93d 173a 0cbd 853f 113c 1422 95bc
000003f0: 9033 1839 cd92 a9bd da77 af3d 36ba 78bc
-0.12936486 -0.0314805 0.060205955 -0.009935549 -0.39403683 -0.09172952 -0.05185607 0.04314522
0.068761505 -0.03525216 -0.024313852 0.044197466 -0.06245629 -0.010097807 -0.014691802 -0.04296251
0.05805775 -0.08505196 -0.014259437 -0.058444653 0.0100789415 -0.027255854 -0.108352445 0.028075218
-0.24624068 0.063519046 -0.018026555 -0.022626834 -0.063541345 0.031127596 -0.13453713 0.021552298
-0.1344584 0.12693861 0.0022379379 0.045720637 -0.017869847 -0.12706418 0.02982531 0.096930966
0.09509492 0.07898312 -0.08834223 -0.11561469 0.07103264 0.03686008 -0.08222212 -0.051870834
-0.016025394 -0.026708364 0.031368725 0.015891377 0.15976126 0.082388766 0.079434395 -0.025239067
0.037875194 -0.060967434 0.044385698 0.0040186443 0.033818007 0.027604513 -0.039676387 0.051910155
-0.04384883 0.039771616 0.08298723 -0.03235797 0.07700688 0.028616497 -0.03726323 0.00999286
-0.04328752 -0.04271818 0.011919835 0.05191428 -0.0773091 -0.0845862 -0.076397486 0.09772923
-0.012660872 0.020257534 -0.020230833 0.07736109 0.15080318 0.02665599 0.13485621 -0.030789668
-0.1285164 0.055336248 0.030094014 0.007442435 -0.013428206 -0.11010031 -0.06669528 0.08334063
0.001144688 -0.009105025 0.008977132 -0.04341145 -0.09626204 0.007947666 0.02346675 0.09123505
-0.10450677 0.012161218 -0.038127627 0.023720913 0.007605422 0.0053165825 0.079124205 0.013451962
0.07725543 0.1189208 0.024558293 0.10318128 -0.09189417 0.085175075 0.072128564 0.024529373
-0.11555549 -0.023936404 0.04857254 -0.02732141 -0.0018321585 -0.002399377 -0.008056708 0.023383122
-0.25115275 -0.06763085 0.06483456 -0.033348903 0.05976269 0.072102256 -0.054748636 -0.027690085
0.052743968 0.024550995 0.014071656 0.08846763 -0.030182198 0.019466056 -0.16310354 0.007222518
-0.13478123 -0.024006356 0.10321237 0.05415988 -0.05619742 -0.13518248 -0.028223656 -0.09006038
-0.034911122 -0.032117464 -0.052915107 0.10135829 0.071776815 -0.0050411997 -0.07792177 0.015973555
0.011510819 0.061337262 -0.05074973 0.060930338 -0.089113675 0.017093275 -0.040554207 -0.021151364
0.0630667 -0.03981671 0.0067625116 -0.08992524 -0.05643551 -0.00021528293 -0.00038648356 0.014675857
0.16414599 -0.049208954 -0.0044007716 -0.011455605 -0.11938483 -0.014851873 -0.049602665 0.04993971
-0.0698312 -0.041325122 0.048696242 0.115407735 -0.045718964 0.062255487 -0.062220864 0.0042049675
-0.07004547 0.04223256 -0.024599131 0.018889587 0.0029989765 0.10139259 0.00033600826 -0.0027133673
-0.1324235 -0.035078138 0.01729934 0.109655686 -0.09963714 0.047863934 0.012443333 -0.08973494
-0.047904514 -0.032000814 0.003949564 -0.012752517 0.054976247 0.0005698294 -0.041502602 -0.058361877
0.033403013 0.06041429 -0.005682012 -0.11991447 0.021860275 -0.0007889606 0.084193915 0.005537818
-0.010634228 -0.052118137 0.06553718 0.009393385 0.045473676 0.02124181 -0.04913631 -0.058336873
-0.056066614 -0.059029896 -0.07517895 0.085616104 -0.035841092 0.16567189 0.13253382 -0.11106211
-0.06485248 -0.025657961 0.057171445 -0.008600073 0.060372215 -0.013351255 -0.069701105 -0.047174823
0.09065222 -0.034235086 0.008865242 -0.018204726 0.00014515058 -0.08279953 0.08567782 -0.015181115
